ModelPara/DDPG/Mario_targetPi_DDQN2021-10-08T13-34-58.pth (torch, 17375 bytes, 6 tensors)

Linear1.weight f4 [48, 24]
00000000: 8e2d c83d 6de8 203e 5862 a93d ccad 63be
00000010: aa57 c3bd a687 09be 7b8e 80be e8e8 973d
00000020: bd9b 2cbd ea5b 7b3d 7919 7ebd 5116 283e
00000030: 86e3 0e3e 5788 123e ff81 5b3d d3d4 0dbe
00000040: 79ed 23be c68d fcbc 70b6 eb3d 3c9c 55bd
00000050: 0aa8 4c3e 0ed2 37be 17f1 8cbd e604 cb3d
00000060: 4666 8dba d0d1 e8bd a674 883c a97d 6cbc
00000070: 54cc 9d3e 22e4 39bd 5b05 9e3d 4caf 90bd
00000080: 7315 4a3d ea9d 093d f334 4b3e da0f bd3e
00000090: be86 3c3e f988 3abd d8aa 5f3e a890 543e
000000a0: 4d24 233d ad81 2e3e aca1 583e 1279 3c3e
000000b0: 9132 35be 6747 1bbe 4bf4 d1bc 7c35 a3bd
000000c0: bf5f 8fbe 60e6 50be 09b2 693d 68ed 50be
000000d0: 5b31 5f3e da89 b13d 6afe bb3d d30f 193e
000000e0: 0d32 a83c 9043 6e3e 0736 543e 6bc1 1a3e
000000f0: c68c b83c 707d 28bd 48ea 69bd 5987 673d
00000100: 5cbc e5bd 89a9 203e a6c2 223e 9de5 b4bd
00000110: 3ab3 343e d505 3cbe e20d 323d 127d 4cbd
00000120: 3541 233e aa8c b63d c42d 9abe 863c bcbe
00000130: 1b62 013e 12a3 8ebc d36e 9e3d 118e ec3d
00000140: bb72 c53d 1632 7e3e abbc 073e 0fdc 463e
00000150: 7bb3 4e3e 8e1f 82bc 8ba6 c63c 9e3b c8bd
00000160: 0be5 063e 8ecb cfb8 5bf0 94bc 07b1 cc3c
00000170: a1f0 39bd a7b1 1bbc 7b25 15be 7c9f 62bd
00000180: d3be 99bd 9028 66bc 1fc1 113e 72a0 37be
00000190: 806e d83d 94a0 5d3e ec36 6f3d 605b e33d
000001a0: a5ec 74bd b331 d73e 67db 533d d544 be3e
000001b0: 3bd9 0fbd 261a 3c3e 60b2 21bb 6546 253d
000001c0: 5635 323e db56 063e 5bf1 98bd 2578 643c
000001d0: 8d75 633d 2ffe 1ebc 92ee 373e 207d 143e
000001e0: b188 3cbc 7840 123e 143d 5fbe b9f9 fb3d
000001f0: eb18 c23c dd0f 6f3e 228a 883d b065 543c
00000200: 037d 52be 4c9f db3d ab37 c03d bbb6 823e
00000210: 7cac 643e f0d1 1c3e 449a a3bd b5a6 293e
00000220: da30 c4bd 6fbd 15be 96d2 363e b8b1 553d
00000230: fa67 8cbd 6398 0f3c 3688 c5bb 277a 053e
00000240: 1c1e 9dbb 5df5 28be 8c5c 233e 4ae0 8c3d
00000250: 2324 99bc 1d06 babc 6b31 193d 42e0 0f3e
00000260: 37e8 4ebe e5dc 273d b8e0 a2bd 5848 e5bc
00000270: 376e 013d 4354 c5bd 5453 d4bd e550 b63d
00000280: 5772 9e3d 6ebb 74bd 5ab2 bdbd 60db 16be
00000290: ccf4 ac3d db5c 05be 3efc 77bd de92 073e
000002a0: 9658 c23e e71d 0bbd 4778 8a3e 569a 36be
000002b0: eaa8 073c 57f5 043e ed93 6cbe 654a 85bc
000002c0: 3896 24bd 8733 8abe 40bb 1fbe 1329 41be
000002d0: 56f0 093e b543 2d3e 0823 133d 17f6 873d
000002e0: 3008 553d 5b6e 323c b3ee 843e 00f2 593e
000002f0: 1383 8b3e 2170 eb3c f3a4 093e fba1 df3c
00000300: 40b0 253d 46b7 b3bd 50a4 a1be 0dcb 34be
00000310: 5e28 063e 02ad b13e 73fd cdbe 3494 aa3d
00000320: e348 963e 4a4f 873e 7eb7 373e f148 b73e
00000330: af89 4e3e 2650 8c3e 52f3 8abb dc2d aa3e
00000340: 1610 b33d 66db 7a3d 78d0 133b b211 3b3e
00000350: 8a40 3e3e a81a 573e be45 f23d d423 9e3e
00000360: 82ca eabd df2a 903d 0a71 f83d e8e9 dbbd
00000370: a200 883d d205 31bb 91c5 a93d aae4 783e
00000380: 8b44 4e3d c849 983e 6839 ee3d 3b6c 9d3d
00000390: f2ea 4e3e 3546 b7bc 6ad6 cabd 657d f9bd
000003a0: 5700 d8bc 98d7 63be 936d c03b b2f6 b23d
000003b0: 692c ec3d 8b37 0c3e a382 033e 27b2 1dbd
000003c0: 6a83 43bd b6ab 3d3e 1381 1c3e d9fa b3bd
000003d0: abdf d63c 730d 03be a458 02be 28cf 943d
000003e0: b37d c23d bfde 17bd 4906 f6bd 9618 7c3d
000003f0: e570 393c 6bb5 9c3d 1ed8 c93c b351 41be
0.09774314 0.15713663 0.08270711 -0.22234267 -0.09538205 -0.13430652 -0.25108704 0.0741747
-0.04214071 0.061366953 -0.06203601 0.16414763 0.13953981 0.14309822 0.05359077 -0.13850717
-0.16008557 -0.030829322 0.115094066 -0.05215095 0.19985977 -0.17951223 -0.06881922 0.09913044
-0.0010787926 -0.113681436 0.016657185 -0.014434257 0.30819952 -0.04538358 0.07715865 -0.07064685
0.04933686 0.033597864 0.19844417 0.36926156 0.18410775 -0.045540784 0.21842515 0.20758307
0.03982954 0.17041655 0.21155423 0.1840556 -0.17695071 -0.15163957 -0.025629183 -0.07969186
-0.28002736 -0.20400381 0.057054553 -0.20403063 0.21796171 0.08668871 0.09179385 0.14947443
0.020531679 0.2326796 0.20723735 0.15112846 0.022528064 -0.04113525 -0.057108194 0.056525562
-0.11217567 0.15689673 0.15894565 -0.08832858 0.17646495 -0.183616 0.04347027 -0.049923964
0.15942843 0.08913548 -0.3011304 -0.36764926 0.1263508 -0.017411742 0.07735982 0.115505345
0.09641024 0.24823794 0.13255565 0.19419883 0.20185654 -0.015884187 0.024249336 -0.09776996
0.1317331 -9.908444e-05 -0.018181017 0.024986757 -0.045395497 -0.009502805 -0.14565079 -0.055327877
-0.075071 -0.014047757 0.14233826 -0.17932299 0.10567951 0.21643287 0.058401987 0.11101413
-0.059795994 0.42030105 0.05172291 0.3716189 -0.035119276 0.1836935 -0.002467297 0.040350337
0.17403159 0.1311907 -0.0746791 0.01394466 0.055532027 -0.009704157 0.17962101 0.14500856
-0.011507199 0.14282405 -0.21800643 0.1230349 0.023693522 0.23345895 0.06666972 0.012963697
-0.205555 0.10723743 0.09385618 0.25530037 0.22331423 0.1531446 -0.07988408 0.165675
-0.0957963 -0.14623044 0.1785377 0.05217144 -0.068557695 0.008764359 -0.0060282005 0.13034879
-0.004794849 -0.16499849 0.15953273 0.06878717 -0.01869399 -0.022707993 0.037400644 0.14050391
-0.2020577 0.040982146 -0.07953018 -0.027988598 0.03159925 -0.09635212 -0.10367456 0.08902148
0.07736652 -0.05974906 -0.092625335 -0.14732122 0.08445129 -0.13023703 -0.06054329 0.13239619
0.3795821 -0.033964064 0.2704489 -0.17832312 0.008280018 0.12984215 -0.23103304 -0.016270826
-0.040182322 -0.26992437 -0.15598774 -0.18863325 0.13470587 0.1692036 0.03592208 0.06638735
0.05200976 0.010890569 0.25963363 0.21283722 0.2724844 0.02873999 0.1344183 0.027298918
0.04045129 -0.08775191 -0.31570673 -0.17655583 0.13101336 0.34702307 -0.4023243 0.08329049
0.29352483 0.2642768 0.1794109 0.35797837 0.2016971 0.27404898 -0.004240432 0.33238113
0.087433025 0.06124439 0.0022554677 0.18268469 0.18579307 0.21006262 0.118297085 0.3088671
-0.114644065 0.07039427 0.121309355 -0.107379735 0.06640746 -0.0027011526 0.08289636 0.24305978
0.050358336 0.2974379 0.11632043 0.07686659 0.20206812 -0.022372345 -0.099041775 -0.1218212
-0.02636735 -0.22250211 0.0058724373 0.0873846 0.11531908 0.13693063 0.12842803 -0.038499977
-0.047732748 0.18522534 0.15283613 -0.0878808 0.0262297 -0.12798099 -0.12729126 0.072660744
0.094966315 -0.03707766 -0.120129175 0.061546884 0.01131842 0.0765179 0.024639186 -0.18878822

Linear1.bias f4 [48]
00000000: e62c fcbd d484 2bbe 450d 2e3e 24e0 5b3d
00000010: 898d ed3c 8fc6 54be 1d73 2cbe cb55 083e
00000020: 5e55 b23c a8ee d53d 9191 7abe 31b5 e63d
00000030: c158 253d f7b3 453e 6dda f33c f84c 2bbe
00000040: 3e42 fd3d 4d90 2a3d 08ed 5b3c 9ff7 8a3e
00000050: 5ef8 cd3e c03b 153e cfce 03be 0d9e 6fbd
00000060: 750f 643e 3fb1 80bd 40fa c5bc 4ccf d3bd
00000070: 3d54 e13d 67a0 1c3c 426f 743e cd68 223e
00000080: 33c3 853e 4724 253c db0b 863d 5b31 dfbd
00000090: 314c 2bbc c6b2 7a3c 743c 90be 7da2 7cbc
000000a0: 8e3b 5b3c db91 11bd 4adf 88bd f351 dbbd
000000b0: 2b57 413d a921 73be eb90 473e 9605 3b3d
-0.12313251 -0.16749889 0.1699725 0.053680554 0.028998153 -0.20778869 -0.16840787 0.13313977
0.021769222 0.10445911 -0.24469592 0.11265028 0.040367845 0.19306932 0.02976724 -0.1672858
0.1236615 0.041641522 0.013423212 0.27142045 0.40228552 0.14573574 -0.1287186 -0.05850034
0.22271521 -0.06283807 -0.02416718 -0.10342273 0.11002395 0.009559727 0.23870566 0.15860291
0.26125488 0.01007945 0.0654523 -0.10898086 -0.010455177 0.015301412 -0.28171122 -0.0154196
0.013380898 -0.03553949 -0.06683214 -0.1070899 0.04720227 -0.23743309 0.19488876 0.045659624

Linear2.weight f4 [48, 48]
00000000: 7972 6bbc 1534 adbd 2209 38bd ff8d 193c
00000010: 0fbc 1c3d 18db 18bd a4c1 de3d b090 2a3d
00000020: fda3 343d 92a5 bfbd bac5 b3bc 625c c03d
00000030: adfb a2b9 4210 083e bdc3 b63e 8314 40bc
00000040: 20fa c33b f45c 95bc 9c59 6a3d 07ba d73d
00000050: 1133 f73d e811 e63c 46b2 78bb fcd1 e43d
00000060: 5f18 813c 1b11 1b3e d760 0abc 128c 7dbc
00000070: c0c8 233c 005e e13c c21b 043d 4ccd a43d
00000080: f6fa 8e3d cc73 dcbd 9ea6 8b3e 1ca2 a03d
00000090: 7311 93bc adb6 ba3d db36 43bb 9b91 103e
000000a0: 1011 13bc 2814 96bd 15ca edbc c64d f6bc
000000b0: 96de b4bd 3ef7 fcbd b362 133e f434 7d3d
000000c0: e486 543d 4a76 b43e bd05 2c3e db2a 453e
000000d0: 91c0 ee3d 25fe 6f3e ce8a 06bd e09f 093e
000000e0: 65f0 aa3e 6cbb 1b3d ba2b fc3d 49b0 623e
000000f0: 91cc 2c3e 7cfc 1f3d 3fc7 c43e 9368 1ebd
00000100: 0b32 8f3e aba9 463e 1bfe 403e 6f49 073e
00000110: 6604 b03e d4f7 1c3d 9a31 47bd cdb4 663d
00000120: 7e27 763e 6fa6 043e 04e1 d23d 5007 1e3c
00000130: adb7 253e 7840 923e bf25 c83d ffeb dabb
00000140: 9bb9 013e 9533 6b3e 4a6a b63e 82bc 3d3e
00000150: b3ce 013d cbde 863d 7a12 bb3c 8d9b e53d
00000160: 0d3d e23d 6f19 4f3e 87ff 1abb d630 393e
00000170: 5263 703e 04af abbc 36cb 7e3e c06d 553e
00000180: 1c66 913c e6fd 87bd 8177 3cbd 1283 b23d
00000190: 5dae b8bc a32b c53d 2e2e 7ebd 9bb3 023e
000001a0: 4037 9c3a e8d3 67bd b150 a43a 3f82 9cbd
000001b0: 0405 26bd 4c4e dc3d a8a9 d43d fddc 37bc
000001c0: e8e9 db3d 8dbd f0bc 5518 223d b923 b5bc
000001d0: f5dd febc a005 913d 639d 0a3e 3227 86bb
000001e0: 1642 333d 4678 0abd 3974 32bd d2b5 8ebd
000001f0: 5cc2 a4bd f337 97bc d454 9a3d db0b c63d
00000200: 8884 22bc a0a8 2cbd 6e76 0cbe ddda a23c
00000210: c372 1bbe 055c a43d dc40 123e 4984 babd
00000220: cc3d 25bd 6871 943b 8125 e03d 2792 013e
00000230: 6918 273d 008c 91bd 5d6c 2a3e d244 333e
00000240: 74e4 263e 98a6 a73d 05ad fc3d 228a 483d
00000250: 1f1f 133d e3a8 06be 9200 4ebd d061 2a3e
00000260: 412c a2bc 0ba2 cdbd c2ce 62bb eebf 863c
00000270: 1a6f c33d 1437 e03d 11aa 783e 906e ab3d
00000280: b840 2c3e 9ac9 0f3e f76a cdbc f72d 933d
00000290: 638e 193e 23d8 143e 8679 0f3d d9b4 eebd
000002a0: 1c66 51bd 106e d0bc 9e4f b4bc 0642 79bd
000002b0: 6b6a 1c3d 6295 c33d 3540 783d bc5a 223e
000002c0: 80c9 263e 6bda 1a3d 07ce dc3e e14d 383e
000002d0: 7a4e 0a3d e9c0 bf3d e7d6 1a3e c76a 06bd
000002e0: 4cfa 293d 6f04 46bd e962 be3d 245e 203e
000002f0: ea79 0f3d 0388 0cbe dc27 ab3d b7fd 593e
00000300: c622 f9bc 6958 6dbd 420f 443d 601c 213e
00000310: ea0e cc3a 7bb6 1a3e 9ac6 83bc 4c1f 683e
00000320: 48c6 56bc eb35 123e bb9d 1b3e 791d 353e
00000330: 068b ca3c fc03 653e e5da 783e 4576 a9bd
00000340: a43a 283e e2f3 063e da12 093e 3352 83bd
00000350: efc0 cabc 05d2 3a3e 29df 3b3e 9fff 913d
00000360: 5256 c73d 58a1 52bd 3eae c43d e380 553b
00000370: cac5 c63d 373b 963e c819 203e 5bfd 963d
00000380: 0eb0 853d e9dc 723e f930 b83e 19d7 e1bc
00000390: d1e2 7a3e ef55 47bd 4783 dd3d 0bf9 0bbd
000003a0: f644 32bc 153b f03d 6428 ea3d bcd1 233e
000003b0: 4149 f23c f040 17bd ea3c 3cbe 2f4f 1e3e
000003c0: 67b5 913e 9bd9 1d3e 98e6 6d3c b01a ed3d
000003d0: 4efc 31bc 5623 0e3e 9ea4 033c 3929 323d
000003e0: a4b1 a93e f170 e8bd 8858 213e a65a 043e
000003f0: 5512 bc3d 09c1 f33d 90ec af3e b74a 09be
-0.014370554 -0.084571995 -0.044930585 0.009372233 0.038265284 -0.03731832 0.10876778 0.04164189
0.044101704 -0.09357752 -0.02194487 0.093926206 -0.0003108656 0.13287452 0.3569621 -0.01172364
0.005980745 -0.0182328 0.057214364 0.10533529 0.12070287 0.02808471 -0.0037948056 0.11172864
0.015758691 0.15143244 -0.00844594 -0.01547529 0.009996593 0.027510643 0.032253034 0.0804697
0.06981461 -0.10764274 0.27275556 0.0784342 -0.017952656 0.09116874 -0.0029787335 0.14118044
-0.008976236 -0.07328063 -0.029027024 -0.030066382 -0.088315174 -0.12351845 0.1439312 0.06181808
0.051886454 0.35246497 0.16799064 0.1925463 0.11657823 0.23436792 -0.03284722 0.13439894
0.3338653 0.038020536 0.12313028 0.2213756 0.16874911 0.039059147 0.38433263 -0.03867395
0.27967867 0.1940066 0.18846934 0.13211606 0.34378356 0.038322285 -0.048631288 0.05632477
0.24038503 0.12954114 0.102968246 0.009645298 0.16183348 0.2856481 0.097728245 -0.006680965
0.12668459 0.22968896 0.35627967 0.18528941 0.031691264 0.06585463 0.022835959 0.112113096
0.11046801 0.20224546 -0.0023650841 0.18085036 0.23475388 -0.020957477 0.24882206 0.20842648
0.017748885 -0.06640224 -0.046012405 0.08716406 -0.02254408 0.09627464 -0.06205576 0.12763827
0.0011918321 -0.056598574 0.0012536255 -0.0764203 -0.040532127 0.107571214 0.10383922 -0.011222121
0.107379735 -0.02938726 0.039573986 -0.02211176 -0.031111697 0.07081151 0.13536601 -0.004094028
0.043764196 -0.033806108 -0.04356787 -0.06968273 -0.080448836 -0.018459296 0.07535711 0.0967023
-0.009919293 -0.042153 -0.13717052 0.019879753 -0.15180497 0.08025364 0.14282554 -0.09107263
-0.040342137 0.0045301206 0.10944653 0.12653409 0.040794764 -0.07106781 0.166429 0.17506722
0.16298085 0.08186072 0.12337688 0.04895986 0.03591835 -0.13150363 -0.050293513 0.16638875
-0.019796493 -0.10040673 -0.00346081 0.016448941 0.09542675 0.10948005 0.24283625 0.083706975
0.16821563 0.14041749 -0.025075419 0.071865015 0.14995722 0.14535575 0.035028003 -0.11655588
-0.05112277 -0.025443107 -0.02201062 -0.06085398 0.038187426 0.09549977 0.060608108 0.15854925
0.16287804 0.037805956 0.43125936 0.17998458 0.033766247 0.093629666 0.15121041 -0.032816675
0.041498467 -0.048344072 0.09296209 0.15660912 0.035028376 -0.1372376 0.08357212 0.21288191
-0.03041209 -0.057945643 0.047866113 0.1573348 0.001556841 0.15108673 -0.016085912 0.22668189
-0.013108797 0.1427838 0.15196888 0.17687024 0.024724495 0.22364801 0.24302252 -0.08274511
0.1642862 0.13178971 0.13386098 -0.06412163 -0.024750201 0.18244179 0.18346848 0.07128834
0.09733261 -0.0514234 0.096035466 0.0032578043 0.09705694 0.29342052 0.15634835 0.073725425
0.065277204 0.23717083 0.35974863 -0.027568387 0.24500586 -0.048665937 0.10816055 -0.034173053
-0.010880699 0.11730019 0.11433485 0.15997976 0.029575946 -0.036927164 -0.18382612 0.15459894
0.28458712 0.15415041 0.01452031 0.11577356 -0.010863377 0.13880667 0.008034853 0.043496344
0.33143342 -0.11349667 0.15756428 0.12925205 0.09183184 0.11902053 0.3436017 -0.13407408

Linear2.bias f4 [48]
00000000: ed91 e939 3f18 153a 551b 2e3e f30f f23b
00000010: c574 a3bc ea7c 823d ec0f 103c a610 083e
00000020: 66cc 803d 9408 33bb 5a46 b63d 0953 a43e
00000030: fd6c e0bd 3124 213e 2d71 373d 83dd 043e
00000040: 6148 3b3d a79b 0e3e 84a2 eb3d d282 f1bd
00000050: 089c dc3d 12d5 f53e bbb2 0b3e 1abc 0b3d
00000060: 9219 753e b3b1 0a3e 7fd5 8b3d a892 c1bc
00000070: e92a a63c 7b58 193e c53f b0bc 54ab 163e
00000080: 64df 583e 4801 a23e c1d4 3a3d f046 71bc
00000090: ba7e 433e 8bdd 813e 6ba6 123d 0d98 f03c
000000a0: b2df 613e f841 183f 50d3 ee3d f6f4 cf3d
000000b0: 2f17 9f3e baf8 373d 11bd 203e 0b4f 9f3d
0.00044549946 0.0005687512 0.17002614 0.007387155 -0.019953141 0.06371482 0.008792859 0.13287601
0.06288986 -0.0027318345 0.08900137 0.320946 -0.10958288 0.15736462 0.044785667 0.12975125
0.045723323 0.13926564 0.11505607 -0.1179253 0.10771948 0.48014122 0.13642399 0.034114935
0.23935536 0.1354435 0.068278305 -0.023629501 0.020284133 0.14975159 -0.021514783 0.14713794
0.21178967 0.31641603 0.045613054 -0.0147263855 0.19091311 0.25364336 0.03580324 0.029369378
0.22057989 0.5947566 0.116613984 0.101541445 0.31072375 0.04491494 0.15697123 0.07778748

Linear3.weight f4 [4, 48]
00000000: 754d 62be b41a 9fbd 1a32 b0bd 35eb 28be
00000010: f066 19be 5da3 3e3a 1d0d 24be ff1f 4abe
00000020: da28 3dbd bc5b e63c eb15 4fbe 2518 343f
00000030: 4b32 d03a 8256 8e3d f35e 5d3c 01d2 efbd
00000040: af90 113e f110 783d 1f69 0fbf 140a 1b3d
00000050: 5e5a 863d dd9c 24be 0127 e6bd 49db 383b
00000060: 7c20 9abd b5de 28be dee4 8a3d 31ea b23d
00000070: f3a2 01bd 17e4 0abe b600 34be 6771 543d
00000080: 1d3f bd3e 0c2c a93d 6853 59bc 380f 95be
00000090: 971a 44be 5ace 493e e193 bdbd 508e ed3c
000000a0: b136 20bf 0bba 89bf 0724 973d b756 c7bd
000000b0: 975b 0ebe bbf3 153e a200 c83c dfe9 85bc
000000c0: 0c2d 2d3e 7bf6 91bd 09ac aabd 7598 bb3d
000000d0: 0b59 953d 0f75 bf3a c2d5 febd b5de 483d
000000e0: 624d bbbd b4fb 5fbe b49f b9bd 9518 23bf
000000f0: 921e 09be c406 94bd ba85 c63d d6df 79be
00000100: 995b a73d e506 69bc bea1 843e 70e2 2cbd
00000110: 6fbb 4dbe 3deb 65bf caf4 95bd ecdc e43d
00000120: defe 75be 2898 19be 3139 2abd e76e cabe
00000130: 4a3f 39be 721b c93e 8a13 39be 62c3 58bd
00000140: c85a d1bd 23c9 083e d8ac 27bd 03cc 89be
00000150: 4a49 883d d4a1 dbbd 2f5a d83c e441 2c3d
00000160: 636a 86be 2ce6 c9be 9aa6 5d3d 42fe 373d
00000170: ff3c 2e3e fe79 7bbc 07e3 0cbe bb75 1c3c
00000180: db29 5abe 3900 3dbe 9320 91bc 8625 84be
00000190: 2186 b8be 4526 ee3d ea60 8fbd 4a68 87be
000001a0: 0a25 0dbe 2abd b0bd 505f a0be 35ca babe
000001b0: 86f5 0b3e 98e5 e9bd 02c8 793d 59ca f9bc
000001c0: 8d94 7b3d 7e25 47be df99 4a3e 29f8 62bb
000001d0: c567 fabd 933f 80bc 34cb a5bd 50ad 93bd
000001e0: 5a82 45be 2969 a53d 3726 4d3b 2faa 93be
000001f0: 75b0 b7bc d250 8abe c7fc 4f3d 8ea2 81be
00000200: 9d19 bdbe 8f0d 1ebf 5175 2dbb 2f2a 873d
00000210: 94ee a9be 971a 9dbe b137 a4bd eea8 b53d
00000220: 373b d6b9 6b66 8c3d a709 053d 6571 a23c
00000230: 093d 30bf bf4a 46bd 7c60 a0be e68e 743d
00000240: f95d 7dbe 1102 3bbe 2468 d63d 9d13 bebd
00000250: 7c86 a2be aebb 353d c8bc a2bd 22f4 87be
00000260: 4b3e 8e3d 4360 83bd 21b9 7cbe d557 bfbe
00000270: d361 dc3b 0d47 f1bd db24 c63d dd5a 6f3d
00000280: 6dc7 323d bd9d f4bd c066 923e 981e 2d3e
00000290: 4e41 33be 55f8 b7bd 5b93 57be f357 da3c
000002a0: 3192 80be 407c dd3b c5f2 e7bd c26e 4bbe
000002b0: 2e2c b6bd b045 2abe d8a8 d73d 9e67 89bd
000002c0: d270 4dbe 31d3 3abf 43fd 063d 31cc 37bd
000002d0: 8099 6ebe ea63 c2be 935f 933d 522c 8ebd
000002e0: 94c2 68bd bcc2 d93c 4c59 563c 3e69 83be
000002f0: f3e8 1fbf 8c8a ac3c 645f a5be d500 e83d
-0.2209986 -0.07768765 -0.08603306 -0.16495974 -0.14980674 0.0007272268 -0.16020627 -0.19738768
-0.046181537 0.028119914 -0.20223205 0.7034934 0.0015884129 0.06950094 0.013511407 -0.11709977
0.14215349 0.06056303 -0.5601978 0.037851408 0.06560205 -0.16075464 -0.11237908 0.0028206876
-0.07525727 -0.16491206 0.06781934 0.08736075 -0.03164954 -0.13563572 -0.17578396 0.05186596
0.36962214 0.082603544 -0.0132645145 -0.29113173 -0.19150768 0.19707623 -0.09256721 0.028998524
-0.6258345 -1.0759901 0.073799185 -0.097333364 -0.13902126 0.14643757 0.024414364 -0.01634687
0.16911715 -0.071270905 -0.08333594 0.09159938 0.07292374 0.001460703 -0.12443115 0.049040515
-0.09145619 -0.21873361 -0.09063664 -0.63709384 -0.13390568 -0.07227853 0.09693475 -0.24401793
0.08171768 -0.014222835 0.2590465 -0.042208135 -0.20091031 -0.8981207 -0.073220804 0.1117495
-0.24023005 -0.14999449 -0.04155845 -0.39537737 -0.18090549 0.39278752 -0.1807386 -0.052920707
-0.10222393 0.13357978 -0.04093632 -0.2691346 0.06654604 -0.10724226 0.02641019 0.042055026
-0.26253042 -0.3943342 0.05411396 0.044920214 0.17015456 -0.015348909 -0.13758479 0.0095495535
-0.21305029 -0.18457116 -0.017715728 -0.25809878 -0.36039832 0.11628393 -0.07000907 -0.26446754
-0.1378366 -0.0862983 -0.31322718 -0.36482397 0.13667879 -0.11420745 0.060981758 -0.030491995
0.061420966 -0.19447896 0.1978526 -0.0034632778 -0.12226824 -0.015655315 -0.080953985 -0.07210791
-0.19288006 0.08076698 0.0031303295 -0.28840777 -0.022423008 -0.27014786 0.050778177 -0.25319332
-0.36933604 -0.6173944 -0.002646763 0.06599843 -0.33189833 -0.3068435 -0.08018435 0.088701114
-0.0004086138 0.06855472 0.03247991 0.019829461 -0.6884313 -0.048411127 -0.31323612 0.05970659
-0.24742879 -0.18262507 0.10469082 -0.09281085 -0.31743228 0.04436844 -0.079461634 -0.26553446
0.06945475 -0.06414845 -0.24679996 -0.37371698 0.0067255287 -0.1178113 0.096749984 0.058436263
0.04364722 -0.11944149 0.28594017 0.16906202 -0.1750538 -0.089829125 -0.21052305 0.026653266
-0.25111535 0.0067591965 -0.113256015 -0.1986647 -0.08895145 -0.16628146 0.10530251 -0.067092165
-0.20062569 -0.729785 0.032956373 -0.044872466 -0.23300743 -0.37966853 0.07195964 -0.06942047
-0.05682619 0.026582114 0.0130828135 -0.2566623 -0.6246483 0.021062158 -0.3229934 0.11328284

Linear3.bias f4 [4]
00000000: ab04 d53d 271e 4cbe 926f c8bd c0bc 65be
0.10401281 -0.19933377 -0.09786905 -0.22435284
