ModelPara/DDPG/Mario_targetPi_DDQN2021-10-08T10-21-30.pth (torch, 17375 bytes, 6 tensors)

Linear1.weight f4 [48, 24]
0	0xbe2e4e20	-0.1702199
1	0xbd2f74c0	-0.04283595
2	0xbdae6b9f	-0.08516621
3	0x3e14b1ee	0.14521
4	0x3d915c48	0.070976794
5	0xbd85b24a	-0.065281466
6	0x3df630c8	0.12021023
7	0xbdac94b2	-0.08426799
8	0xbe1af4f5	-0.15132506
9	0x3c6abde0	0.014327496
10	0xbe199d94	-0.15001518
11	0xbc57caf0	-0.013170943
12	0x3ba0c2e0	0.0049060434
13	0x3dec4dbc	0.11538264
14	0x3df17428	0.11789733
15	0x3e3f434c	0.18678015
16	0xbd3591d8	-0.04432854
17	0xbe3a6c5c	-0.18205398
18	0xbe3e98e0	-0.18613005
19	0x3e03b248	0.12860978
20	0x3d8a0334	0.06738892
21	0x3d89bdc8	0.06725651
22	0xbdc03914	-0.09385887
23	0x3d84fb4c	0.064932436
24	0x3dc828a4	0.097733766
25	0xbdfe55dd	-0.12418721
26	0x3d561d70	0.052274168
27	0xbdffd77e	-0.12492274
28	0x3e154404	0.14576727
29	0xbda17a02	-0.07884599
30	0xbddd6f00	-0.10812187
31	0xbdec9000	-0.11550903
32	0x3e3b563a	0.18294612
33	0xbddaecc6	-0.10689692
34	0x3e25e9e2	0.162025
35	0xbe171eda	-0.14757863
36	0xbe244574	-0.1604212
37	0xbc8457b8	-0.016155109
38	0x3df757d4	0.12077299
39	0x3e14f8d2	0.14548042
40	0x3e4a391c	0.19748348
41	0x3d874bd8	0.06606263
42	0xbca23100	-0.019798756
43	0x3e4e3f9c	0.20141453
44	0xbd8c2bba	-0.06844278
45	0x3d62a830	0.055336177
46	0xbd2c9e80	-0.042143345
47	0xbcf83740	-0.030299783
48	0x3e1b62c4	0.15174395
49	0xbe32a5f4	-0.17446119
50	0xbc748cb0	-0.014926121
51	0x3a972e00	0.0011534095
52	0x3e2dcee8	0.1697346
53	0x3c98d8c0	0.018658042
54	0x3e3963e8	0.18104517
55	0x3e1b3e0c	0.15160388
56	0x3e01717a	0.12640944
57	0x3d394ce0	0.04523933
58	0xbd8693c4	-0.06571153
59	0xbdf6c9ad	-0.12050185
60	0xbddebf38	-0.10876316
61	0x3ca62430	0.020280927
62	0x3d06d700	0.032919884
63	0x3d2d3ec4	0.042296186
64	0x3e192b2c	0.14957875
65	0x3e4ea9e4	0.20181996
66	0xbc612240	-0.013741076
67	0xbe3eaab1	-0.18619801
68	0xbd4984f0	-0.049199045
69	0x3d327240	0.04356599
70	0xbd4c42e4	-0.04986848
71	0x3e4fe73c	0.20303053
72	0x3dcd1c18	0.10015124
73	0xbdc429cb	-0.09578284
74	0xbd85261e	-0.06501411
75	0xbc827540	-0.01592505
76	0xbb0bd480	-0.0021336377
77	0xbe4d8e26	-0.20073757
78	0xbd867a72	-0.06566323
79	0xbe19cd5b	-0.15019743
80	0x3e21ae5c	0.15789169
81	0xbe2080e4	-0.15674168
82	0xbdc929ae	-0.09822403
83	0xbde821f6	-0.113346025
84	0xbc936520	-0.017992556
85	0xbe472f5d	-0.19451661
86	0x3e1ed342	0.15510276
87	0x3c671150	0.014103249
88	0xbdc2c459	-0.095101066
89	0xbe41e110	-0.18933511
90	0x3d9f59d4	0.07780805
91	0x3de122fc	0.10993001
92	0x3cf6aa10	0.030110389
93	0x3d0b1bbc	0.033961996
94	0x3c570540	0.01312381
95	0xbde21fd6	-0.110412285
96	0xbd05ac10	-0.032634795
97	0x3cb54dd0	0.02213183
98	0xbe443d55	-0.19164021
99	0xbe1d119e	-0.15338752
100	0xbe099ec8	-0.13439476
101	0x3de92768	0.11384469
102	0x3db2e830	0.087356925
103	0x3de017f0	0.10942066
104	0x3e4f4fd6	0.20245299
105	0xbe329147	-0.17438231
106	0xbdbce619	-0.09223575
107	0xbe3d398a	-0.1847898
108	0x3d777490	0.060413897
109	0x3c9ea208	0.019364372
110	0xbe32cc33	-0.17460708
111	0x3e2b150c	0.16707247
112	0x3e4a05fe	0.19728848
113	0xbe09532e	-0.13410637
114	0xbe3f098f	-0.1865599
115	0x3e17181e	0.14755294
116	0x3d425f40	0.04745412
117	0xbe0f4c89	-0.1399404
118	0xbddfd866	-0.109299466
119	0x3e04a912	0.1295512
120	0x3dcfe0c8	0.101502955
121	0x3e1456fa	0.14486304
122	0x3dac3e98	0.08410376
123	0xbc90ef68	-0.017692283
124	0x3d6cd9d0	0.05782491
125	0xbe36b6b1	-0.17843129
126	0xbdde3302	-0.10849573
127	0x3d5d4c50	0.054027855
128	0xbd740788	-0.059577495
129	0x3d8558a8	0.065110505
130	0xbbf753e0	-0.0075478405
131	0x3e319896	0.17343363
132	0x3d311790	0.04323536
133	0xbde9873e	-0.114027485
134	0x3cc30818	0.02380757
135	0x3a96a800	0.001149416
136	0xbe19f9e0	-0.15036726
137	0x3d8c58b0	0.06852853
138	0xbe34a37e	-0.17640492
139	0xbe36d47f	-0.17854498
140	0x3da918b8	0.08256668
141	0x3d896f94	0.06710735
142	0xbe1bf7c6	-0.15231237
143	0xbdea06e3	-0.11427095
144	0x3da7e658	0.081982315
145	0x3c99dfd0	0.01878348
146	0x3e42131e	0.18952605
147	0xbc5279c0	-0.01284641
148	0x3ccd9a08	0.025097862
149	0x3e007798	0.12545621
150	0xbe4f1841	-0.20224096
151	0x3cf171b8	0.02947317
152	0x3d22f150	0.039780915
153	0xbd1e8364	-0.038699523
154	0xbda12a5a	-0.07869406
155	0x3e4eb86a	0.20187536
156	0xbccf4860	-0.025303066
157	0x3b3b0ec0	0.0028542727
158	0xbe3f0c8b	-0.18657129
159	0x3e082596	0.13295588
160	0x3cdf4f00	0.02725935
161	0xbce6a6c0	-0.028155684
162	0xbe22bcbe	-0.15892312
163	0xbd1481d8	-0.03625664
164	0x3dd05c34	0.10173836
165	0xbd88dfca	-0.066833094
166	0x3d0ae6bc	0.03391145
167	0xbe149ce4	-0.14512974
168	0x3b4aa780	0.0030922592
169	0x3e036a34	0.12833482
170	0x3e11f6bc	0.14254278
171	0xbbc9fec0	-0.006164402
172	0x3d36d72c	0.044638798
173	0xbe2f3e3f	-0.17113589
174	0x3d6c2458	0.057651848
175	0xbe0bfad3	-0.136699
176	0xbc4761e0	-0.012169331
177	0x3dc28594	0.09498134
178	0xbe50c6e3	-0.2038837
179	0x3d7765d8	0.06039986
180	0xbd1e5a6c	-0.03866045
181	0x3d050318	0.032473654
182	0x3a32ac00	0.0006815791
183	0x3d50b3a0	0.050952554
184	0xbe0163f2	-0.12635782
185	0xbe16a599	-0.14711608
186	0xbe29afbe	-0.16570947
187	0xbdbd0519	-0.09229488
188	0xbd13e594	-0.036107615
189	0x3d0ea538	0.034825534
190	0xbd41dca0	-0.047329545
191	0x3dbb4fb4	0.091460615
192	0x3e2a97d0	0.16659474
193	0x3d829460	0.063759565
194	0x3d9200e0	0.07129073
195	0x3e2200b4	0.1582058
196	0xbe024404	-0.12721258
197	0x3d626c20	0.055278897
198	0xbd74ad98	-0.059735864
199	0x3e07276c	0.13198632
200	0xbd905458	-0.07047337
201	0x3d7bd170	0.061479032
202	0xbe1fd622	-0.15609029
203	0xbe105c8d	-0.14097805
204	0x3c1ca7b0	0.009561464
205	0x3dc027b0	0.0938257
206	0x3e22e816	0.15908846
207	0xbe2828ea	-0.16421857
208	0xbdc6a0df	-0.096986525
209	0x3d336c40	0.043804407
210	0xbce4e408	-0.027940765
211	0x3d4b8860	0.049690604
212	0x3e3a747c	0.18208498
213	0x3d09bfb4	0.033630088
214	0xbe46033c	-0.19337171
215	0x3e1e40c2	0.1545439
216	0x3da6dd8c	0.081477255
217	0x3d8cca00	0.06874466
218	0x3d4e2370	0.050326765
219	0x3e035b2a	0.12827745
220	0xbe27bf6c	-0.16381615
221	0x3d9996b4	0.074994475
222	0x3e0054f8	0.12532413
223	0x3e1ed68c	0.1551153
224	0x3e1b532c	0.15168446
225	0x3e4080d6	0.18799147
226	0x3dbbba10	0.09166348
227	0xbd715070	-0.0589146
228	0x3df41860	0.11918712
229	0xbd92f800	-0.071762085
230	0x3da863c8	0.08222157
231	0xbe272950	-0.16324353
232	0xbd8932a2	-0.066991106
233	0x3c818d50	0.015814453
234	0x3e18c69e	0.14919516
235	0x3e4167c2	0.18887237
236	0xbd211260	-0.039324164
237	0xbe01a930	-0.12662196
238	0xbcd87b98	-0.026426122
239	0xbd0d37d0	-0.034477055
240	0xbb3c8580	-0.0028766096
241	0x3ddc362c	0.1075252
242	0x3da80b2c	0.08205256
243	0xbe2b6599	-0.16737975
244	0x3cb07690	0.02154091
245	0xbe28a352	-0.16468552
246	0xbdbebcc8	-0.09313351
247	0x3e274d8e	0.16338179
248	0xbd80d420	-0.0629046
249	0xbc3c8720	-0.011506826
250	0xbe1c4d94	-0.15263969
251	0x3e420352	0.18946579
252	0xbceaf2f8	-0.02868031
253	0xbd13f774	-0.03612466
254	0xbe1b504e	-0.15167353
255	0x3c4d3270	0.012524232

Linear1.bias f4 [48]
0	0xbd5bfef4	-0.05370994
1	0x3ddde998	0.1083557
2	0xbbae12c0	-0.005312294
3	0x3d856128	0.06512672
4	0xbd6f984c	-0.05849485
5	0x3d2dadd0	0.04240209
6	0xbcc17320	-0.023614466
7	0xbd11efa4	-0.03562893
8	0x3d41f248	0.047350198
9	0x3dc39548	0.095499575
10	0x3e0188f8	0.12649906
11	0xbe31afb9	-0.17352189
12	0xbe28a99c	-0.16470951
13	0xbdfb6e20	-0.12276864
14	0x3e1b7fce	0.15185472
15	0x3e01fae0	0.12693357
16	0xbd1c3680	-0.038137913
17	0x3d6efb98	0.058345407
18	0xbba8a0a0	-0.005146101
19	0x3d83eb30	0.06441343
20	0xbe257aa6	-0.16160068
21	0xbdfe8ae6	-0.124288365
22	0x3c5c4620	0.0134444535
23	0xbdc71c16	-0.09722154
24	0x39284800	0.0001604855
25	0xbd692200	-0.05691719
26	0xbd5791ac	-0.052629158
27	0x3dc9cb84	0.09853271
28	0xbe23f606	-0.16011819
29	0x3dbf0490	0.09327042
30	0x3dea7edc	0.11449978
31	0x3d098d48	0.033582002
32	0xbe30ba7c	-0.17258638
33	0xbdc27d88	-0.094965994
34	0x3e24d15a	0.16095486
35	0xbe2b92b4	-0.16755182
36	0x3d7dcfb0	0.061965644
37	0x3d842e98	0.064541996
38	0xbe49ed40	-0.1971941
39	0x3d413c40	0.0471766
40	0xbe2fcb54	-0.17167407
41	0xbe2c91a2	-0.1685243
42	0xbe42c355	-0.19019826
43	0x3e19e4d0	0.15028691
44	0xbe1b9cff	-0.15196608
45	0xbcf9c9d0	-0.03049174
46	0x3dd253e8	0.1026991
47	0x3e1e1ef0	0.15441489

Linear2.weight f4 [48, 48]
0	0x3dd71c26	0.10503416
1	0xbc0612c0	-0.008183181
2	0xbd2ff28e	-0.042955928
3	0x3d885556	0.066569015
4	0x3dba8cb0	0.09108865
5	0xbbb19c40	-0.005420238
6	0x3e00c000	0.12573242
7	0x3c210aa0	0.009829193
8	0xbe112a09	-0.14176191
9	0xbe02d176	-0.12775216
10	0x3cfee358	0.031114265
11	0xbd821672	-0.06351937
12	0xbdb5f3ce	-0.08884393
13	0xbe0a8d78	-0.13530529
14	0x3b5bc040	0.0033531338
15	0xbd3801d4	-0.04492362
16	0xbd2937fa	-0.04131315
17	0x3dcf2a26	0.10115461
18	0xbda714b2	-0.08158244
19	0xbdd289b2	-0.102801695
20	0x3df94930	0.121721625
21	0xbde89d26	-0.11358099
22	0xbe0c7f84	-0.13720518
23	0x3d48843c	0.048954234
24	0xbd01c8a2	-0.03168548
25	0x3ded14f4	0.11576262
26	0xb9965600	-0.00028674304
27	0xbe054230	-0.1301353
28	0x3cfb0a10	0.030644447
29	0x3e044520	0.12916994
30	0xbd240d24	-0.040051594
31	0x3d441f9c	0.047881708
32	0xbca8f47c	-0.020624392
33	0x3c359460	0.011082739
34	0xbd935eba	-0.07195802
35	0xbd2c9ca8	-0.042141587
36	0x3e0601ca	0.1308662
37	0xbc85a3e0	-0.016313493
38	0xbda4d485	-0.080483474
39	0x3d15d950	0.0365842
40	0x3d884ed8	0.06655663
41	0xbbb8ffa0	-0.0056457072
42	0xbc1c2720	-0.0095308125
43	0xbcab8010	-0.020935088
44	0x3e10e410	0.14149499
45	0xbddd4f82	-0.108061805
46	0xbe126787	-0.14297305
47	0xbddf076e	-0.10890089
48	0x3d067840	0.032829523
49	0x3de634b0	0.11240518
50	0xbdb25eab	-0.08709463
51	0xbdc2a2e1	-0.09503723
52	0x3dfa8108	0.12231642
53	0xbd294bb8	-0.041331977
54	0x3df33630	0.1187557
55	0x3d9a9996	0.075488254
56	0x3d6514d4	0.055928066
57	0xbc9939e8	-0.01870437
58	0xbd2bdae6	-0.041956805
59	0xbe002fc8	-0.12518227
60	0x3e13bccc	0.14427489
61	0x3e00439e	0.12525794
62	0xbda8c1fc	-0.082401246
63	0xbe0383c7	-0.12843238
64	0x3c482180	0.012215018
65	0x3c6bcf80	0.014392734
66	0xbd234722	-0.03986276
67	0x3d2dcf94	0.04243429
68	0x3a9aae00	0.0011801124
69	0xbcfc0a50	-0.030766636
70	0xbd7d2202	-0.06180001
71	0xbd0e3602	-0.034719475
72	0x3dfb185c	0.122605056
73	0xbd7b90d8	-0.06141743
74	0xbd82d28c	-0.06387815
75	0x3b33f700	0.0027460456
76	0xbd8836aa	-0.06651051
77	0x3d955750	0.07292044
78	0x3db7fc16	0.089836285
79	0xbdaea1bf	-0.08526944
80	0xbdf5ace9	-0.119958706
81	0x3d8f7658	0.07004994
82	0xbdb76ae0	-0.08955932
83	0x3dfeee48	0.12447792
84	0xbb9a7640	-0.0047138035
85	0xbda3108b	-0.0796214
86	0x3d243dbc	0.040097937
87	0x3d0a745c	0.033802375
88	0xbe0e189d	-0.13876577
89	0xbe120c72	-0.1426256
90	0xbdeae148	-0.1146875
91	0xbdc2213a	-0.09478994
92	0x3d3f9e1c	0.046781644
93	0xbd929876	-0.07157986
94	0xbd58a1b0	-0.052888572
95	0xbca2309c	-0.01979857
96	0x3d055a44	0.032556787
97	0x3e11acb4	0.14226037
98	0x3d58fc38	0.05297491
99	0xbd07da28	-0.033167034
100	0xbdffecd8	-0.12496346
101	0xbd4bc6b8	-0.04975006
102	0xbe0d2544	-0.13783747
103	0xbd6c6e72	-0.057722516
104	0x3d65470c	0.05597596
105	0xbcabed48	-0.020987168
106	0xbdc08682	-0.09400655
107	0x3c88b218	0.016686484
108	0xbdde3990	-0.10850823
109	0xbafd2100	-0.0019312203
110	0x3df7a114	0.1209127
111	0x3d5d2590	0.0539909
112	0xbba88d40	-0.0051437914
113	0xbdd7bf2f	-0.10534512
114	0xbdd029be	-0.10164212
115	0x3dcd76c8	0.10032421
116	0x3d93f41c	0.072242945
117	0xbe0c72ae	-0.13715622
118	0xbdc68c84	-0.0969477
119	0xbdec9bbd	-0.11553142
120	0xbcf5abfc	-0.029989235
121	0x3dcecd2c	0.10097727
122	0x3d0d1794	0.034446314
123	0xbe12dbe8	-0.143417
124	0x3d5042bc	0.050844893
125	0x3c08b3a0	0.008343607
126	0x3c32d430	0.010914847
127	0xbdc1afca	-0.09457357
128	0xbd926cbc	-0.07149646
129	0xbd299068	-0.041397482
130	0x3d4490c8	0.047989637
131	0x3d6cd27c	0.05781792
132	0x3d325afc	0.0435438
133	0xbdf1852e	-0.1179298
134	0xbdfb6796	-0.12275617
135	0xbd82226d	-0.063542224
136	0x3e0e5fba	0.13903704
137	0x3c007740	0.007840931
138	0x3d7829d8	0.06058678
139	0x3d7f3348	0.062304765
140	0x3d6389f0	0.05555147
141	0x3d9a4b22	0.07533862
142	0x3da842c6	0.08215861
143	0xbda1b3c3	-0.07895615
144	0x3df54738	0.119764745
145	0xbd97b73c	-0.07407996
146	0x3d84e296	0.0648853
147	0xbd8ee902	-0.069780365
148	0x3cb67ba8	0.02227576
149	0x3db0f06e	0.08639608
150	0xbda44b5f	-0.080221884
151	0x3ddfec00	0.10933685
152	0xbd9bdc45	-0.076103725
153	0x3cbc4068	0.02297993
154	0x3dddf5f8	0.108379304
155	0xbc054480	-0.008134007
156	0xbde58493	-0.11206927
157	0xbd9f47d7	-0.07777374
158	0x3d468e10	0.048475325
159	0xbd89d8f9	-0.067308374
160	0xbd833d9e	-0.06408237
161	0x3d3813d8	0.0449408
162	0x3d43def4	0.047820047
163	0x3daa0d8a	0.083033636
164	0x3de1992c	0.11015543
165	0xba336800	-0.00068438053
166	0xbcf22bf0	-0.029561967
167	0x3da1b126	0.078951165
168	0x3e12dfe2	0.14343217
169	0xbdeec275	-0.116581835
170	0xbde47898	-0.11155814
171	0xbc9d0868	-0.019169047
172	0x3ddc9c80	0.107720375
173	0xbd2649a0	-0.040597558
174	0xbe0b588f	-0.13608001
175	0x3d8d1796	0.06889264
176	0xbd964ff4	-0.073394686
177	0xbd059074	-0.032608464
178	0x3d944ae4	0.07240847
179	0xbddf9668	-0.109173596
180	0x3dfb1438	0.12259716
181	0xbc9adb88	-0.018903509
182	0xbddea4f0	-0.10871303
183	0xbdac770a	-0.084211424
184	0x3d494414	0.04913719
185	0x3e08b05c	0.13348526
186	0x3df81604	0.12113574
187	0xbe0b4f1d	-0.13604398
188	0xbe0cbc66	-0.13743743
189	0x3cc0ce80	0.023535967
190	0x3b5bfe80	0.0033568442
191	0x3ac25c80	0.0014828593
192	0x3d59ecc8	0.053204328
193	0x3df00348	0.11719376
194	0xbbab3980	-0.0052253604
195	0x3d225014	0.03962715
196	0xbcebeda0	-0.028799832
197	0x3d15c148	0.03656128
198	0x3df207a8	0.118178666
199	0x3dfcf028	0.12350494
200	0x3d9f46f0	0.07777202
201	0xbbdf9c00	-0.0068240166
202	0x3e0e1d48	0.13878357
203	0xbd86bf27	-0.06579428
204	0x3d98592e	0.07438885
205	0xbe03a386	-0.12855348
206	0xbc0aa700	-0.008462667
207	0xbd02ea02	-0.03196145
208	0x3dd23e58	0.102657974
209	0x3c9f7168	0.019463256
210	0xbdbe3f5e	-0.0928943
211	0x3dc00618	0.09376162
212	0xbd5ccbfa	-0.053905465
213	0x3d3721a4	0.044709817
214	0xbc65d520	-0.014027864
215	0xbdcbd0ab	-0.0995191
216	0x3d5b5450	0.053547204
217	0x3dd359c6	0.10319857
218	0x3de74c18	0.112938106
219	0x3d0c28c0	0.03421855
220	0x3d49dd8c	0.04928355
221	0x3cc2f810	0.023799926
222	0x3cbda798	0.023151204
223	0x3d46f774	0.048575833
224	0xbd9fc37e	-0.07800959
225	0x3e1391f6	0.14411148
226	0xbd0e836a	-0.034793295
227	0x3d9a9144	0.075472385
228	0xbd1e7396	-0.03868445
229	0x3d2cdc84	0.042202488
230	0xbd3d223c	-0.046175227
231	0x3cf237c0	0.0295676
232	0xbe09b2e5	-0.13447149
233	0xbd97b8a7	-0.074082665
234	0xbdebfe46	-0.11523108
235	0xbdd27633	-0.10276451
236	0xbdb365fa	-0.08759685
237	0x3d935f2c	0.07195887
238	0xbd07777c	-0.033072934
239	0x3ccb5e70	0.024825305
240	0xbdc5bdf2	-0.0965537
241	0x3d9ab134	0.0755333
242	0xbdeaf9ff	-0.11473464
243	0xbd01b92c	-0.031670734
244	0xbcaf72ec	-0.021417104
245	0x3d08fdd8	0.03344521
246	0x3d802cd0	0.06258547
247	0xbddd8cae	-0.10817848
248	0x3d38ed84	0.045148388
249	0x3daa39ae	0.08311783
250	0x3db2036c	0.08692059
251	0x3da0e07e	0.078553185
252	0xbd63cb2c	-0.05561368
253	0x3db3dc20	0.0878222
254	0x3db89606	0.0901299
255	0x3e0c4afe	0.13700482

Linear2.bias f4 [48]
0	0xbdb44394	-0.08801952
1	0x3d20d3e8	0.03926459
2	0x3e035b58	0.12827814
3	0xbdc30b7f	-0.09523677
4	0xbdec8850	-0.11549437
5	0x3d91d75c	0.07121155
6	0x3d325c18	0.04354486
7	0x3d9c1b10	0.07622349
8	0x3d994346	0.074835345
9	0xbe084f7e	-0.13311574
10	0x3bb60c40	0.0055556595
11	0xbcaa9aec	-0.020825826
12	0x3d8e5594	0.069499165
13	0x3e0e816c	0.13916558
14	0x3d84872e	0.06471096
15	0xbd847e3c	-0.0646939
16	0xbd128320	-0.03576958
17	0xbd801b94	-0.0625526
18	0xbe05b39e	-0.130568
19	0x3de55284	0.11197379
20	0xbd7554ca	-0.059895314
21	0x3caff8d8	0.021480963
22	0xbd9554c5	-0.07291559
23	0xbd5e1a3a	-0.05422423
24	0x3df45a1c	0.119312495
25	0x3de2d124	0.11075047
26	0xbd82352c	-0.06357798
27	0x3de1150c	0.109903425
28	0x3a9acb80	0.0011809915
29	0x3da982e0	0.082769156
30	0xbdcad5a8	-0.09904033
31	0x3df9351c	0.12168333
32	0x3d186bd8	0.037212223
33	0x3dc75cf6	0.09734528
34	0x3da81ac4	0.0820823
35	0x3d498c80	0.049206257
36	0xbd5a9bd8	-0.05337128
37	0x3d3818bc	0.044945464
38	0xbd06109a	-0.032730676
39	0xbde9e8f0	-0.114213824
40	0xbe093273	-0.13398151
41	0x3da335c2	0.07969238
42	0x3dafaad2	0.08577503
43	0xbd587982	-0.052850254
44	0x3d58ca20	0.052927136
45	0x3c886a38	0.016652212
46	0xbd8b60f1	-0.068055995
47	0xbdc267d4	-0.0949246

Linear3.weight f4 [4, 48]
0	0xba470800	-0.00075924397
1	0xbdfdd81e	-0.12394737
2	0xbbd0de40	-0.0063741505
3	0xbdaec672	-0.08533944
4	0xbe065128	-0.13116896
5	0x3d411c94	0.047146395
6	0xbdcf912a	-0.1013511
7	0x3c1e6470	0.009667501
8	0x3ce14c10	0.02750209
9	0x3dbc9cf0	0.09209621
10	0xbc0f3d20	-0.008742601
11	0xbdb2d800	-0.08732605
12	0xbd14e50c	-0.03635125
13	0x3ce26020	0.027633727
14	0xbe0ce308	-0.1375848
15	0x3d2cf868	0.042229086
16	0x3df9e0f0	0.122011065
17	0xba316e00	-0.00067684054
18	0xbdbf1c86	-0.09331612
19	0xbc9a33a0	-0.018823445
20	0xbcc8d970	-0.024517745
21	0x3cb776e8	0.022395566
22	0xbd1e67d6	-0.038673244
23	0xbe00bbe1	-0.1257167
24	0x3dca37da	0.09873934
25	0xbd853d62	-0.065058485
26	0xbccb1958	-0.024792358
27	0x3dd298fc	0.10283086
28	0xbd997d55	-0.07494608
29	0x3b2a2b00	0.0025965571
30	0xbd837308	-0.06418425
31	0xbd46b3dc	-0.04851137
32	0xbb974100	-0.004615903
33	0x3b8fa260	0.0043833703
34	0x3dbf2000	0.093322754
35	0x3b3c5200	0.00287354
36	0x3e08072c	0.13283986
37	0x3d9a151c	0.075235575
38	0xbd14a908	-0.036294013
39	0x3d31b454	0.043384865
40	0x3d8a9452	0.06766571
41	0x3e0be618	0.13661993
42	0xbe109f09	-0.14123167
43	0x3dd290c2	0.102815166
44	0x3d14ee44	0.03636004
45	0x3dc3ba1a	0.095569804
46	0x3baba540	0.005238205
47	0x3d9034ec	0.07041344
48	0x3dea20d0	0.1143204
49	0xbc4913b0	-0.01227276
50	0xbdb3c0cf	-0.0877701
51	0xbd2a2fa0	-0.041549325
52	0xbd035546	-0.032063745
53	0x3d421abc	0.047388777
54	0xbe0f5c80	-0.1400013
55	0x3d5d8508	0.054081947
56	0xbdfeabc6	-0.12435107
57	0xbdeebd55	-0.11657206
58	0xbd824b21	-0.06361986
59	0x3df8c464	0.121468335
60	0xbd21674c	-0.039405152
61	0x3dab9bf4	0.08379355
62	0xbc663270	-0.014050111
63	0xbd119c0a	-0.0355492
64	0x3c45a5f0	0.012063488
65	0xbd46a064	-0.048492804
66	0xbc9a1350	-0.018808037
67	0x3d235ccc	0.03988342
68	0x3d820c04	0.06349948
69	0x3d2cd014	0.042190626
70	0xbd7da0b4	-0.061920837
71	0xbd5712f4	-0.05250831
72	0xbd1c8b40	-0.038218737
73	0x3dd3b14e	0.103365526
74	0xbd151c00	-0.036403656
75	0xbe064f5e	-0.13116214
76	0xbc3b20e0	-0.011421412
77	0x3d8930c4	0.066987544
78	0xbddb44ef	-0.107065074
79	0x3c083690	0.00831379
80	0xbdced084	-0.10098365
81	0x3da2f9b4	0.07957783
82	0x3d9f0be2	0.07765938
83	0xbd4cd92c	-0.0500118
84	0x38e9c000	0.000111460686
85	0xbe0ba02f	-0.13635324
86	0x3dfe70ac	0.12423834
87	0xbd9002ac	-0.070317596
88	0xbd6c8d7a	-0.05775211
89	0xbe0167ee	-0.12637302
90	0x3ce14bf8	0.027502045
91	0xbe138272	-0.1440523
92	0xbdd2d9c2	-0.1029544
93	0xbd2f08e0	-0.042733073
94	0x3db3dca8	0.08782321
95	0xbd9cf901	-0.07664681
96	0xbcc30858	-0.02380769
97	0xbd00fe82	-0.031492718
98	0xbe046153	-0.12927751
99	0x3d561bb0	0.0522725
100	0x3bf9f6e0	0.0076283067
101	0xbca6cd28	-0.020361498
102	0x3dc5677a	0.09638877
103	0xbc068070	-0.008209333
104	0x3c3fb810	0.011701599
105	0xbd226458	-0.039646477
106	0x3da58ba6	0.080832765
107	0xbdd843dc	-0.10559818
108	0x3d3949c4	0.045236364
109	0xbdd16eee	-0.10226236
110	0xbdbfd7c0	-0.09367323
111	0xbc899bd0	-0.01679793
112	0x3c71ee80	0.0147663355
113	0x3d8a45fa	0.06751628
114	0xbd8f3167	-0.069918446
115	0xbb50c840	-0.003185764
116	0x3e0bd0c6	0.1365386
117	0xbc0b04b0	-0.008485004
118	0xbdfc9c41	-0.123344906
119	0x3d4d9a8c	0.050196216
120	0xbdff9556	-0.124796554
121	0xbc736750	-0.014856175
122	0x3d637b3c	0.055537447
123	0xbd8aac90	-0.06771195
124	0xbda46355	-0.080267586
125	0xbddb856a	-0.10718806
126	0xbd9836c9	-0.074323244
127	0x3c7df820	0.015501052
128	0xbd1bd486	-0.038044475
129	0xbddde1fe	-0.1083412
130	0xbdcb0c88	-0.099144995
131	0xbd91168c	-0.070843786
132	0xbd4e0726	-0.050299786
133	0xbcd70958	-0.026249573
134	0x3cce1d30	0.025160402
135	0x3db6dada	0.089284614
136	0xbcc0afb0	-0.023521274
137	0xbdfb9a20	-0.122852564
138	0xbdddfd54	-0.10839334
139	0x3c0c6750	0.0085695535
140	0x3da1752c	0.07883677
141	0x3d9e9c20	0.07744622
142	0x3db4eba6	0.08834009
143	0xbdb43cec	-0.088006824
144	0x3cb2b080	0.021812677
145	0x3d24e500	0.040257454
146	0xbd9f8c70	-0.07790458
147	0x3d5903a0	0.052981973
148	0xbdbf3cfa	-0.09337802
149	0xbdc59482	-0.09647466
150	0xbdd12bc0	-0.10213423
151	0x3da390d8	0.07986611
152	0xbd6aacf0	-0.057293832
153	0xbdc31298	-0.09525031
154	0xbdb1cb0e	-0.08681308
155	0x3d8a8428	0.06763488
156	0xbce7bfdc	-0.028289728
157	0x3e0c4f18	0.13702047
158	0xbc9c3bf8	-0.019071564
159	0xbcd86da4	-0.026419468
160	0xbdd794a0	-0.10526395
161	0xbdd3ce2c	-0.103420585
162	0x3dd2c7f8	0.10292047
163	0xbc2b7720	-0.010465413
164	0x3ddf0d40	0.10891199
165	0xbd1ad784	-0.037803188
166	0xbe093e0d	-0.13402577
167	0x3dbf75f8	0.09348673
168	0xbdcaecc4	-0.09908441
169	0xbe0e3261	-0.13886406
170	0x3d53f364	0.051745787
171	0x3d982cf4	0.07430449
172	0x3cbfcf80	0.023414373
173	0x3da142f2	0.07874097
174	0xbdd672a4	-0.10471085
175	0xbd95416e	-0.0728787
176	0xbcca0528	-0.024660662
177	0xbdc3478d	-0.095351316
178	0x3dbc4e12	0.09194578
179	0x3d589a20	0.05288136
180	0x3bdbce40	0.0067079365
181	0xbdd0a380	-0.10187435
182	0xbcde18e0	-0.02711147
183	0xbd2a9382	-0.04164458
184	0x3d3ed240	0.04658723
185	0xbdf97f62	-0.121824995
186	0x3e118904	0.14212424
187	0x3d8d804c	0.06909236
188	0xbdb5e083	-0.08880713
189	0xbc72ea90	-0.014826432
190	0xbde4f258	-0.11179036
191	0x3dd3ffb6	0.10351507

Linear3.bias f4 [4]
0	0x3df1231c	0.11774275
1	0x3d77baac	0.06048076
2	0xbda21dd7	-0.07915848
3	0xbe12715b	-0.14301054
