ModelPara/DDPG/Mario_localQ_DDPG2021-10-08T13-34-58.pth (torch, 11935 bytes, 5 tensors)

Linear1.weight f4 [48, 24]
00000000: 9225 8bbe 424a 3fbf 6f8b 203e 84b4 17bf
00000010: 411f f03e 2d9f 06bf 9fb4 183e 18ef dcbd
00000020: 448f 79be ecb7 f63e 29e1 91be 2636 a13e
00000030: 20bd 0c3f 8293 553c ccd9 733e 164d ba3d
00000040: 720d 383e 3ce8 b43e fb7f e53d cbda 823d
00000050: b605 603e 4c47 ae3e ff55 d73a 1c27 e6bd
00000060: 3d60 02be 4b1c 1440 8f3e e8bf 5da4 dbbf
00000070: 5b40 f5bd 0c1c dbbc 821d 1cbe 6cd6 cebd
00000080: 8e70 52be dbc6 dd3d 4ad1 0fbe 04eb 70be
00000090: 5e17 f6bd 451a ddbc b8a3 c9bd e1f2 83bd
000000a0: c710 783b 5e58 dcbd 967b 26be ea17 32bc
000000b0: aa6d 223c e472 203e 30b2 f5bd fef8 703c
000000c0: 1fcb 103f e57d bf3f 74e9 84bf 7f55 69bf
000000d0: ac87 ee3e 2738 273e 86af 9a3e cd9f a93b
000000e0: 0756 9abd 4ed6 0e3f 81ef 00bc 401f a5bd
000000f0: c961 ddbd d330 243d c080 ed3c 5b8c 0a3e
00000100: 86af 6cbe 7e45 11be 2f17 37be b682 d13d
00000110: 9437 8fbd 1695 79bd a027 c4be dba2 e13c
00000120: 01b9 7fbf 8452 8f3f e0a7 71be 6c11 07c0
00000130: 3882 1f3e 86fe 203e acc6 7fbe c1f6 9ebe
00000140: 4d30 3abc a5ef 4d3e 4e62 eebd a8e5 67bd
00000150: ee67 28bf ec90 ba3d 3d68 88be 222d 5cbe
00000160: a6f0 9abe b2a9 10be 7912 303d 96ec a93c
00000170: 9117 1abe 1f63 6cbe d067 523c b979 d4be
00000180: e0ca 2cbf ad71 35c0 5d56 833f 056e 83bf
00000190: 7990 023d a12e bc3d 79c0 e73c 423c a4bc
000001a0: 1497 123d aeeb 13bf 83f3 dabd bf57 b3bd
000001b0: 5fa0 ecbc 83f1 b63c 6ae7 f93d 29d1 3abe
000001c0: b0f6 39bd 723c b3bd ca07 353d 2afd d63d
000001d0: e9de 1bba 0c2d 8a3d 066f 11bd 4369 f0bd
000001e0: 22c5 bd3e 3fcf 0340 0f0d a83e 1264 90bd
000001f0: 8d6f a0bd 023a 2d3e 9680 26bf 7039 96be
00000200: afc4 b73d 01ba 1e3e 7e8d 903e d8f9 b63e
00000210: 4731 a63f 9a11 013e 3214 52bd 35b9 38bd
00000220: d397 c4bc a589 2c3e e611 0f3c ea08 46be
00000230: 24a6 393e 265f d73b b858 1cbe a6df abbd
00000240: b87a 1a3e 546c 14be 3aca 05bc a912 29be
00000250: e0e1 17bd 428e 733d 6fac 833d b4d3 d5bd
00000260: 4f4c 46be a7f0 84bd 0861 ea3b 204b d43d
00000270: 7474 e83c f40a 923d 2513 a0bd 569c 7e3c
00000280: d00d 1fbd 8902 27bc ebe6 813d 8b27 97bd
00000290: f1c1 27be 43ea 85bd 1efe 323e 8710 14be
000002a0: 4c2b 85bd 3c30 033f 5eaf 143f 80e6 b1bf
000002b0: 133c 2dbe a228 29be bb35 b8bd 3e17 c1bd
000002c0: 6818 9abd efb9 943e e216 55bd b952 193e
000002d0: a451 563e 5c2b 43be 337c 533e 1f19 f33c
000002e0: 3f2b 8c3d f6c6 743d 7572 4d3e d133 c43c
000002f0: 25bc 7a3d 52bd 453d e450 28be fe30 473e
00000300: e749 4dbf ccbb 38c0 3140 fc3e 6985 ccbe
00000310: 4df6 50be f383 2bbe 203a 57be ab06 4fbe
00000320: 37e6 16be 48c9 94be 9a57 80bd 647d 7bbe
00000330: 4659 2abe 461a e13d eb1d 1c3e 9b6c 6b3e
00000340: 6fc3 30bc 5625 333e f75d bc3c 7f4b 983e
00000350: 94aa 353e 6b8f 02bd eef1 ca3d 938b 3fbe
00000360: 6234 193f c28c 8fbf 90c8 b2be 99fb 31bf
00000370: 560b 023e 571b d6be 3f62 653e 273e 2c3f
00000380: 0801 1cbd 3c76 d03d 5d3e a63d 9117 0e3e
00000390: a23c 0c3e 89ae 0dbf 84ac a53d aac3 ce3d
000003a0: 8400 f43c ccb7 7ebd fc3a a7bd 57bb 8b3e
000003b0: 8da5 afbd aac9 8a3e 251a 993d 7352 f7bd
000003c0: be6c 4f3f e109 0c40 22a3 98bf e85b 97bf
000003d0: 00e6 57be 3856 0e3e 10b4 55be 9d4b 103e
000003e0: 50d7 b33c 897a 203f dad8 2f3e 4b95 eb3c
000003f0: e8e5 a3bd a92f 3dbc 4e6e 85bd d5ea f3bd
-0.271771 -0.74722683 0.1567819 -0.5925982 0.46898845 -0.5258663 0.14912651 -0.10787791
-0.24371058 0.48187196 -0.28492096 0.31486624 0.5497608 0.013035657 0.23813552 0.09096734
0.17973879 0.3533343 0.11206051 0.06389388 0.21877179 0.3403877 0.0016428827 -0.11237928
-0.12732024 2.3142269 -1.8144091 -1.7159535 -0.119751655 -0.026746772 -0.15245631 -0.100994915
-0.20550749 0.10828944 -0.14044681 -0.23527151 -0.12016176 -0.026990065 -0.0984568 -0.0644281
0.0037851797 -0.10759042 -0.16258082 -0.010869959 0.009913841 0.15668827 -0.11996877 0.014707802
0.5655994 1.4960295 -1.0383744 -0.9114608 0.46587884 0.16330014 0.3021204 0.0051765204
-0.0753594 0.55795753 -0.007869602 -0.08062601 -0.10809667 0.040085625 0.028992057 0.13530104
-0.23113832 -0.14186665 -0.17879938 0.10230009 -0.069930226 -0.060933195 -0.3831148 0.027543476
-0.9989167 1.1197057 -0.23599195 -2.1104383 0.15577018 0.15722093 -0.24978131 -0.31047633
-0.011364055 0.20110948 -0.11639844 -0.0566155 -0.65783584 0.09109673 -0.26642027 -0.21501592
-0.30261725 -0.14127234 0.042986367 0.020742696 -0.15048052 -0.23084687 0.012842134 -0.41499117
-0.6749706 -2.8350632 1.0260731 -1.026795 0.03187606 0.09188581 0.02829002 -0.020048264
0.03578861 -0.57781494 -0.106909774 -0.087569706 -0.028885065 0.022331959 0.12202342 -0.18243851
-0.045401275 -0.087517634 0.04419688 0.10497506 -0.0005945997 0.06746873 -0.03550627 -0.11738827
0.37064463 2.0595243 0.32822463 -0.07050337 -0.078337766 0.1691666 -0.65039957 -0.29340696
0.08973061 0.15500642 0.2823295 0.3573749 1.2983788 0.1260437 -0.05128879 -0.045098502
-0.023998177 0.16849382 0.008732295 -0.19339338 0.18129784 0.006572622 -0.15268219 -0.08392267
0.15085876 -0.14494449 -0.00816589 -0.16511025 -0.037080646 0.05946184 0.064293735 -0.1044077
-0.19365047 -0.06491213 0.0071526803 0.103658915 0.028375842 0.071309954 -0.078161515 0.015540203
-0.038831532 -0.0101934755 0.06342872 -0.07380589 -0.16382577 -0.065388225 0.1747975 -0.1445943
-0.06502399 0.51245475 0.5808009 -1.3898468 -0.16917448 -0.16519406 -0.08994623 -0.09428261
-0.075241864 0.29048106 -0.052023776 0.14972962 0.20929581 -0.19059509 0.20652847 0.029675065
0.06844186 0.059760056 0.20063193 0.02395049 0.061214585 0.048276253 -0.16437107 0.19452283
-0.8019089 -2.8864622 0.49267724 -0.39945534 -0.20406456 -0.16749553 -0.21018267 -0.20217387
-0.14736257 -0.29059815 -0.06266709 -0.24559551 -0.16635618 0.109913394 0.15245788 0.22990648
-0.0107887825 0.17494711 0.022994025 0.297451 0.17740852 -0.031875055 0.09909426 -0.18705587
0.59845555 -1.1214831 -0.34918642 -0.6952453 0.12699637 -0.41817734 0.22400759 0.67282337
-0.03808692 0.101788014 0.081173636 0.13876177 0.13695005 -0.55344445 0.08089545 0.10095914
0.029785402 -0.062187 -0.08165547 0.27291366 -0.08576498 0.27106982 0.0747569 -0.12076273
0.810253 2.188103 -1.1924784 -1.1824923 -0.21083832 0.13900077 -0.2086947 0.14091344
0.021953255 0.62686974 0.17172566 0.028757712 -0.080028355 -0.011547008 -0.065151796 -0.11910025

Linear1.bias f4 [48]
00000000: b9f9 623d ee77 ab3d c056 54be 0dd7 353e
00000010: 487c a13d a704 eabe e592 2bbe 3bda 153e
00000020: 3c0e 853e 3007 733d 896d 73bd 3799 293e
00000030: 1cb6 eabc 3c85 d7be 3d08 a6be 2ee6 133e
00000040: b1bd 533e 71fb 10be 5053 c03b 135b 01be
00000050: b01d 293e 6353 423e 6f83 e6bd c7d5 343d
00000060: 36cf d63e cdd4 b5be 5455 133d b556 453d
00000070: 150e d23e c37f 87be 7402 2cbe 3911 163e
00000080: 3e76 2d3d 8584 82bc 946b 32bd a881 3c3f
00000090: 4801 7abe ebb3 e63e e01a 433e c8c0 acbc
000000a0: 0481 f2bd fd30 8a3e 964f 8a3e 56c9 183e
000000b0: ab89 2d3e 3645 bdbe f926 823e ae25 be3e
0.055413935 0.08372484 -0.20736217 0.17757817 0.07885033 -0.45706674 -0.16755255 0.1463403
0.25987422 0.059333026 -0.059430633 0.16562353 -0.02865129 -0.42093837 -0.3242816 0.14443275
0.2067783 -0.14158417 0.0058693066 -0.12632398 0.16515231 0.18977122 -0.11255538 0.044149186
0.41954964 -0.35513917 0.035970047 0.048178393 0.4102637 -0.26464662 -0.16797811 0.14655007
0.042349093 -0.01593233 -0.043559626 0.7363534 -0.24414551 0.45059142 0.19053221 -0.021088019
-0.11841014 0.269905 0.27013844 0.14920554 0.16947047 -0.36966866 0.2542036 0.37138122

Linear2.weight f4 [24, 48]
00000000: 8836 96bd c78e 993c cdd5 edbc c482 903d
00000010: db7b 843d 7706 4b3d 3486 64bc c44b d5bd
00000020: 8cd1 1cbd d34f 4639 8e15 b3bc 89f2 71bd
00000030: bf9d 8dbd 0e6e f7bc 26ad f03d 28f9 66bd
00000040: b5d7 e5bb 8607 89bd fe73 bcbd eb3e 04be
00000050: 3215 c9bd 8fc2 04be 7aaa c33d 49db f8bb
00000060: a25b bdbd f7eb c4bd 4f14 87bd e818 103d
00000070: f9db e8bb ce51 c3bc e662 b3bd 1654 493d
00000080: 1170 f1b9 58c5 653d b4a5 a53c ea6a 85bd
00000090: ee06 b73d 5c47 93bd 26ac 05bd b5ef e1bc
000000a0: 2806 69bd 6f51 0ebe ec5b 94bd 2b89 81bd
000000b0: babf b43d 08ed dbbd 0eca 49bd aa21 b3bd
000000c0: a3bf c13e e0de 3d3f 9eaa cf3e 37bb a7bf
000000d0: e001 6c3f de5b 6e3e a514 e6bd 6e47 9a3e
000000e0: 77df 8c3f 239d ad3e 4b9a 733f baa5 96bd
000000f0: 9fe5 8abf 32a7 73bf ce60 c83e 86cc 58bf
00000100: e554 3d3f f634 c4bd e027 fe3e 64b2 133d
00000110: 4448 56bd 0b46 f63e 3900 7a3d 3322 a33e
00000120: 1e35 aa3d b80e 7b3e a2e2 443f 4552 933e
00000130: 019a 3b3f c2e1 093f 12cb 363f 941a fe3d
00000140: 8448 e03d d6f9 d83e 1a09 033f 5ce0 323e
00000150: 152f 433f 46b6 643f b7a3 f3be a47b 5abf
00000160: 4200 723e d20c c2bf 4a29 f7be cf11 413f
00000170: cba7 e13e 888b ad3e 4fc6 713f 57c3 883e
00000180: 8fbb 913e b7a4 2c3f ffc4 d43e 7ca7 97bf
00000190: 5d73 643f a81f af3e 63e0 03be 511d c83e
000001a0: 17bf 863f 6894 5f3e 9d89 3e3f 544c 8bbd
000001b0: be23 99bf c78c 92bf 7a6a 0b3f 7a3d 57bf
000001c0: caf2 2f3f 1e24 36be 4712 d53e bb2d 04be
000001d0: 9d5b ac3c 1de1 053f ee7d 903c 7fc7 b93e
000001e0: 157c 333e ac3c 233e e072 1b3f 07ee 0c3e
000001f0: 5fad f43e 14ef 033f 363d f53e d7d5 9c3e
00000200: ce87 9e3b d3c2 ec3e 7170 9a3e b3ec a23c
00000210: 1d1d 343f 0f30 4e3f b22a b3be 7a0e 45bf
00000220: cd69 883e e98e babf 2abb b1be d5b8 403f
00000230: 5af1 723e 5e9f e63e f612 7f3f 855f c93e
00000240: f536 b43e 101a 0f3f 5a55 023f a139 b1bf
00000250: 527f 473f 9c5e 9c3e 9748 0dbd 85bc b73e
00000260: 34db 8a3f b329 4a3e 78b3 813f 8e0e bfbd
00000270: abc5 9dbf 2ef7 80bf 163c be3e dca1 51bf
00000280: a050 473f 2249 05bd 6220 233f 1a93 bd3d
00000290: c336 693a 5f96 2a3f 317b 4d3e e41b c63e
000002a0: f094 503e 61cf 5c3e 9c99 103f 7092 703e
000002b0: a037 2b3f 673d 223f 6d8c 1f3f 25e0 8d3e
000002c0: 3e2d bd3d 84ba c53e e397 d33e 2c00 583e
000002d0: 1b2b 433f a76e 513f 76b9 d0be 3c9a 55bf
000002e0: 0479 a13e 3304 c0bf 71f0 a7be 1a1d 5b3f
000002f0: 1efe dc3e b46f e63e 5692 5a3f cc17 103f
00000300: 3c2c c83e 608e a63e 173e cc3e b113 b5bf
00000310: ecf8 603f a68c d73e eca5 e93c db3a cb3e
00000320: d8ec 453f 67e7 603e 4df4 643f 7b83 d9bd
00000330: 82bd abbf 838c 83bf 53d3 163f 6806 69bf
00000340: c5da 083f f4e1 25be 8f4c 043f 9ae0 873d
00000350: ca2a 53be b83e 023f e800 c73d ec0c bd3e
00000360: 223b 163e bb8e 8d3e 0d66 123f 0744 693e
00000370: 6245 0c3f 9708 203f d412 123f 3cec 6c3e
00000380: 81c8 1ebe 2dc9 cc3e 72f5 0e3f a6ee 333e
00000390: e4bb 123f 9a11 693f b33e 24bf ea62 43bf
000003a0: 5e83 813e 7ae3 bbbf 2978 29bf c485 2c3f
000003b0: 01fa 9e3e 4d28 e33e 5b23 803f 6357 833e
000003c0: ccac 503f addd 0540 4d35 09bf af1e 2abe
000003d0: 23e5 783f 233e 1dbf 1337 c73d 5b61 8abe
000003e0: a51e 893f 354c 6abb 6240 adbf a75f 87bd
000003f0: 5973 13bf 7afa 47bd 6bd6 48c0 d3fa c6bf
-0.0733462 0.01874484 -0.029032612 0.070561916 0.06468936 0.049566712 -0.013948012 -0.10414842
-0.038285777 0.00018912488 -0.021860864 -0.05906919 -0.06914853 -0.030203845 0.117517754 -0.056389958
-0.0070142397 -0.06690888 -0.09201811 -0.12914626 -0.09818496 -0.12964843 0.09554 -0.0075945
-0.09245993 -0.09615319 -0.065956704 0.035180002 -0.007106301 -0.023842718 -0.08759098 0.049152456
-0.00046050598 0.056096405 0.020220615 -0.06514533 0.089368686 -0.07191345 -0.032634877 -0.027580122
-0.056890637 -0.13898252 -0.07244095 -0.06324991 0.088256314 -0.107385695 -0.04926496 -0.08746655
0.3784152 0.74168205 0.40559858 -1.3104008 0.9219036 0.23277232 -0.112344064 0.30132622
1.1005696 0.33908948 0.9515731 -0.073558286 -1.0851325 -0.95176995 0.39136356 -0.8468708
0.73957664 -0.09580414 0.49639797 0.0360588 -0.05231501 0.48100314 0.06103537 0.3186203
0.083109125 0.24517334 0.76908314 0.28773704 0.73281866 0.53860104 0.7140361 0.12407413
0.10951331 0.4237811 0.5118576 0.17468399 0.76243716 0.8934063 -0.47585842 -0.8534491
0.23632911 -1.5160162 -0.4827369 0.754178 0.44073328 0.33895516 0.9444322 0.26711532
0.28463408 0.67438835 0.41556546 -1.1847987 0.8923853 0.3420384 -0.12878565 0.39084867
1.0527066 0.21833956 0.7442873 -0.06801668 -1.1964033 -1.1449212 0.54459345 -0.8407818
0.6872984 -0.17787215 0.41615507 -0.1290807 0.021039778 0.5229662 0.017638173 0.36285016
0.17527802 0.15941113 0.6072216 0.13762675 0.47788522 0.5153668 0.47898263 0.30631897
0.0048379665 0.4624239 0.3016391 0.019888258 0.70356923 0.8054208 -0.3499351 -0.76975214
0.2664322 -1.4574863 -0.34713107 0.7528203 0.23724881 0.45043463 0.9963831 0.39330688
0.3519818 0.55899143 0.50911486 -1.3845712 0.7792865 0.3054093 -0.034493055 0.35886016
1.0848145 0.1974247 1.0132895 -0.09328948 -1.2325948 -1.0075433 0.37155217 -0.818876
0.778574 -0.032540448 0.6372129 0.09256573 0.0008896405 0.666357 0.20066525 0.38693154
0.20369315 0.21563484 0.5648439 0.23493361 0.6688175 0.6337494 0.6232365 0.2771007
0.09237145 0.38618863 0.41326818 0.21093816 0.7623765 0.8180947 -0.40766495 -0.8343847
0.3153764 -1.5001281 -0.3280063 0.8559128 0.43162626 0.45007098 0.8537954 0.5628631
0.39096248 0.32530499 0.3989112 -1.4146634 0.87879825 0.42099494 0.0285215 0.3969334
0.7731452 0.21963273 0.89435273 -0.10620781 -1.3417208 -1.0277256 0.58916205 -0.910254
0.53458816 -0.16199476 0.5167932 0.06634636 -0.20621791 0.5087695 0.0971697 0.3692392
0.14670995 0.27647957 0.5718697 0.22779857 0.5479337 0.6251311 0.5705998 0.23136991
-0.15506174 0.39997235 0.5584327 0.17571506 0.5731795 0.9104248 -0.6415817 -0.76322806
0.25295538 -1.4678795 -0.66198975 0.6739161 0.31050113 0.44366685 1.001079 0.25652608
0.8151367 2.091655 -0.53596956 -0.16613267 0.97224635 -0.6142294 0.097273014 -0.270274
1.0712477 -0.003575099 -1.3535273 -0.06610041 -0.5759788 -0.048822857 -3.138087 -1.5545295

Linear2.bias f4 [24]
00000000: 5bed c83d 7238 2d3e 578e 1d3e 8064 9a3b
00000010: 3e08 2ebe 6286 8b3e f4db f73d 4fb8 5e3d
00000020: abbf d3bd 9845 d13c ff58 e8bd 08fa a0bd
00000030: f3ed 2d3e e1f8 9bbb 0071 883e 7d85 31bd
00000040: 275d cebd d1bf 3c3e 0e28 293e ab3d 903e
00000050: 2f08 883e 0318 a23d 13e8 35bd a0fc 8f3c
0.09810897 0.16916063 0.1538633 0.0047116876 -0.16995332 0.27250963 0.121024996 0.05437499
-0.10339292 0.02554588 -0.113451 -0.0786019 0.16985302 -0.0047598933 0.26648712 -0.043340195
-0.10076361 0.18432547 0.16519186 0.2817205 0.26568744 0.07914736 -0.044410776 0.017576516

Linear3.weight f4 [1, 28]
00000000: 6eae b23d 1d29 80bf 69b4 57bf 5b69 54bf
00000010: a878 6ebf 268c f2bf b7f7 52bf f07b b3bf
00000020: 8cc7 92bf 50de 5940 6b8e 9fbf 3e90 8abf
00000030: 8fad 0a40 f5e3 87bf 8a56 1440 beff 75bf
00000040: 0c15 98bd 3f91 0440 143b 3c40 4b1d 2440
00000050: 97af b73f caa6 8abf fb2a 8fbf 7214 85bf
00000060: 8871 65be 4841 0dbf ceec 93bd 7472 d6bc
0.08724676 -1.0012547 -0.8425966 -0.8297326 -0.93152857 -1.894902 -0.8240923 -1.4022198
-1.1467147 3.4041939 -1.2465338 -1.0825269 2.1668432 -1.0616442 2.317782 -0.96093357
-0.074258894 2.071365 2.9411058 2.564288 1.4350461 -1.083215 -1.1184992 -1.0396864
-0.2240659 -0.55177736 -0.07222901 -0.026177622
