ModelPara/DDPG/Mario_targetPi_DDQN2021-10-08T11-48-38.pth (torch, 17375 bytes, 6 tensors)

Linear1.weight f4 [48, 24]
0.09916893 0.15694456 0.08303264 -0.22242661 -0.0954757 -0.1343555 -0.25123072 0.074162066
-0.04214071 0.061203264 -0.062055446 0.1639913 0.1395413 0.14309822 0.05368336 -0.13841558
-0.1599931 -0.030735904 0.115187764 -0.05205703 0.19995457 -0.17941698 -0.068721935 0.09924272
-0.0010789175 -0.113681436 0.016657185 -0.014434163 0.30819952 -0.04538358 0.07715865 -0.07064611
0.04933686 0.033597864 0.19844417 0.36926156 0.18410775 -0.045541104 0.21842515 0.20758307
0.03982954 0.17041655 0.21155423 0.1840556 -0.17695071 -0.15163957 -0.025629183 -0.07969186
-0.2799968 -0.20396754 0.056996975 -0.20392914 0.21797514 0.08668871 0.09174864 0.14947444
0.020531246 0.23269302 0.20723735 0.15114187 0.022528064 -0.04113525 -0.057118244 0.056515567
-0.112182915 0.15689673 0.15894563 -0.08833652 0.17646345 -0.183616 0.04345932 -0.049940772
0.15942843 0.08913548 -0.3011304 -0.36764926 0.1263508 -0.017411742 0.07735982 0.115505345
0.09641024 0.24823794 0.13255565 0.19419883 0.20185654 -0.015884187 0.024249336 -0.09776996
0.1317331 -9.908444e-05 -0.018181017 0.024986757 -0.045395497 -0.009502805 -0.14565079 -0.055327877
-0.075074226 -0.014048624 0.14233826 -0.17932299 0.105678506 0.21643287 0.05840337 0.11101482
-0.059795994 0.42030105 0.05172291 0.3716189 -0.035119276 0.1836935 -0.002468323 0.040349536
0.17403159 0.1311907 -0.07467932 0.013943638 0.055531513 -0.0097051775 0.17962101 0.14500856
-0.011507199 0.14282405 -0.21800643 0.1230349 0.023693522 0.23345895 0.06666972 0.012963697
-0.205555 0.10723743 0.09385618 0.25530037 0.22331423 0.1531446 -0.07988408 0.165675
-0.0957963 -0.14623044 0.1785377 0.05217144 -0.068557695 0.008764359 -0.0060282005 0.13034879
-0.004794849 -0.16499849 0.15953273 0.06878717 -0.01869399 -0.022707993 0.037400644 0.14050391
-0.2020577 0.040982146 -0.07953018 -0.027988598 0.03159925 -0.09635212 -0.10367456 0.08902148
0.07736652 -0.05974906 -0.092625335 -0.14732122 0.08445129 -0.13023703 -0.06054329 0.13239619
0.37282664 -0.02971235 0.26262072 -0.17423098 0.017312156 0.12981834 -0.22166143 -0.009586374
-0.0408784 -0.25356272 -0.1559788 -0.17453544 0.13489531 0.16916339 0.031139255 0.06159363
0.047147203 0.0059154388 0.254569 0.20750259 0.2668559 0.022549562 0.12705198 0.016943332
0.040387094 -0.08774073 -0.31570676 -0.17655583 0.13113408 0.34702307 -0.4023183 0.08346037
0.29352483 0.26444373 0.1794109 0.35809463 0.2016971 0.27404898 -0.0043045445 0.33238113
0.087400235 0.06118553 0.0021839677 0.1826817 0.18578859 0.21005665 0.118199475 0.3088641
-0.11464406 0.070395015 0.12130842 -0.10737784 0.06640746 -0.0027011526 0.08289636 0.24305978
0.050358325 0.2974379 0.11632043 0.07686659 0.20206812 -0.022372345 -0.099041775 -0.1218212
-0.02636735 -0.22250211 0.0058723325 0.0873846 0.11531908 0.13693063 0.12842803 -0.038499977
-0.047732748 0.18522534 0.15283613 -0.0878808 0.0262297 -0.12798099 -0.12729126 0.072660744
0.094966315 -0.03707766 -0.120129175 0.061546884 0.01131842 0.0765179 0.024639186 -0.18878822
00000000: 1419 cb3d 13b6 203e 040d aa3d cdc3 63be
00000010: c488 c3bd 7d94 09be 50a1 80be 48e2 973d
00000020: bd9b 2cbd 46b0 7a3d da2d 7ebd 56ed 273e
00000030: eae3 0e3e 5788 123e 15e3 5b3d d0bc 0dbe
00000040: 3bd5 23be ddc9 fbbc 90e7 eb3d c139 55bd
00000050: e4c0 4c3e 16b9 37be 16be 8cbd c43f cb3d
00000060: 776a 8dba d0d1 e8bd a674 883c 457d 6cbc
00000070: 54cc 9d3e 22e4 39bd 5b05 9e3d e8ae 90bd
00000080: 7315 4a3d ea9d 093d f334 4b3e da0f bd3e
00000090: be86 3c3e 4f89 3abd d8aa 5f3e a890 543e
000000a0: 4d24 233d ad81 2e3e aca1 583e 1279 3c3e
000000b0: 9132 35be 6747 1bbe 4bf4 d1bc 7c35 a3bd
000000c0: be5b 8fbe dedc 50be a975 693d cdd2 50be
000000d0: e034 5f3e da89 b13d b6e6 bb3d d40f 193e
000000e0: 2531 a83c 1447 6e3e 0736 543e efc4 1a3e
000000f0: c68c b83c 707d 28bd d2f4 69bd de7c 673d
00000100: 28c0 e5bd 89a9 203e a5c2 223e c7e9 b4bd
00000110: d6b2 343e d505 3cbe 6602 323d b28e 4cbd
00000120: 3541 233e aa8c b63d c42d 9abe 863c bcbe
00000130: 1b62 013e 12a3 8ebc d36e 9e3d 118e ec3d
00000140: bb72 c53d 1632 7e3e abbc 073e 0fdc 463e
00000150: 7bb3 4e3e 8e1f 82bc 8ba6 c63c 9e3b c8bd
00000160: 0be5 063e 8ecb cfb8 5bf0 94bc 07b1 cc3c
00000170: a1f0 39bd a7b1 1bbc 7b25 15be 7c9f 62bd
00000180: 84c0 99bd 332c 66bc 1fc1 113e 72a0 37be
00000190: f96d d83d 94a0 5d3e 5f38 6f3d bd5b e33d
000001a0: a5ec 74bd b331 d73e 67db 533d d544 be3e
000001b0: 3bd9 0fbd 261a 3c3e 97c3 21bb 8e45 253d
000001c0: 5635 323e db56 063e 79f1 98bd db73 643c
000001d0: 0375 633d 7702 1fbc 92ee 373e 207d 143e
000001e0: b188 3cbc 7840 123e 143d 5fbe b9f9 fb3d
000001f0: eb18 c23c dd0f 6f3e 228a 883d b065 543c
00000200: 037d 52be 4c9f db3d ab37 c03d bbb6 823e
00000210: 7cac 643e f0d1 1c3e 449a a3bd b5a6 293e
00000220: da30 c4bd 6fbd 15be 96d2 363e b8b1 553d
00000230: fa67 8cbd 6398 0f3c 3688 c5bb 277a 053e
00000240: 1c1e 9dbb 5df5 28be 8c5c 233e 4ae0 8c3d
00000250: 2324 99bc 1d06 babc 6b31 193d 42e0 0f3e
00000260: 37e8 4ebe e5dc 273d b8e0 a2bd 5848 e5bc
00000270: 376e 013d 4354 c5bd 5453 d4bd e550 b63d
00000280: 5772 9e3d 6ebb 74bd 5ab2 bdbd 60db 16be
00000290: ccf4 ac3d db5c 05be 3efc 77bd de92 073e
000002a0: 22e3 be3e 5067 f3bc 3976 863e 9b69 32be
000002b0: 39d2 8d3c 19ef 043e 37fb 62be 2b10 1dbc
000002c0: 1c70 27bd f9d2 81be e8b8 1fbe 6bb9 32be
000002d0: ff21 0a3e 2b39 2d3e c017 ff3c 9a49 7c3d
000002e0: 6d1d 413d 4cd6 c13b de56 823e 8f7b 543e
000002f0: 56a1 883e dcb9 b83c ea19 023e becc 8a3c
00000300: f06c 253d 69b1 b3bd 51a4 a1be 0dcb 34be
00000310: 0348 063e 02ad b13e aafc cdbe 45ed aa3d
00000320: e348 963e 2b65 873e 7eb7 373e 2e58 b73e
00000330: af89 4e3e 2650 8c3e 230d 8dbb dc2d aa3e
00000340: e5fe b23d ae9d 7a3d e620 0f3b e910 3b3e
00000350: 5d3f 3e3e 1719 573e 9112 f23d 6f23 9e3e
00000360: 81ca eabd 432b 903d 8d70 f83d eae8 dbbd
00000370: a200 883d d205 31bb 91c5 a93d aae4 783e
00000380: 8844 4e3d c849 983e 6839 ee3d 3b6c 9d3d
00000390: f2ea 4e3e 3546 b7bc 6ad6 cabd 657d f9bd
000003a0: 5700 d8bc 98d7 63be b26c c03b b2f6 b23d
000003b0: 692c ec3d 8b37 0c3e a382 033e 27b2 1dbd
000003c0: 6a83 43bd b6ab 3d3e 1381 1c3e d9fa b3bd
000003d0: abdf d63c 730d 03be a458 02be 28cf 943d
000003e0: b37d c23d bfde 17bd 4906 f6bd 9618 7c3d
000003f0: e570 393c 6bb5 9c3d 1ed8 c93c b351 41be

Linear1.bias f4 [48]
-0.12302092 -0.16749889 0.16995037 0.053680554 0.028996961 -0.20778869 -0.16840787 0.1207039
0.021543588 0.10445911 -0.24469592 0.110428065 0.034849603 0.18621916 0.030115826 -0.17035696
0.11722878 0.041641522 0.013237058 0.26126766 0.4024703 0.14572531 -0.1287186 -0.05850034
0.21532151 -0.0633498 -0.032161795 -0.10342273 0.1021257 -0.0048251743 0.22793502 0.15856446
0.25279543 -0.015218173 0.060745075 -0.10921483 -0.0103939865 0.014348408 -0.28171122 -0.015929764
0.0063710706 -0.035543732 -0.07142249 -0.10976159 0.04720227 -0.23743309 0.18434407 0.04377576
00000000: 64f2 fbbd d484 2bbe 7807 2e3e 24e0 5b3d
00000010: 098b ed3c 8fc6 54be 1d73 2cbe 9b33 f73d
00000020: 2e7c b03c a8ee d53d 9191 7abe 1c28 e23d
00000030: 75be 0e3d 3cb0 3e3e 77b5 f63c 0e72 2ebe
00000040: a515 f03d 4d90 2a3d 3fe0 583c e0c4 853e
00000050: 9610 ce3e 0439 153e cfce 03be 0d9e 6fbd
00000060: 3e7d 5c3e 8abd 81bd 16bc 03bd 4ccf d3bd
00000070: 4727 d13d 7f1c 9ebb cc67 693e b95e 223e
00000080: 676e 813e a555 79bc d4cf 783d 06ac dfbd
00000090: 8a4b 2abc 9615 6b3c 743c 90be 237f 82bc
000000a0: 6ac4 d03b 4e96 11bd f445 92bd afca e0bd
000000b0: 2b57 413d a921 73be b1c4 3c3e 364e 333d

Linear2.weight f4 [48, 48]
-0.0143641485 -0.084571995 -0.044930585 0.009372233 0.038265284 -0.03731832 0.10876778 0.04338429
0.044367578 -0.09357752 -0.02194487 0.09406366 -8.691472e-06 0.13363138 0.35787493 -0.011490229
0.0077517303 -0.0182328 0.05728441 0.10616109 0.12116257 0.028084897 -0.0037948056 0.11172864
0.016674712 0.15144858 -0.0074102473 -0.01547529 0.010293943 0.02882418 0.033051074 0.0804697
0.07028052 -0.10363386 0.27331766 0.07843867 -0.017953586 0.09120326 -0.0029787335 0.1412177
-0.008570269 -0.07328063 -0.028989399 -0.02974783 -0.088315174 -0.12351845 0.14581482 0.0622532
0.051878054 0.35246497 0.16799064 0.1925463 0.11657823 0.23436792 -0.03284722 0.13278046
0.33367512 0.038020536 0.12313028 0.22120322 0.16836858 0.03835638 0.38352808 -0.038961526
0.278242 0.1940066 0.188367 0.13140619 0.34337702 0.038322285 -0.048631288 0.05632477
0.23964204 0.12949024 0.1020434 0.009645298 0.16153316 0.28488466 0.096974984 -0.0066845613
0.12631151 0.22628218 0.35575867 0.18528792 0.03169035 0.065786034 0.022835959 0.11208762
0.11017518 0.20224546 -0.0023859844 0.1804752 0.23475388 -0.020957477 0.24712853 0.20798717
0.017704967 -0.06640224 -0.046013925 0.08716406 -0.02254408 0.09627464 -0.06205576 0.12507507
0.00038164092 -0.056598574 0.0012536255 -0.07695981 -0.041554213 0.105832145 0.10212116 -0.011832616
0.10496205 -0.02938726 0.03924783 -0.024283992 -0.032260977 0.070810765 0.13536601 -0.004094028
0.041456204 -0.03408959 -0.045307897 -0.06968273 -0.081209674 -0.019703256 0.07358158 0.0966706
-0.011085298 -0.046768498 -0.13826047 0.019803945 -0.15180497 0.080001555 0.14282554 -0.0911753
-0.04084284 0.004529084 0.10943955 0.12598997 0.040794764 -0.07106781 0.1636944 0.17378229
0.16298085 0.08186072 0.12337688 0.04895986 0.03591835 -0.13150363 -0.050293513 0.16764152
-0.019588025 -0.10040673 -0.00346081 0.016574062 0.09567322 0.11001843 0.24348983 0.08389717
0.16943789 0.14041749 -0.025011824 0.0724595 0.15027025 0.14535575 0.035028003 -0.11655588
-0.05047992 -0.02541482 -0.021262825 -0.06085398 0.038401973 0.09632164 0.06119508 0.15854925
0.16317548 0.040867526 0.43163332 0.17998458 0.033766247 0.093662925 0.15121041 -0.03275984
0.04176442 -0.048344072 0.09296209 0.15688096 0.035028376 -0.1372376 0.084889635 0.21317549
-0.030407127 -0.057945643 0.047866113 0.1573348 0.001556841 0.15108673 -0.016085912 0.22779411
-0.01291786 0.1427838 0.15196888 0.17696388 0.024955487 0.22409645 0.2436026 -0.08256859
0.16535738 0.13178971 0.13392805 -0.063595936 -0.024439406 0.18244179 0.18346848 0.07128834
0.09788599 -0.051396288 0.096682556 0.0032578043 0.09724215 0.2940097 0.15684354 0.073725425
0.065559566 0.23988041 0.36008242 -0.027556937 0.24500586 -0.048633628 0.10816055 -0.034127604
-0.010646184 0.11730019 0.11433485 0.160233 0.029575946 -0.036927164 -0.1826967 0.15486248
0.28458712 0.15415041 0.01452031 0.11577356 -0.010863377 0.13880667 0.008034853 0.04357322
0.33143342 -0.11349667 0.15756428 0.12925205 0.091851346 0.11903543 0.3436017 -0.13407408
00000000: 9b57 6bbc 1534 adbd 2209 38bd ff8d 193c
00000010: 0fbc 1c3d 18db 18bd a4c1 de3d bab3 313d
00000020: c7ba 353d 92a5 bfbd bac5 b3bc 73a4 c03d
00000030: 97d1 11b7 aad6 083e 623b b73e 8341 3cbc
00000040: 3a02 fe3b f45c 95bc 0fa3 6a3d fc6a d93d
00000050: 1524 f83d 4c12 e63c 46b2 78bb fcd1 e43d
00000060: 6899 883c 5615 1b3e a9d1 f2bb 128c 7dbc
00000070: eda7 283c b020 ec3c 9060 073d 4ccd a43d
00000080: 3cef 8f3d fd3d d4bd 4bf0 8b3e 74a4 a03d
00000090: 6613 93bc c6c8 ba3d db36 43bb 5f9b 103e
000000a0: 506a 0cbc 2814 96bd 2d7b edbc b9b1 f3bc
000000b0: 96de b4bd 3ef7 fcbd 7b50 153e 36fd 7e3d
000000c0: 157e 543d 4a76 b43e bd05 2c3e db2a 453e
000000d0: 91c0 ee3d 25fe 6f3e ce8a 06bd 9af7 073e
000000e0: 77d7 aa3e 6cbb 1b3d ba2b fc3d 1983 623e
000000f0: d068 2c3e 941b 1d3d cb5d c43e 1f96 1fbd
00000100: bc75 8e3e aba9 463e 47e3 403e 588f 063e
00000110: 1dcf af3e d4f7 1c3d 9a31 47bd cdb4 663d
00000120: b964 753e 1799 043e 21fc d03d 5007 1e3c
00000130: f368 253e 67dc 913e d29a c63d 2a0a dbbb
00000140: ce57 013e 84b6 673e 0026 b63e 1ebc 3d3e
00000150: becd 013d d4ba 863d 7a12 bb3c 328e e53d
00000160: 86a3 e13d 6f19 4f3e 2d5e 1cbb 7ece 383e
00000170: 5263 703e 04af abbc 430f 7d3e 97fa 543e
00000180: 020a 913c e6fd 87bd 1979 3cbd 1283 b23d
00000190: 5dae b8bc a32b c53d 2e2e 7ebd ae13 003e
000001a0: fa16 c839 e8d3 67bd b150 a43a 1b9d 9dbd
000001b0: c034 2abd 86be d83d e624 d13d 97dd 41bc
000001c0: 58f6 d63d 8dbd f0bc 55c2 203d 39ef c6bc
000001d0: 1624 04bd 3c05 913d 639d 0a3e 3227 86bb
000001e0: fbcd 293d 87a1 0bbd c694 39bd d2b5 8ebd
000001f0: 4251 a6bd b968 a1bc f0b1 963d 3cfb c53d
00000200: 1c9f 35bc 5390 3fbd 2794 0dbe e23b a23c
00000210: c372 1bbe dbd7 a33d dc40 123e 1eba babd
00000220: d24a 27bd b668 943b d821 e03d 8403 013e
00000230: 6918 273d 008c 91bd 819f 273e fcf3 313e
00000240: 74e4 263e 98a6 a73d 05ad fc3d 228a 483d
00000250: 1f1f 133d e3a8 06be 9200 4ebd 38aa 2b3e
00000260: 1177 a0bc 0ba2 cdbd c2ce 62bb 54c6 873c
00000270: 52f0 c33d 5851 e13d 6655 793e 48d2 ab3d
00000280: 2081 2d3e 9ac9 0f3e 99e5 ccbc a565 943d
00000290: 72e0 193e 23d8 143e 8679 0f3d d9b4 eebd
000002a0: 08c4 4ebd be32 d0bc 602f aebc 0642 79bd
000002b0: 634b 1d3d 4844 c53d b1a7 7a3d bc5a 223e
000002c0: 7917 273e b564 273d 0bff dc3e e14d 383e
000002d0: 7a4e 0a3d 59d2 bf3d e7d6 1a3e 2f2f 06bd
000002e0: 2b11 2b3d 6f04 46bd e962 be3d 67a5 203e
000002f0: ea79 0f3d 0388 0cbe 9eda ad3d ad4a 5a3e
00000300: 5e18 f9bc 6958 6dbd 420f 443d 601c 213e
00000310: ea0e cc3a 7bb6 1a3e 9ac6 83bc dc42 693e
00000320: 6fa5 53bc eb35 123e bb9d 1b3e 0536 353e
00000330: 736f cc3c 8a79 653e f672 793e b919 a9bd
00000340: 7253 293e e2f3 063e 6f24 093e 963e 82bd
00000350: 2635 c8bc 05d2 3a3e 29df 3b3e 9fff 913d
00000360: 7378 c83d ea84 52bd 8101 c63d e380 553b
00000370: e426 c73d 7088 963e 989b 203e 5bfd 963d
00000380: 1844 863d 36a3 753e b95c b83e 16bf e1bc
00000390: d1e2 7a3e 0e34 47bd 4783 dd3d 63c9 0bbd
000003a0: 556d 2ebc 153b f03d 6428 ea3d 1f14 243e
000003b0: 4149 f23c f040 17bd d814 3bbe 4594 1e3e
000003c0: 67b5 913e 9bd9 1d3e 98e6 6d3c b01a ed3d
000003d0: 4efc 31bc 5623 0e3e 9ea4 033c d579 323d
000003e0: a4b1 a93e f170 e8bd 8858 213e a65a 043e
000003f0: 8f1c bc3d d9c8 f33d 90ec af3e b74a 09be

Linear2.bias f4 [48]
0.0018889223 -0.00066528877 0.16773213 0.008397659 -0.019071478 0.06376001 0.0073505603 0.13353443
0.061591666 -0.008192431 0.08771993 0.3175416 -0.10958288 0.15600994 0.04582207 0.12783965
0.04572369 0.1390698 0.11690867 -0.1179253 0.09964783 0.41869444 0.13521966 0.034114935
0.22556864 0.13392524 0.06625068 -0.031708002 0.013570838 0.15218043 -0.023196809 0.14593244
0.21001372 0.31762066 0.045613054 -0.0167667 0.19172144 0.2523955 0.03580324 0.029369378
0.21860668 0.5924172 0.11734101 0.10218312 0.31210312 0.04491494 0.1555235 0.07800623
00000000: b795 f73a c666 2eba f9c1 2b3e 5696 093c
00000010: ca3b 9cbc 9c94 823d f8dc f03b 40bd 083e
00000020: 8b47 7c3d 8c39 06bc 82a6 b33d d094 a23e
00000030: fd6c e0bd 12c1 1f3e ecaf 3b3d 66e8 023e
00000040: c448 3b3d 5068 0e3e d06d ef3d d282 f1bd
00000050: 2914 cc3d 1e5f d63e 0677 0a3e 1abc 0b3d
00000060: 77fb 663e b323 093e 70ae 873d 40e0 01bd
00000070: 3858 5e3c 30d5 1b3e 3c07 bebc 506f 153e
00000080: d60d 573e 2d9f a23e c1d4 3a3d 525a 89bc
00000090: a052 443e fc39 813e 6ba6 123d 0d98 f03c
000000a0: 6eda 5f3e a7a8 173f 7c50 f03d 6245 d13d
000000b0: fbcb 9f3e baf8 373d 8d41 1f3e bbc1 9f3d

Linear3.weight f4 [4, 48]
-0.22069542 -0.07720454 -0.085411526 -0.16462468 -0.14949664 0.0007275626 -0.15973264 -0.19704805
-0.0456512 0.02875982 -0.20176344 0.7040152 0.0015884129 0.07002569 0.013511736 -0.11648171
0.14215349 0.06086482 -0.56006944 0.037851408 0.06605772 -0.15503871 -0.11188344 0.0028206876
-0.07384921 -0.16441429 0.06847894 0.088288896 -0.030928586 -0.13543014 -0.17499779 0.05220016
0.37009144 0.0829683 -0.0132645145 -0.28950086 -0.19117355 0.19761655 -0.09256721 0.028998524
-0.622933 -1.0715307 0.07400665 -0.09713068 -0.13866794 0.14643757 0.024823189 -0.016233632
0.17198758 -0.06396245 -0.07660555 0.09572187 0.07699652 0.002540327 -0.11989642 0.053417966
-0.085511595 -0.2138246 -0.08438343 -0.62970257 -0.13390568 -0.06835606 0.097863734 -0.2387617
0.08171768 -0.006549095 0.26426464 -0.042208135 -0.19057024 -0.7347698 -0.06662863 0.1117495
-0.19897003 -0.14469884 -0.036963545 -0.36623478 -0.16670623 0.4014725 -0.17632125 -0.04788245
-0.09773104 0.14462972 -0.04093632 -0.26301473 0.07108835 -0.099379204 0.02641019 0.042055026
-0.25183988 -0.3774659 0.05814302 0.04796452 0.17939946 -0.015348909 -0.13356124 0.012445191
-0.21305029 -0.18457265 -0.01771641 -0.25809878 -0.36039832 0.11628393 -0.07000981 -0.26446754
-0.1378381 -0.0862983 -0.31322718 -0.36482695 0.13667879 -0.11420819 0.060981758 -0.030493222
0.061420966 -0.19448045 0.1978518 -0.0034632778 -0.12226824 -0.015660323 -0.080955476 -0.07210791
-0.19288155 0.08076624 0.003130032 -0.28840777 -0.022423381 -0.27014786 0.05077706 -0.25319332
-0.36933604 -0.61740035 -0.002646763 0.06599694 -0.33189833 -0.30684647 -0.08018435 0.088701114
-0.00041189702 0.06854977 0.032478936 0.019828582 -0.6884313 -0.048411127 -0.31323612 0.059705846
-0.24742879 -0.18262507 0.10469082 -0.09281085 -0.31743228 0.04436844 -0.079461634 -0.26553446
0.06945475 -0.06414845 -0.24679996 -0.37371698 0.0067255287 -0.1178113 0.096749984 0.05843589
0.04364722 -0.11944223 0.28594017 0.16906202 -0.1750538 -0.08982987 -0.21052305 0.026653266
-0.25111535 0.0067588803 -0.113256015 -0.1986647 -0.08895145 -0.16628295 0.10530251 -0.067092165
-0.20062569 -0.729785 0.032956373 -0.04487267 -0.23300743 -0.37966853 0.07195964 -0.06942047
-0.056826934 0.026580894 0.013082569 -0.2566623 -0.6246483 0.021062158 -0.3229934 0.11328284
00000000: fbfd 61be 6a1d 9ebd 3dec aebd 5f93 28be
00000010: a615 19be e6b9 3e3a f490 23be f7c6 49be
00000020: c1fc 3abd b799 eb3c 139b 4ebe 573a 343f
00000030: 4b32 d03a a169 8f3d 5460 5d3c f68d eebd
00000040: af90 113e 644d 793d b660 0fbf 140a 1b3d
00000050: 4549 873d 78c2 1ebe 2523 e5bd 49db 383b
00000060: 413e 97bd 385c 28be b03e 8c3d cfd0 b43d
00000070: f25d fdbc 33ae 0abe 9f32 33be d6cf 553d
00000080: a07c bd3e 49eb a93d 6853 59bc 7539 94be
00000090: 00c3 43be fe5b 4a3e e193 bdbd 508e ed3c
000000a0: 8978 1fbf eb27 89bf cc90 973d 73ec c6bd
000000b0: f8fe 0dbe bbf3 153e 005a cb3c 65fc 84bc
000000c0: 831d 303e bffe 82bd 5fe3 9cbd d409 c43d
000000d0: 5ab0 9d3d 9d7b 263b 418c f5bd cccc 5a3d
000000e0: b420 afbd d6f4 5abe 38d1 acbd 3034 21bf
000000f0: 921e 09be 43fe 8bbd c86c c83d f27d 74be
00000100: 995b a73d ca99 d6bb b24d 873e 70e2 2cbd
00000110: d824 43be e019 3cbf 9774 88bd ecdc e43d
00000120: cdbe 4bbe ef2b 14be 1667 17bd 2083 bbbe
00000130: 0ab5 2abe ce8d cd3e 8f8d 34be 6320 44bd
00000140: 3627 c8bd d019 143e d8ac 27bd dea9 86be
00000150: c596 913d 5387 cbbd 2f5a d83c e441 2c3d
00000160: 28f1 80be 3643 c1be 6027 6e3d 7276 443d
00000170: 7eb4 373e fe79 7bbc 47c4 08be eae6 4b3c
00000180: db29 5abe 9d00 3dbe 0122 91bc 8625 84be
00000190: 2186 b8be 4526 ee3d 4e61 8fbd 4a68 87be
000001a0: 6e25 0dbe 2abd b0bd 505f a0be 99ca babe
000001b0: 86f5 0b3e fce5 e9bd 02c8 793d eccc f9bc
000001c0: 8d94 7b3d e225 47be aa99 4a3e 29f8 62bb
000001d0: c567 fabd 144a 80bc fccb a5bd 50ad 93bd
000001e0: be82 45be c568 a53d 3921 4d3b 2faa 93be
000001f0: 3db1 b7bc d250 8abe 9bfb 4f3d 8ea2 81be
00000200: 9d19 bdbe f30d 1ebf 5175 2dbb 6729 873d
00000210: 94ee a9be fb1a 9dbe b137 a4bd eea8 b53d
00000220: e2f3 d7b9 d263 8c3d a208 053d 8d6f a23c
00000230: 093d 30bf bf4a 46bd 7c60 a0be 1e8e 743d
00000240: f95d 7dbe 1102 3bbe 2468 d63d 9d13 bebd
00000250: 7c86 a2be aebb 353d c8bc a2bd 22f4 87be
00000260: 4b3e 8e3d 4360 83bd 21b9 7cbe d557 bfbe
00000270: d361 dc3b 0d47 f1bd db24 c63d 795a 6f3d
00000280: 6dc7 323d 219e f4bd c066 923e 981e 2d3e
00000290: 4e41 33be b9f8 b7bd 5b93 57be f357 da3c
000002a0: 3192 80be 9979 dd3b c5f2 e7bd c26e 4bbe
000002b0: 2e2c b6bd 1446 2abe d8a8 d73d 9e67 89bd
000002c0: d270 4dbe 31d3 3abf 43fd 063d 68cc 37bd
000002d0: 8099 6ebe ea63 c2be 935f 933d 522c 8ebd
000002e0: 5cc3 68bd 2dc0 d93c 4658 563c 3e69 83be
000002f0: f3e8 1fbf 8c8a ac3c 645f a5be d500 e83d

Linear3.bias f4 [4]
0.10446298 -0.19460328 -0.0978698 -0.22435284
00000000: b0f0 d53d 1546 47be f66f c8bd c0bc 65be
