ModelPara/DDPG/Mario_localQ_DDPG2021-10-08T10-21-30.pth (torch, 11935 bytes, 5 tensors)

Linear1.weight f4 [48, 24]
-0.09023266 -0.11802091 0.16045883 -0.06918278 0.0954068 -0.08289468 0.19292009 -0.10882978
0.09484458 0.14890239 -0.051421493 -0.033155635 0.1881235 0.191623 -0.09934454 -0.122876436
0.014022514 -0.1458874 -0.17378074 -0.08506581 0.0790557 0.021236554 0.18965122 0.027466282
0.081180066 -0.15544495 0.08016521 -0.10188705 -0.17458093 0.10344955 -0.038164437 0.060474485
0.15315494 -0.06056422 -0.019615576 0.1571373 -0.19488078 0.05204892 0.11545631 -0.0035631359
-0.20043558 -0.17146868 0.20134455 -0.040598035 -0.021323904 -0.11309576 -0.13305339 -0.16025358
0.19531938 0.1775097 -0.11972544 0.006179005 0.0008145869 -0.06538941 -0.0026855618 0.17105806
-0.011315703 -0.15264584 0.108350515 0.0076853186 0.13439938 0.13419792 -0.16578346 -0.11756877
-0.094604515 -0.07979946 -0.0275843 0.050504565 0.09316224 -0.06490213 0.016826347 0.01720111
-0.12578884 -0.110637516 0.061268955 0.17865112 -0.14748763 -0.0831559 -0.10546388 -0.03027153
0.18996072 0.06886932 0.075879395 -0.11460322 0.0058717728 0.17847487 0.16821492 0.0741781
-0.118552424 0.15544516 -0.052518472 0.16640651 0.12903959 0.00010976195 -0.07939343 0.17836532
-0.1648885 0.0552561 -0.042084664 0.1466251 0.20324558 -0.0042055845 -0.17827135 -0.18546054
-0.10558659 0.059030652 -0.14473823 -0.1104089 -0.118297994 -0.06112966 0.08921325 -0.1854579
-0.2000008 0.060875505 -0.07142039 0.17044708 0.14427993 0.19747856 0.12428799 0.1975055
-0.17894945 0.17194492 -0.19767082 -0.05278252 -0.17457986 -0.19259806 0.0274916 -0.11016637
0.037629783 0.11410484 0.089922965 0.05672404 0.065570146 0.10687366 -0.12054558 -0.18073769
-0.07650699 0.028048053 -0.042411268 -0.14675246 -0.17398831 -0.10062389 0.08171004 0.15041345
0.19960251 0.13308087 0.0681434 -0.11001879 -0.08193185 0.14066061 -0.08829905 0.045397863
0.19198886 -0.11249397 -0.06706776 -0.042668596 0.14567995 -0.123711735 -0.11263106 0.051614106
0.04131402 0.022346452 0.008709937 -0.035070285 -0.1929013 0.0013975203 0.059438437 -0.02207607
-0.201702 -0.024919152 0.1711767 -0.07291281 -0.13172391 0.058404982 0.045454532 -0.13655207
0.13496691 0.13912669 -0.048954442 -0.1263473 0.09468764 0.19957307 -0.15447336 -0.10300206
-0.16754106 -0.09569115 0.18032438 0.0078035295 0.018989757 0.13201758 -0.16205448 -0.06178768
-0.0101311505 -0.16791365 0.1348961 0.02256532 0.01689963 -0.1302097 0.07015619 -0.0031760633
-0.045622334 -0.17700106 0.1484628 -0.107166976 -0.12755847 0.16612566 -0.058872357 -0.106746785
-0.14224184 0.042030975 -0.011573672 -0.07073708 0.1902596 -0.058826193 -0.12965962 0.15652317
0.14707547 0.17608684 -0.17846093 0.06142047 0.08981168 0.12366119 0.008451492 0.15699989
-0.053791776 -0.17090228 -0.05609618 0.044878706 -0.13862765 0.2007353 -0.05117631 -0.05564934
-0.15788496 -0.19885235 -0.19969176 -0.07660471 -0.11557773 -0.020376459 -0.010699362 0.095335275
-0.121987924 0.10763517 0.07496145 -0.038969114 -0.055294365 -0.05034204 0.068358034 0.1740548
-0.1733355 0.13301516 0.046007156 0.17517763 -0.06287688 -0.18823217 0.025684133 -0.1902781
00000000: e7cb b8bd f2b4 f1bd 524f 243e b4af 8dbd
00000010: a464 c33d b0c4 a9bd d88c 453e 26e2 debd
00000020: e03d c23d de79 183e 589f 52bd 34ce 07bd
00000030: 72a3 403e d238 443e 2675 cbbd a4a6 fbbd
00000040: b0be 653c 8263 15be 94f3 31be fc36 aebd
00000050: f4e7 a13d 48f8 ad3c ee33 423e f800 e13c
00000060: bc41 a63d f62c 1fbe a82d a43d 28aa d0bd
00000070: 58c5 32be 5cdd d33d 5052 1cbd 18b4 773d
00000080: a6d4 1c3e 3012 78bd d8b0 a0bc 9ae8 203e
00000090: d48e 47be 4031 553d 5c74 ec3d 8083 69bb
000000a0: fc3e 4dbe 7c95 2fbe 442d 4e3e 204a 26bd
000000b0: 78af aebc c09e e7bd 263f 08be 8419 24be
000000c0: ce01 483e 1ac5 353e 9d32 f5bd 4079 ca3b
000000d0: 008a 553a e2ea 85bd 4000 30bb d829 2f3e
000000e0: 8065 39bc 314f 1cbe e0e6 dd3d 20d5 fb3b
000000f0: fe9f 093e 2e6b 093e 24c3 29be e5c7 f0bd
00000100: 03c0 c1bd e66d a3bd 78f8 e1bc e0dd 4e3d
00000110: d8cb be3d 68eb 84bd 68d7 893c 58e9 8c3c
00000120: cace 00be ec95 e2bd 28f5 7a3d 52f0 363e
00000130: ff06 17be a44d aabd 72fd d7bd 00fc f7bc
00000140: 1085 423e 5c0b 8d3d a866 9b3d 18b5 eabd
00000150: 0068 c03b 1ec2 363e 8840 2c3e b0ea 973d
00000160: 9dcb f2bd 042d 1f3e 9c1d 57bd 7866 2a3e
00000170: f422 043e 0030 e638 0699 a2bd 66a5 363e
00000180: 88d8 28be 3854 623d f860 2cbd e424 163e
00000190: 9c1f 503e 00cf 89bb c48c 36be 5ee9 3dbe
000001a0: c83d d8bd 20ca 713d 4236 14be 101e e2bd
000001b0: 3846 f2bd 1863 7abd 70b5 b63d ade8 3dbe
000001c0: 02cd 4cbe 9858 793d da44 92bd ae89 2e3e
000001d0: 1ebe 133e d237 4a3e b48a fe3d e23e 4a3e
000001e0: 863e 37be 5412 303e 386a 4abe 7c32 58bd
000001f0: 10c5 32be 6d38 45be 1036 e13c e89e e1bd
00000200: b021 1a3d ccaf e93d 8829 b83d 7857 683d
00000210: a449 863d 94e0 da3d 9ae0 f6bd 4d13 39be
00000220: b2af 9cbd 08c5 e53c 70b7 2dbd 4746 16be
00000230: fe29 32be e613 cebd 9857 a73d fc05 1a3e
00000240: 9a64 4c3e 5a46 083e c48e 8b3d 8851 e1bd
00000250: e3cb a7bd 5609 103e 22d6 b4bd 1cf3 393d
00000260: ba98 443e 3d63 e6bd d25a 89bd 44c5 2ebd
00000270: 202d 153e 945c fdbd 1dab e6bd 5069 533d
00000280: e438 293d e80f b73c 20b4 0e3c dca5 0fbd
00000290: eb87 45be 002d b73a b875 733d e0d8 b4bc
000002a0: f88a 4ebe 4023 ccbc f248 2f3e 5053 95bd
000002b0: a2e2 06be 103a 6f3d 882e 3a3d 4ed4 0bbe
000002c0: c434 0a3e 3a77 0e3e 7484 48bd 3061 01be
000002d0: 98eb c13d e25c 4c3e 442e 1ebe bef2 d2bd
000002e0: e28f 2bbe b9f9 c3bd f4a6 383e c0b4 ff3b
000002f0: 6890 9b3c 9e2f 073e 9cf1 25be 1415 7dbd
00000300: 20fd 25bc 8ef1 2bbe 3422 0a3e e8da b83c
00000310: 1871 8a3c b155 05be 0cae 8f3d 8025 50bb
00000320: 7cde 3abd c43f 35be a206 183e 5c7a dbbd
00000330: b09e 02be d81c 2a3e 2424 71bd 0f9e dabd
00000340: d8a7 11be ac28 2c3d 809f 3dbc 9ade 90bd
00000350: 6ad3 423e bcf3 70bd 7ec5 04be 9c47 203e
00000360: f49a 163e 1c50 343e 76be 36be 0894 7b3d
00000370: 30ef b73d 1442 fd3d 2078 0a3c 94c4 203e
00000380: c454 5cbd 0201 2fbe 1cc5 65bd bcd2 373d
00000390: 68f4 0dbe 8e8d 4d3e 409e 51bd 90f0 63bd
000003a0: 98ac 21be f39f 4bbe ff7b 4cbe eee2 9cbd
000003b0: 04b4 ecbd 88ec a6bc 604c 2fbc 243f c33d
000003c0: ced4 f9bd d46f dc3d 6485 993d 149e 1fbd
000003d0: 587c 62bd 7433 4ebd 4cff 8b3d 6c3b 323e
000003e0: dc7e 31be 2035 083e 0072 3c3d c461 333e
000003f0: 98c5 80bd efbf 40be 8867 d23c 43d8 42be

Linear1.bias f4 [48]
-0.111002296 -0.010400325 -0.12485181 -0.17206703 0.12907735 -0.14547408 0.08169472 -0.180585
-0.112993315 0.07303253 -0.106012665 -0.030232877 -0.10973703 -0.10863957 0.1141043 0.1890887
0.19941702 0.030633241 0.18141466 0.08057356 -0.022558391 0.022746533 0.14934164 -0.17394629
0.010165662 0.06126362 -0.1262508 -0.16586937 -0.03242494 -0.10560749 -0.18864135 0.05754435
-0.112488374 0.19635749 -0.04529038 0.024617344 0.08748305 0.17380273 -0.16170731 -0.17423418
0.012324408 0.008771732 -0.041043207 0.0653564 0.19199756 -0.0761123 -0.17418548 -0.021711826
00000000: 2c55 e3bd 2066 2abc 4eb2 ffbd 5732 30be
00000010: da2c 043e 28f7 14be 904f a73d 46eb 38be
00000020: 0a69 e7bd 1492 953d 2b1d d9bd f0aa f7bc
00000030: cfbd e0bd 6c7e debd 84af e93d 78a0 413e
00000040: fa33 4c3e 90f2 fa3c c4c4 393e c003 a53d
00000050: 60cc b8bc f056 ba3c 04ed 183e fa1e 32be
00000060: e08d 263c 90ef 7a3d e447 01be a9d9 29be
00000070: 04d0 04bd bd48 d8bd 332b 41be a0b3 6b3d
00000080: 4e60 e6bd f011 493e 6882 39bd 50aa c93c
00000090: 502a b33d 58f9 313e 9a96 25be 726a 32be
000000a0: 50ec 493c 50b7 0f3c ec1c 28bd 94d9 853d
000000b0: 029b 443e c4e0 9bbd ae5d 32be 00dd b1bc

Linear2.weight f4 [24, 48]
0.06469162 0.027378932 -0.13416922 -0.03320802 -0.0084359795 0.057434663 -0.047447003 0.1431478
0.03987263 0.12042755 0.12387174 -0.075846545 0.060234442 -0.06425237 -0.098626 -0.054549694
0.04248497 -0.067924894 0.00093171 -0.087198846 -0.018235609 -0.09762992 -0.13711171 0.14356557
0.13698852 -0.05074151 -0.13800567 -0.044592775 -0.071620055 -0.0129921585 -0.12934414 -0.074641824
-0.032658294 -0.13269699 0.120946884 -0.035728596 0.04994227 0.04169035 0.00910078 0.08039266
0.085195735 -0.08886795 -0.05956263 0.123224646 -0.1413306 0.034864098 0.055817187 -0.05239912
-0.1340904 0.04677698 -0.036896497 -0.008450225 -0.11293188 0.13063279 -0.11433418 0.13659862
-0.10427673 -0.06124215 0.06529136 -0.036110975 0.07262939 -0.03704036 -0.006404951 0.12666363
-0.035459504 -0.12613526 -0.03774178 0.018121243 0.053702205 0.04440798 -0.12854913 0.0070468932
0.057324007 0.03768894 0.14124572 0.12198922 0.106915504 -0.06493396 -0.005853668 -0.053752057
-0.07472921 0.08804488 -0.11513619 0.09165262 -0.006746635 -0.12200339 -0.076014735 0.05902061
0.058275 -0.13006537 -0.028659873 -0.124400005 0.048697248 -0.06566692 0.099288434 0.11069137
-0.107602805 0.13600314 -0.034001924 0.033070654 0.09324215 0.03629534 0.039301813 -0.017792046
-0.14285214 -0.054777488 0.076922044 0.026689976 0.12935686 -0.0929129 -0.10615346 0.08863726
-0.115633264 0.06545834 0.069979444 -0.10561182 0.10553481 -0.06563208 0.07897167 0.1362127
-0.08754228 0.111448854 -0.102712825 -0.13495581 -0.03980401 -0.0010301322 0.13417092 0.087489754
-0.12412558 -0.077015184 0.031822637 -0.05577819 0.12895316 0.12685296 0.1036883 -0.14330778
0.092995405 0.10857174 0.027787402 0.10751054 -0.098990686 0.025160342 -0.070721075 -0.044142105
-0.011094689 0.1021537 0.012381554 -0.12599832 0.13570246 -0.041561954 0.019062757 -0.051039726
-0.05560945 -0.09406455 -0.12659013 -0.13315988 -0.03225656 -0.08918302 0.111888796 -0.08342253
-0.09830856 0.06494571 0.060671985 -0.10131663 -0.06459612 -0.112978935 0.01676543 0.011023074
0.12575266 -0.06258758 0.13551256 0.043366224 -0.03298638 -0.11865028 0.0890986 -0.02989959
-0.028011657 -0.009327158 -0.08368405 -0.014266908 0.101524085 -0.12466049 0.039364412 -0.0030269325
-0.1127881 -0.0020772964 0.0010712743 -0.020213984 0.089715496 0.023452103 -0.06676106 -0.049268745
-0.04040935 0.014976442 0.065852195 -0.048727036 -0.012122661 -0.07653304 0.02703236 0.06842737
0.092027605 0.10482417 0.038913026 0.032726377 -0.031173348 -0.009323552 -0.069657184 -0.14141746
0.12831739 0.03885445 0.053978994 -0.14360003 0.038781375 -0.10547403 -0.03319771 -0.046874717
-0.13324751 -0.08691542 0.070240095 -0.04790674 -0.094191745 -0.07078317 0.14196035 0.08141729
0.077565 -0.12846227 -0.06768268 -0.07151186 0.11794788 -0.08571787 -0.08841483 -0.13901338
-0.06792784 0.043333918 -0.10671974 0.1385105 0.06148526 -0.047760658 -0.0043266267 -0.0916699
0.14055112 -0.0065229833 -0.036524825 -0.08644383 0.06260908 0.01340355 0.054950967 -0.1167416
-0.03464561 0.03672099 0.06293973 0.13971296 -0.06926842 -0.093106605 -0.0033740848 0.10868806
00000000: 0a7d 843d c849 e03c a863 09be 2205 08bd
00000010: 1037 0abc 9c40 6b3d ca57 42bd 5695 123e
00000020: 7c51 233d b8a2 f63d 78b0 fd3d 6f55 9bbd
00000030: 64b8 763d bf96 83bd 6efc c9bd 806f 5fbd
00000040: b804 2e3d 351c 8bbd 003e 743a 4f95 b2bd
00000050: d862 95bc 32f2 c7bd 0367 0cbe da02 133e
00000060: b846 0c3e 54d6 4fbd 5c51 0dbe eaa6 36bd
00000070: 89ad 92bd 10dd 54bc ca72 04be d0dd 98bd
00000080: b4c4 05bd b8e1 07be 00b3 f73d 2658 12bd
00000090: 4490 4c3d 80c3 2a3d 701b 153c e8a4 a43d
000000a0: 1a7b ae3d 6600 b6bd f2f7 73bd 345d fc3d
000000b0: f8b8 10be a8cd 0e3d 90a0 643d 76a0 56bd
000000c0: fe4e 09be 3899 3f3d c820 17bd d072 0abc
000000d0: d448 e7bd 9ac4 053e 0a28 eabd 82e0 0b3e
000000e0: 0a8f d5bd 0cd9 7abd 7ab7 853d 1ae9 13bd
000000f0: b8be 943d a2b7 17bd a0e0 d1bb 1cb4 013e
00000100: fc3d 11bd 9a29 01be 2097 1abd 0073 943c
00000110: d8f6 5b3d 24e5 353d 62a2 03be a0e9 e63b
00000120: 94cc 6a3d b85f 1a3d b8a2 103e 7cd5 f93d
00000130: 84f6 da3d 19fc 84bd 20d0 bfbb 1e2b 5cbd
00000140: a10b 99bd e050 b43d 86cc ebbd 5eb4 bb3d
00000150: e012 ddbb eadc f9bd 9dad 9bbd 98bf 713d
00000160: c4b1 6e3d db2f 05be 1cc8 eabc 6ec5 febd
00000170: c476 473d 617c 86bd bc57 cb3d 28b2 e23d
00000180: dc5e dcbd 6844 0b3e 9a45 0bbd 1875 073d
00000190: bef5 be3d 6caa 143d f0fa 203d a0c0 91bc
000001a0: d547 12be 5c5e 60bd 4e89 9d3d f0a4 da3c
000001b0: 2076 043e 1e49 bebd fc66 d9bd 7487 b53d
000001c0: 22d1 ecbd 060f 863d 6251 8f3d 034b d8bd
000001d0: a222 d83d 1d6a 86bd e6bb a13d 587b 0b3e
000001e0: 5e49 b3bd 4c3f e43d 1a5b d2bd db31 0abe
000001f0: 8809 23bd 8005 87ba 1a64 093e d42d b33d
00000200: 8d35 febd 23ba 9dbd 7458 023d ac77 64bd
00000210: 4c0c 043e bee5 013e 885a d43d 46bf 12be
00000220: 6074 be3d dc5a de3d 68a2 e33c 7c2e dc3d
00000230: a1bb cabd 101d ce3c 36d6 90bd 5ace 34bd
00000240: 80c6 35bc f635 d13d 00dc 4a3c b405 01be
00000250: 96f5 0a3e de3c 2abd 8029 9c3c 080f 51bd
00000260: bcc6 63bd eaa4 c0bd d8a0 01be 105b 08be
00000270: 741f 04bd 96a5 b6bd f425 e53d 6ed9 aabd
00000280: 0056 c9bd 4202 853d 3083 783d 187f cfbd
00000290: f84a 84bd 8061 e7bd a857 893c 209a 343c
000002a0: 4ec5 003e eb2d 80bd cec3 0a3e c8a0 313d
000002b0: ba1c 07bd ebfe f2bd 5479 b63d fcef f4bc
000002c0: b478 e5bc f0d0 18bc 8b62 abbd c0bf 69bc
000002d0: dceb cf3d 004e ffbd 943c 213d 805f 46bb
000002e0: 73fd e6bd 4023 08bb 006a 8c3a cc97 a5bc
000002f0: c2bc b73d a01e c03c 06ba 88bd 06ce 49bd
00000300: 4684 25bd c05f 753c 84dd 863d 0096 47bd
00000310: 209e 46bc 5bbd 9cbd f872 dd3c a623 8c3d
00000320: f878 bc3d 0eae d63d 4463 1f3d 180c 063d
00000330: 405f ffbc d0c1 18bc 6da8 8ebd bdcf 10be
00000340: a265 033e d825 1f3d 1419 5d3d e30b 13be
00000350: 38d9 1e3d c502 d8bd 52fa 07bd b4ff 3fbd
00000360: 0972 08be b600 b2bd 0ada 8f3d dc39 44bd
00000370: 9ae7 c0bd c4f6 90bd 0e5e 113e 1cbe a63d
00000380: 66da 9e3d 9d8b 03be 389d 8abd cf74 92bd
00000390: a88e f13d da8c afbd d612 b5bd 8659 0ebe
000003a0: c01d 8bbd e87e 313d e18f dabd b2d5 0d3e
000003b0: f8d7 7b3d aea0 43bd 60c6 8dbb 6ebd bbbd
000003c0: a2ec 0f3e c0be d5bb 0e9b 15bd 7609 b1bd
000003d0: 3039 803d 909a 5b3c 4414 613d 3816 efbd
000003e0: 8ee8 0dbd c068 163d 8ce6 803d ea10 0f3e
000003f0: 9adc 8dbd adae bebd c01f 5dbb d897 de3d

Linear2.bias f4 [24]
-0.06975361 0.13803267 0.074240595 0.025571257 -0.025593922 -0.024324521 0.023311034 0.08605434
-0.035465635 0.111337215 0.12361351 -0.07055105 0.048788637 0.05380249 -0.13046551 0.083563805
0.009806782 0.01090084 0.07549846 -0.13187093 0.08281441 0.085582 0.1240789 -0.11217612
00000000: fbda 8ebd 7058 0d3e 740b 983d d07a d13c
00000010: 58aa d1bc 3844 c7bc c8f6 be3c 423d b03d
00000020: 6a44 11bd c404 e43d 1429 fd3d 127d 90bd
00000030: 98d6 473d 0060 5c3d c098 05be 8023 ab3d
00000040: a0ac 203c 7099 323c f09e 9a3d 2c09 07be
00000050: 9a9a a93d 9e45 af3d 141d fe3d 98bc e5bd

Linear3.weight f4 [1, 28]
-0.031118006 -0.050102383 -0.02626288 -0.0044104755 0.12434496 -0.094191216 0.027111977 -0.011401758
0.15011908 -0.016492128 -0.13344754 -0.18141744 0.028566763 -0.15746865 -0.18835126 -0.0056613684
0.116421685 0.06812413 0.0043931752 0.05968018 -0.1849557 -0.04879968 0.14264657 0.14382388
-0.032246888 0.14982535 -0.07203112 0.09939499
00000000: 30eb febc 2838 4dbd 4025 d7bc c085 90bb
00000010: 92a8 fe3d 53e7 c0bd f019 de3c 70ce 3abc
00000020: d1b8 193e 801a 87bc 79a6 08be 7ec5 39be
00000030: d804 ea3c 763f 21be 27df 40be 0083 b9bb
00000040: 7e6e ee3d aa84 8b3d a0f4 8f3b 3473 743d
00000050: 0765 3dbe 2ce2 47bd f111 123e 9146 133e
00000060: 5015 04bd d16b 193e 0d85 93bd 9a8f cb3d
