ModelPara/DDPG/Mario_localQ_DDPG2021-10-08T10-41-22.pth (torch, 11935 bytes, 5 tensors)

Linear1.weight f4 [48, 24]
00000000: a833 0c3e e038 1bbd 0899 fc3d 00d0 ec3d
00000010: d3f6 e9bd 9081 933d 703f 973d 8029 89ba
00000020: 0c90 0b3e 5c76 023d 00bb eb3c 6178 c5bd
00000030: 5c12 fd3d d861 00bd c4fc 2abd 2015 143e
00000040: a0ee 883b fc64 e63d 9677 2dbe 344b 29bd
00000050: 906c 11be e49f c73d 2cbc 49bd 5f29 3ebe
00000060: 688e b43d 5024 853d 8a83 073e 8c47 e13d
00000070: ccd7 9c3d c53f 37be 8642 2f3e 3e43 433e
00000080: 9295 4ebe 06db 1abe fcee 8bbd 1468 c4bd
00000090: 0679 94bd e0cc ca3c 9013 3abd ac13 8b3d
000000a0: 54ef 163e d28f 3fbe fcf4 0fbe 10ed ef3c
000000b0: f90a 34be 2be1 bebd 099a eabd a459 6dbd
000000c0: 3459 b33d f879 0fbe 0ed0 89bd 78c8 4f3e
000000d0: e045 3bbe d232 103e 4c32 64bd 9c62 3abd
000000e0: c06a cb3b f8f6 9c3d a4de 5bbd d84b e5bc
000000f0: 8094 6f3d 405a a0bd 9038 ad3d a003 dbbb
00000100: de80 2abe ecb5 3b3e 66c8 cebd 88f4 4c3d
00000110: d8c3 153d 8485 c7bd c0ca cc3d 30f9 363c
00000120: 507f 163d d6b9 4fbe 50e6 2ebe a0a0 eb3d
00000130: 6893 563d 153d 47be cc73 943d 3ff9 05be
00000140: 60c9 e73d 78da bebd 0bd3 4ebe 4b4e 4bbe
00000150: d2a4 c3bd d603 35be 782d e73d 00ac 5b3d
00000160: 64c9 0f3e f490 19be 98ba 1e3e ba90 14be
00000170: a4fa 35bd 20e4 6ebc 2967 4fbe e8c6 e33d
00000180: 6046 a13d 209e af3b e955 a5bd ac61 02bd
00000190: 177a d2bd 44dd 0abe a6ed 35be 50c9 283c
000001a0: 35c5 33be 5c2d 20bd 10b9 e23d a012 63bd
000001b0: c8f8 de3d 04ab e43d 803c ab3d 9016 fdbd
000001c0: 9495 173d 7be7 d5bd 6873 6bbd 3a63 38be
000001d0: f299 3f3e 60f2 cfbb 5c60 013e 3092 213c
000001e0: 50fe 183e 5437 293e ecfd 083e 0c46 e53d
000001f0: be2f 3fbe 70b6 8e3d 4283 4e3e a229 50be
00000200: a290 86bd 74f9 e63d 9861 0bbd 98fb 75bd
00000210: a865 063e 18d4 c5bd 487c bf3d 7867 c83d
00000220: 9054 10bd 10af 07bc 10c8 df3d 002f e9ba
00000230: 6e57 32be 68e2 09bd 287d d43d 8e03 0d3e
00000240: 687c 88bd d099 583c 7e00 303e 10db 023d
00000250: f40d 2d3d e8e7 073e fec9 4ebe 66a1 1d3e
00000260: 7875 64bd d09d 12be a713 abbd 4409 243e
00000270: 1079 563d 9756 f0bd 4c20 cd3d 9cb1 e03d
00000280: 5d29 a3bd c0ce 1f3e 04d1 60bd 404a 0a3d
00000290: 6a04 96bd 40b3 f4bc b821 823c 40ee 193c
000002a0: 4ced 46bd 649b 0b3e 9220 313e e8f4 0a3e
000002b0: 98e3 c13d ca21 49be d0f0 cb3d e8eb 9d3d
000002c0: 9454 30be 6ffa 4ebe ca25 88bd 361b 35be
000002d0: 3c42 103e c65a 063e c0f6 8abb e453 263e
000002e0: d8b0 fd3d a6a1 033e 7806 40be 104c 503c
000002f0: c44f d9bd 5058 b33c 9023 86bc 0c35 b73d
00000300: a044 303d 0019 9d3c 5a3c 503e 2c75 243d
00000310: 8c62 87bd 986b fe3d 48bc f1bd 175f a7bd
00000320: 8149 1dbe 0018 a8ba 1b0a 04be 0062 2b3e
00000330: 80d2 0b3e 405d b93d d88d bf3d 40e9 a83b
00000340: 00c0 fb3d d64b 27be b0c6 1ebd 921e 0a3e
00000350: c032 9abc 64aa 133d 265e 173e 34f1 03be
00000360: 7012 0f3d a20a a2bd 6ce8 a73d b8c1 323d
00000370: 4cda e73d e0b0 233c 92eb 223e 933d 44be
00000380: 803b eebd b018 edbc 7007 9abc e8bc 30bd
00000390: c69e 0b3e 7f8a c1bd ac7a 083e 74eb e83d
000003a0: d997 b0bd e09a 2dbe 7736 06be 9859 363e
000003b0: c27c 1ebe a828 8dbc 1ef5 04be 3455 46be
000003c0: 7cc1 2e3e 0026 b93b a813 7d3d b04f e63d
000003d0: a091 64bc 94f6 0b3e 54e0 003e 80dc 2ebd
000003e0: 3f78 b9bd ee09 023e 5ca9 0b3d d487 7cbd
000003f0: 6aee e9bd 0466 d0bd d7f8 dbbd 748f 973d
0.1369158 -0.037896037 0.12333876 0.1156311 -0.11424031 0.072024465 0.073851466 -0.0010464638
0.13629168 0.031851158 0.028775692 -0.09642101 0.123570174 -0.03134331 -0.041744962 0.14461184
0.004178837 0.1124973 -0.1694015 -0.041331485 -0.1420157 0.097472936 -0.04925172 -0.1857047
0.08816224 0.06501067 0.13233772 0.109999746 0.076583475 -0.1789542 0.1711522 0.1906862
-0.20174244 -0.15122613 -0.06832692 -0.09590164 -0.07249646 0.024755895 -0.045428813 0.067908615
0.14739734 -0.18707207 -0.14058298 0.029287845 -0.1758231 -0.09320291 -0.11455161 -0.057946816
0.087572485 -0.14011371 -0.067291364 0.20291317 -0.18288374 0.14081886 -0.05571203 -0.045504197
0.006207794 0.07664293 -0.053679124 -0.027990267 0.05849123 -0.07829714 0.08458054 -0.0066837817
-0.16650721 0.18331116 -0.10096817 0.05003789 0.036563724 -0.09742263 0.09999609 0.011167809
0.03674251 -0.20285735 -0.17080045 0.11505246 0.05238667 -0.19456895 0.07248649 -0.13083361
0.11317706 -0.09319013 -0.20197694 -0.19854085 -0.09552921 -0.17677245 0.11287969 0.05363083
0.14041668 -0.14996701 0.15500867 -0.14508334 -0.044428483 -0.014580756 -0.20254196 0.11121923
0.07874751 0.005359426 -0.08073027 -0.03183143 -0.10277193 -0.13560969 -0.17766437 0.010301903
-0.17555697 -0.039105758 0.11070454 -0.055437684 0.10887295 0.11165431 0.08361149 -0.12357819
0.037007883 -0.10444542 -0.057483107 -0.18006602 0.18711069 -0.006346032 0.12634414 0.009861514
0.14940763 0.16525012 0.13378114 0.11195001 -0.18670556 0.06968391 0.20167258 -0.20328382
-0.06570555 0.11278048 -0.03402862 -0.06005439 0.13124716 -0.09659594 0.09349877 0.0978536
-0.035236895 -0.008281484 0.10926831 -0.0017790496 -0.17416164 -0.033663183 0.10375434 0.13770887
-0.066643536 0.0132202655 0.17187688 0.031947196 0.042249635 0.13272059 -0.20194241 0.153936
-0.05577609 -0.14318013 -0.08353358 0.1601916 0.052361548 -0.11735266 0.10015926 0.10971376
-0.07966874 0.15606213 -0.054886833 0.033762217 -0.07325061 -0.02987063 0.015885219 0.009395182
-0.048566148 0.13633496 0.17297581 0.13569987 0.09467238 -0.19641796 0.09958041 0.07711011
-0.17219764 -0.2021272 -0.06647833 -0.17686161 0.14087766 0.13120565 -0.0042408407 0.16242939
0.12387246 0.12854633 -0.18752468 0.012713447 -0.10610917 0.021892697 -0.01637438 0.08945665
0.043034196 0.01917696 0.20335522 0.040150806 -0.06610593 0.12422866 -0.1180349 -0.08172434
-0.15360071 -0.0012824535 -0.1289448 0.16736603 0.13654518 0.09050989 0.093532264 0.0051547587
0.122924805 -0.16337523 -0.038763702 0.13488224 -0.018823028 0.03605117 0.14782009 -0.1288498
0.034929693 -0.07912184 0.08198628 0.043641776 0.11320934 0.009990901 0.15910175 -0.19164114
-0.116324425 -0.028942436 -0.018802375 -0.043148905 0.13634786 -0.09450244 0.13328046 0.11373034
-0.08622713 -0.16953611 -0.13106714 0.17807615 -0.15477279 -0.0172313 -0.1298413 -0.1936844
0.17065996 0.005650282 0.061786324 0.11245668 -0.013950735 0.13668281 0.12585574 -0.042690754
-0.09056138 0.126991 0.03409706 -0.061652973 -0.11422427 -0.10175708 -0.10740822 0.074004084

Linear1.bias f4 [48]
00000000: a467 02bd acdd 71bd e8e1 94bd 54ca 17bd
00000010: 5eb4 313e 7227 0ebe 983a 3dbd b04b 92bc
00000020: a416 99bd 8e16 2dbe b45f a13d 148e 7cbd
00000030: ce06 3b3e 70dc 1abd 98bb 583d 46c7 4b3e
00000040: 1c84 893d 1e2a 2c3e 3cbe 3d3e b234 44be
00000050: 9553 4dbe 6495 6cbd 9ec5 093e 6f64 debd
00000060: 1853 df3c c8e5 173d 88e0 4d3d 6a25 393e
00000070: 008c 2bbb 80c0 bbbb 3833 a43d 76a2 87bd
00000080: ddb0 dabd 4286 2abe a87b 14be 585a ca3d
00000090: 7c81 0e3e 64d0 d23d b080 38be db38 14be
000000a0: ee43 28be 906d e53d 082f 4c3d 903f 223c
000000b0: 23e0 d3bd 3460 15be 9f3e 47be 7cd2 02be
-0.03183712 -0.059049293 -0.07269651 -0.03705819 0.17353961 -0.13882235 -0.046198457 -0.017858356
-0.074750215 -0.16903135 0.07879582 -0.061658934 0.18264315 -0.03780788 0.05291328 0.19900236
0.06714651 0.16812941 0.185296 -0.19160727 -0.20051415 -0.057759658 0.13454291 -0.10859
0.027261302 0.03708437 0.050262958 0.18080679 -0.0026175976 -0.005729735 0.08017582 -0.06622784
-0.10678265 -0.16652778 -0.14500296 0.09880513 0.13916582 0.102936536 -0.1801784 -0.14474814
-0.16432163 0.11202538 0.04984954 0.00990285 -0.10345485 -0.1458748 -0.19457482 -0.12775606

Linear2.weight f4 [24, 48]
00000000: c01f 27bc 1ce3 023e cc4c 483d e004 68bc
00000010: a8b2 90bd bcc4 0c3e 44e8 d9bd da3c 90bd
00000020: 9981 febd 54d6 0abe 04e8 ac3d a882 3b3d
00000030: 0044 b239 0879 a23d 30b8 6a3c 1c3f 78bd
00000040: 583d 47bd f8cd a0bc a14c c4bd 44b1 f03d
00000050: 404a d03d 3835 253d 119a 10be ae92 123e
00000060: a0b9 883b b0b1 e63d 7ccd 1a3d a839 0a3e
00000070: 404a 5e3d c410 713d 96f2 cd3d 201c db3c
00000080: b47f 47bd f0e0 eebc 3098 063d dd1e e6bd
00000090: a479 963d b027 82bc 4023 85bd 5eaa 5cbd
000000a0: 921c 06be 66ce d03d 807d 1a3d 6c71 0cbd
000000b0: ac6d d83d 6e00 42bd 8613 093e 066d 24bd
000000c0: b6b0 bdbd 60c3 88bc f5b4 b6bd 4f11 09be
000000d0: 04cd 373d 4bd4 bcbd 690f 84bd ccfc dd3d
000000e0: d876 eb3d ec99 0bbe fcee c6bd 0825 803d
000000f0: 5011 b0bd 2b7a 85bd fa34 9cbd 14e9 5cbd
00000100: 4aa9 cc3d 906a 41bc 8c54 ee3d 208e 4cbc
00000110: 7e7b a9bd 678b d6bd a639 c2bd a080 bf3b
00000120: c032 8f3c e80a 8bbc c04c 883c 6a3d e2bd
00000130: c2f2 c1bd aa34 15bd 5a45 ce3d e0c7 8e3d
00000140: 4166 b1bd 7080 bb3d 5e44 ae3d 2a12 c83d
00000150: 1009 903d 2c7b d0bd 4c68 eb3d 45fd 9cbd
00000160: 3607 04be 6e82 1cbd 0404 12bd 2ced c53d
00000170: c754 c6bd 1632 ae3d 284f 553d 3ad9 c33d
00000180: 36b2 b3bd b8ce 2b3d 705a 2d3c 707d 383d
00000190: 09c8 cdbd def9 2ebd 384c 1d3d 4ab2 013e
000001a0: b851 883c fd3d 90bd f0cf 573d 2ae1 a0bd
000001b0: 2017 e7bd 1c7f 993d 1020 bf3d 2099 f5bc
000001c0: 507b d83d ac88 443d 2975 91bd 1001 393c
000001d0: 3869 0b3e 80e0 a73d b82a fe3c 803a 19bb
000001e0: 5055 6d3d 1486 ffbc da74 cebd 98e9 f1bd
000001f0: 0087 eebb 9be2 b8bd e000 07bd 1e33 063e
00000200: 64c9 7fbd 4442 dcbd e019 943b 83fc e8bd
00000210: 9c13 dc3d e4fa bb3d 583d b83c a03c ab3d
00000220: 7887 203d 7695 8abd b60b d7bd bfbf c2bd
00000230: 2622 01be a692 a83d babd d73d 2cc0 e8bc
00000240: 848a a7bc 0cd4 edbd 3cc2 b23d e278 19bd
00000250: 3c8d f43d 380e f0bd 9681 be3d 4629 d03d
00000260: 8afb 873d 907a 77bc bdb8 f8bd e40d 473d
00000270: 0090 ffbc 68a1 48bd 341f 89bd 7000 e3bc
00000280: 008f c2bb d619 c0bd c073 babb 2c45 a0bc
00000290: ac5a 763d 4036 7a3d 6ccc 063e 000b 71bb
000002a0: 125e d53d 2a4a dcbd 62ea d6bd e08f 97bd
000002b0: 22c7 4dbd 6a71 b3bd 0865 cf3c c6e1 5bbd
000002c0: 9027 943d 94ec 663d 42c1 bfbd a8a7 8abd
000002d0: 989a 423d 16a8 913d 500b 043e b4cf c43d
000002e0: 9a65 b13d 5065 a23d 0092 143a a48c e83d
000002f0: 1c4c c8bd 041e 10bd 3ca0 053e c8d3 f1bc
00000300: a039 5ebc 67c5 0abe 6bc1 abbd c4b8 fd3d
00000310: 0c62 e63d eeaa 5cbd aae1 b83d f19a a9bd
00000320: 206d d83c ba96 8a3d 2c8e 63bd 7d45 0abe
00000330: fc1f 773d 9cc0 0c3e 827b a5bd e4f5 ec3d
00000340: a8d2 a93c 64e6 a5bd cedb c6bd ddb3 febd
00000350: f054 01be ee21 8f3d 287b 813c 88ef be3c
00000360: 2c56 7ebd 6822 e43c 305d 0c3c c8a6 0f3d
00000370: f8a2 ed3d 80fd 953b d005 b53c 90d6 cf3d
00000380: b895 843d 28fe 91bd f80a a13c 108c 5f3c
00000390: 6d2d d1bd 50a3 9fbd 020f bc3d 2060 0cbe
000003a0: 1878 7f3d 502f 0a3e 4bf7 0cbe a4a4 e53d
000003b0: a31e a5bd 20c7 70bc 3e8e 78bd 8047 d93d
000003c0: 00cc 4b3a 31e0 c9bd 2211 12bd 3aab 0abd
000003d0: 04f3 a23d 08cf db3d ac4b 243d 5285 b63d
000003e0: e2f9 d03d 6ae7 a1bd 60e2 f0bd 5afa bf3d
000003f0: deee 01be 0c36 e2bd e5fc c7bd 9c09 ef3d
-0.010200441 0.12781948 0.048901364 -0.014161319 -0.07065326 0.13746923 -0.10640004 -0.070428565
-0.124270625 -0.13558322 0.08442691 0.0457789 0.0003400147 0.07933241 0.01432614 -0.06060706
-0.048642486 -0.019629464 -0.09584928 0.11752561 0.10170412 0.040333956 -0.14121272 0.14313766
0.004172519 0.1126436 0.03779362 0.13498557 0.05427003 0.05885388 0.10056035 0.02674681
-0.04870577 -0.029159993 0.03285998 -0.112363555 0.0734742 -0.015888065 -0.06500864 -0.053873412
-0.13096836 0.101956174 0.037717342 -0.034287855 0.10567793 -0.04736369 0.13386354 -0.040143035
-0.092622206 -0.016694725 -0.089212336 -0.13385509 0.044873253 -0.09220179 -0.06448252 0.10839233
0.11497277 -0.13632935 -0.097135514 0.06257063 -0.08597052 -0.06517442 -0.07627292 -0.053933218
0.09993227 -0.011805192 0.1163722 -0.012485057 -0.082755074 -0.10475808 -0.09483652 0.0058441907
0.017480254 -0.016972974 0.01663816 -0.1104687 -0.094701305 -0.036427177 0.100718215 0.06971717
-0.086620815 0.09155357 0.08509134 0.097690895 0.070329785 -0.10179743 0.114945024 -0.07665495
-0.12893376 -0.038210325 -0.03564836 0.096643776 -0.09684139 0.08505647 0.052077442 0.09562917
-0.087742254 0.04194519 0.010580644 0.0450415 -0.10047919 -0.04271876 0.038402766 0.12665668
0.016640529 -0.07043073 0.05268854 -0.07855447 -0.112837076 0.07494947 0.09332287 -0.029980242
0.10570395 0.047981903 -0.07102425 0.011291757 0.13614357 0.08197117 0.03102623 -0.0023380816
0.05794269 -0.031191863 -0.100808814 -0.118121326 -0.007279277 -0.090275966 -0.03295982 0.13105437
-0.06244792 -0.10754827 0.004519686 -0.11376288 0.10745928 0.09178713 0.022490188 0.08361173
0.039191693 -0.06766789 -0.105002806 -0.09509229 -0.12610683 0.08231096 0.10534234 -0.028411947
-0.020451792 -0.1161271 0.087284535 -0.0374688 0.11941001 -0.11721462 0.0930206 0.10164122
0.06639774 -0.015104905 -0.12144611 0.04859723 -0.031196594 -0.048982054 -0.06695405 -0.02771017
-0.005937457 -0.09379928 -0.005690068 -0.019564234 0.060145065 0.061086893 0.13163918 -0.0036780238
0.10418333 -0.10756333 -0.10493924 -0.07400489 -0.050238736 -0.087618664 0.02531673 -0.05368211
0.072341084 0.056377962 -0.09363033 -0.06770259 0.047510713 0.07112138 0.1289494 0.09609929
0.08661957 0.0792948 0.00056675076 0.1135495 -0.09780142 -0.035184875 0.13049406 -0.02951993
-0.013563544 -0.13551866 -0.08386501 0.12388757 0.1124917 -0.05387395 0.09027417 -0.08281506
0.026419222 0.0676703 -0.055555508 -0.1350307 0.060333237 0.1374535 -0.08080198 0.115703374
0.020730332 -0.08100584 -0.09709893 -0.1243665 -0.12630057 0.069888934 0.015805796 0.023307577
-0.0620939 0.027848437 0.0085671395 0.035071164 0.116033494 0.0045773387 0.022097498 0.101483464
0.06473869 -0.071285546 0.01965855 0.013644233 -0.102137424 -0.07794821 0.0918255 -0.13708544
0.06237039 0.13494611 -0.1376621 0.11213043 -0.08062484 -0.014695913 -0.060682528 0.10609341
0.0007774234 -0.09857214 -0.03566087 -0.0338547 0.07956508 0.107328475 0.04011123 0.089121476
0.10203911 -0.07905467 -0.117619276 0.09373923 -0.12688777 -0.11045465 -0.09765033 0.11671755

Linear2.bias f4 [24]
00000000: ac0e 6dbd 650f aabd c89c 9a3d d07b 05bd
00000010: 0009 843c e0e6 053c 4497 f53d 8061 cabd
00000020: b041 e33d 7283 11be 4c3c 693d 3c9c 36bd
00000030: b810 9a3d 9cbc 903d be39 9a3d 3138 08be
00000040: 710a f4bd 40e5 74bb 6059 b3bd f0d6 59bc
00000050: 2e10 43bd 1856 29bd c228 b03d c72b ecbd
-0.05787532 -0.083037175 0.07549435 -0.03258878 0.016117573 0.008172721 0.11991742 -0.09881878
0.11096513 -0.14210299 0.05694227 -0.04458259 0.0752272 0.070672244 0.07530545 -0.13302685
-0.11916054 -0.003736809 -0.08757281 -0.013295874 -0.047622852 -0.04134187 0.08601524 -0.11531787

Linear3.weight f4 [1, 28]
00000000: c130 1ebe e872 103d 40b9 7abc f080 143d
00000010: ee04 e63d 8419 07bd 7067 fabc 70a4 aabd
00000020: c123 373e 8d90 e4bd a7cf 133e aed7 ad3d
00000030: f6a0 04be b2df cdbd a2b3 f13d 9dab 34be
00000040: a7f8 2b3e e7c1 403e 6879 443d 48f0 743d
00000050: 900f 5fbc 4616 a7bd 926e 1ebe b1c6 b1bd
00000060: 5b2b 93bd 34f9 0b3d 2ca3 603d ddc2 2fbe
-0.15448286 0.035265833 -0.015302956 0.036255777 0.11231409 -0.032983318 -0.030566901 -0.08332145
0.17884733 -0.111603834 0.14434682 0.08488403 -0.12952027 -0.10052432 0.1180184 -0.1764359
0.16794072 0.18823968 0.047967345 0.059799463 -0.01361455 -0.08158545 -0.15471867 -0.086804755
-0.07186004 0.034173205 0.054843113 -0.17164178
