ModelPara/DDPG/Mario_localQ_DDPG2021-10-08T14-20-28.pth (torch, 11935 bytes, 5 tensors)

Linear1.weight f4 [48, 24]
-0.48858076 -0.79545677 -0.053614475 -0.82490885 0.46983272 -0.5309518 0.10777818 -0.15042973
-0.25308642 0.47932485 -0.33050203 0.3219534 0.5277322 0.00049585407 0.25722712 0.110063836
0.19883855 0.3724271 0.13116106 0.082990415 0.23787174 0.35948485 0.0018648023 -0.12287472
-0.1261887 2.385935 -1.6913795 -1.8001926 -0.14716272 -0.027615588 -0.13824674 -0.1263298
-0.1482332 0.12026665 -0.13500382 -0.2248723 -0.14470012 -0.021621311 -0.10348905 -0.069460325
-0.0012480741 -0.1126227 -0.16761614 -0.015903164 0.0048805354 0.15165314 -0.1143307 0.02783106
0.57885975 1.3865575 -1.1138264 -0.843929 0.48267305 0.18460883 0.31771594 0.0017578283
-0.07591999 0.5731721 -0.025437323 -0.07950052 -0.09688413 0.034308795 0.034997474 0.1413073
-0.22513205 -0.1358603 -0.17279322 0.10830597 -0.06392449 -0.05492759 -0.39382133 0.011657035
-1.0638453 0.8333443 -0.407444 -2.3623695 0.17463633 0.14976954 -0.27473482 -0.36973792
-0.03140025 0.22442575 -0.16506891 -0.06954739 -0.646758 0.06417296 -0.2869061 -0.23550007
-0.3231028 -0.16175628 0.022502642 0.00025872752 -0.17096469 -0.25133574 -0.018173482 -0.40604556
-0.6880722 -2.807375 1.0121046 -0.72514313 0.04890279 0.083754815 0.030503677 -0.033518415
0.03493847 -0.58697677 -0.08688584 -0.10040086 -0.066923946 0.031729788 0.11948729 -0.18497461
-0.04793601 -0.09005385 0.04166214 0.1024389 -0.0031300283 0.064937435 -0.051267967 -0.1250252
0.32573318 1.9171524 0.32465404 0.02949065 -0.02403398 0.12142911 -0.70027596 -0.24910717
0.10108582 0.10787456 0.28254938 0.30435812 1.5985663 0.06105806 -0.03672241 -0.030532066
-0.009431317 0.18306264 0.023299124 -0.17882457 0.19586666 0.021139486 -0.1271969 -0.08291179
0.15085876 -0.14494449 -0.00816589 -0.16511025 -0.037080646 0.05946184 0.064293735 -0.1044077
-0.19365047 -0.06491213 0.0071526803 0.103658915 0.028375842 0.071309954 -0.078161515 0.015540203
-0.038831532 -0.0101934755 0.06342872 -0.07380589 -0.16382577 -0.065388225 0.1747975 -0.1445943
-0.16540758 0.6582921 0.57149637 -1.3856598 -0.18287216 -0.1884619 -0.08931036 -0.054198723
-0.08476002 0.32618627 -0.04003289 0.14758956 0.20805801 -0.08957583 0.19184068 0.014989432
0.05375692 0.045074373 0.1859442 0.009264923 0.046528865 0.03359164 -0.17575267 0.18898238
-0.8056144 -2.8624234 0.48143262 -0.41119626 -0.19036816 -0.1449499 -0.21796319 -0.22614363
-0.14902905 -0.27841046 -0.077876955 -0.25977555 -0.15911938 0.11775959 0.14427373 0.22172217
-0.018973831 0.16676272 0.014809111 0.28926453 0.16922426 -0.04005757 0.09584053 -0.18867709
0.5971595 -1.2935002 -0.104864046 -0.7259543 0.15107086 -0.42427695 0.23176411 0.8021703
-0.058895692 0.13898122 0.027232917 0.10434161 0.14787786 -0.498006 0.075204715 0.09526835
0.02409454 -0.06787764 -0.08734626 0.26722115 -0.09145568 0.26537937 0.067016274 -0.13700359
0.790505 2.128753 -1.1950984 -1.3071246 -0.2080029 0.19175772 -0.20774199 0.15479788
0.024046466 0.60790896 0.12515852 0.037576754 -0.09419812 -0.023305193 -0.06897519 -0.12292378
00000000: 4227 fabe 0ea3 4bbf da9a 5bbd 3a2d 53bf
00000010: ea8d f03e 75ec 07bf ceba dc3d 400a 1abe
00000020: 8b94 81be 116a f53e 9037 a9be 13d7 a43e
00000030: 7519 073f 34fc 013a 46b3 833e 2669 e13d
00000040: 559c 4b3e c4ae be3e 164f 063e e1f6 a93d
00000050: a694 733e 660e b83e 626c f43a bea5 fbbd
00000060: 9c37 01be 29b3 1840 207f d8bf b66c e6bf
00000070: d3b1 16be 163a e2bc 8e90 0dbe 995c 01be
00000080: 72ca 17be 5d4e f63d 713e 0abe ed44 66be
00000090: 452c 14be 2d1f b1bc 11f2 d3bd 3741 8ebd
000000a0: 6b96 a3ba bba6 e6bd 91a3 2bbe 5a47 82bc
000000b0: e6ec 9f3b f64a 1b3e 3726 eabd f7fd e33c
000000c0: 2730 143f b77a b13f dd91 8ebf bb0b 58bf
000000d0: ec20 f73e 190a 3d3e aaab a23e ee66 e63a
000000e0: f17b 9bbd 68bb 123f ef61 d0bc 2bd1 a2bd
000000f0: 306b c6bd 6187 0c3d 8359 0f3d dcb2 103e
00000100: 0489 66be f61e 0bbe b5f0 30be 85cf dd3d
00000110: d8ea 82bd c1fb 60bd f3a2 c9be 26fd 3e3c
00000120: 152c 88bf 0d56 553f 809c d0be 1031 17c0
00000130: ded3 323e 305d 193e 0baa 8cbe 4a4e bdbe
00000140: 8c9d 00bd ddcf 653e d307 29be dd6e 8ebd
00000150: ef91 25bf 1d6d 833d 5be5 92be ee26 71be
00000160: bb6d a5be 70a3 25be 7657 b83c d2a5 8739
00000170: 5e11 2fbe 14af 80be 8ee0 94bc 34e5 cfbe
00000180: 8025 30bf 08ac 33c0 a58c 813f fba2 39bf
00000190: 4b4e 483d a587 ab3d d9e2 f93c 9b4a 09bd
000001a0: a41b 0f3d 1c44 16bf 34f1 b1bd f79e cdbd
000001b0: 6c0f 89bd 18f7 013d c1b5 f43d fc69 3dbe
000001c0: 8d58 44bd 276e b8bd eca5 2a3d 7ccb d13d
000001d0: 2921 4dbb ebfd 843d 5cfe 51bd 9b06 00be
000001e0: 80c6 a63e 4065 f53f 0e39 a63e 6096 f13c
000001f0: e9e2 c4bc d3af f83d 4945 33bf f315 7fbe
00000200: 1506 cf3d 56ed dc3d 50aa 903e d4d4 9b3e
00000210: d29d cc3f 0418 7a3d 3d6a 16bd 621e fabc
00000220: d085 1abc c674 3b3e cedd be3c ca1d 37be
00000230: 4591 483e b72c ad3c e73f 02be a8cd a9bd
00000240: b87a 1a3e 546c 14be 3aca 05bc a912 29be
00000250: e0e1 17bd 428e 733d 6fac 833d b4d3 d5bd
00000260: 4f4c 46be a7f0 84bd 0861 ea3b 204b d43d
00000270: 7474 e83c f40a 923d 2513 a0bd 569c 7e3c
00000280: d00d 1fbd 8902 27bc ebe6 813d 8b27 97bd
00000290: f1c1 27be 43ea 85bd 1efe 323e 8710 14be
000002a0: 9b60 29be d585 283f 964d 123f 4d5d b1bf
000002b0: d742 3bbe 28fc 40be 5ae8 b6bd 7bff 5dbd
000002c0: a996 adbd e301 a73e 87f9 23bd b821 173e
000002d0: 290d 553e 8873 b7bd e271 443e 3c96 753c
000002e0: 3730 5c3d e89f 383d 2868 3e3e e7cb 173c
000002f0: 0d95 3e3d 6397 093d 82f8 33be 9984 413e
00000300: bf3c 4ebf f231 37c0 567e f63e 5188 d2be
00000310: dfef 42be bf6d 14be be31 5fbe 3292 67be
00000320: 129b 18be d18b 8ebe f47d 9fbd 4d01 85be
00000330: 31f0 22be f12b f13d 7ebc 133e 230b 633e
00000340: 026f 9bbc d9c3 2a3e eaa1 723c 7b1a 943e
00000350: 2049 2d3e 6813 24bd 0a48 c43d 9134 41be
00000360: 72df 183f 6a91 a5bf f6c2 d6bd 24d8 39bf
00000370: 52b2 1a3e d43a d9be 9253 6d3e 085b 4d3f
00000380: 9c3c 71bd 1851 0e3e 9117 df3c 0eb1 d53d
00000390: 4b6d 173e a4fa febe ee04 9a3d 0d1c c33d
000003a0: ea61 c53c 6f03 8bbd 99e2 b2bd 36d1 883e
000003b0: 1e4d bbbd cedf 873e d43f 893d ab4a 0cbe
000003c0: 895e 4a3f 7d3d 0840 fcf8 98bf dc4f a7bf
000003d0: b6fe 54be 235c 443e 51ba 54be 5683 1e3e
000003e0: 18fd c43c ec9f 1b3f 8e29 003e 15ea 193d
000003f0: f2ea c0bd 88ea bebc dd42 8dbd 76bf fbbd

Linear1.bias f4 [48]
0.106115386 0.06256167 -0.23627643 0.19739418 0.08964884 -0.47832435 -0.16755255 0.1529614
0.27025923 0.07589188 -0.054087758 0.1784256 -0.035639796 -0.44708493 -0.33744034 0.13686672
0.19529894 -0.12791209 -0.011254926 -0.12632398 0.1762956 0.19918932 -0.13218486 0.09469458
0.4068027 -0.37439176 0.021662898 0.064100415 0.45163047 -0.26273853 -0.18404761 0.124096744
0.056004208 -0.01935725 -0.05769823 0.7253278 -0.25232375 0.45447782 0.19546786 -0.046076026
-0.10815847 0.2898599 0.28624722 0.16529697 0.18164349 -0.3649538 0.2827186 0.38142362
00000000: 0653 d93d 5520 803d 73f2 71be b321 4a3e
00000010: d099 b73d eee6 f4be e592 2bbe eaa1 1c3e
00000020: 6b5f 8a3e 346d 9b3d 208b 5dbd 33b5 363e
00000030: 09fb 11bd 51e8 e4be fbc4 acbe ca26 0c3e
00000040: 72fc 473e 63fb 02be 9566 38bc 135b 01be
00000050: d586 343e 49f8 4b3e 785b 07be 3bef c13d
00000060: 7248 d03e 47b0 bfbe 6476 b13c 1447 833d
00000070: 1c3c e73e aa85 86be fa76 3cbe 6f26 fe3d
00000080: ab64 653d 1893 9ebc fb54 6cbd 15af 393f
00000090: 9430 81be 51b1 e83e ba28 483e 37ba 3cbd
000000a0: 3082 ddbd 8468 943e ff8e 923e 9c43 293e
000000b0: c000 3a3e 39db babe 7ec0 903e f549 c33e

Linear2.weight f4 [24, 48]
-0.0733462 0.01874484 -0.029032612 0.070561916 0.06468936 0.049566712 -0.013948012 -0.10414842
-0.038285777 0.00018912488 -0.021860864 -0.05906919 -0.06914853 -0.030203845 0.117517754 -0.056389958
-0.0070142397 -0.06690888 -0.09201811 -0.12914626 -0.09818496 -0.12964843 0.09554 -0.0075945
-0.09245993 -0.09615319 -0.065956704 0.035180002 -0.007106301 -0.023842718 -0.08759098 0.049152456
-0.00046050598 0.056096405 0.020220615 -0.06514533 0.089368686 -0.07191345 -0.032634877 -0.027580122
-0.056890637 -0.13898252 -0.07244095 -0.06324991 0.088256314 -0.107385695 -0.04926496 -0.08746655
0.41351083 0.746934 0.41468525 -1.5321131 0.8339356 0.22792172 -0.112344064 0.30172202
1.0886946 0.28161657 0.9126775 -0.08696878 -1.0773472 -0.9738635 0.35200766 -0.88348
0.86023575 -0.1448038 0.4633331 0.0360588 -0.030582514 0.40979314 0.008442255 0.43610784
0.10309058 0.26013583 0.8280986 0.29855666 0.8143474 0.42418918 0.7249994 0.15402438
0.0457533 0.43736532 0.4606666 0.16781451 0.78435344 0.86766005 -0.5576222 -0.82166386
0.15249357 -1.5123085 -0.433963 0.74883646 0.41445783 0.35588232 0.9379857 0.26624802
0.32082906 0.6796129 0.4246354 -1.4065306 0.8066105 0.3371733 -0.12878565 0.39120418
1.0416039 0.1642164 0.70536256 -0.07887256 -1.1851488 -1.1670256 0.5059472 -0.8674674
0.8099095 -0.22629842 0.3830639 -0.1290807 0.04434727 0.45195407 -0.034147248 0.48188362
0.1990078 0.17496313 0.6685694 0.1484981 0.5593892 0.4010976 0.4899246 0.3378221
-0.056446955 0.47668004 0.250417 0.015107818 0.7254525 0.7797526 -0.42004192 -0.7379905
0.1829965 -1.4538178 -0.2930599 0.7474521 0.21163376 0.46766245 0.99001986 0.39298627
0.38811758 0.56419945 0.51814455 -1.6063055 0.69335926 0.30051693 -0.034493055 0.35919592
1.0736825 0.14360718 0.9743019 -0.10425759 -1.2214324 -1.0296713 0.33286572 -0.84598434
0.90110606 -0.08097158 0.60407275 0.09256573 0.024154173 0.5953646 0.14883478 0.5059167
0.22730325 0.23114191 0.62611735 0.2458027 0.7502956 0.51943433 0.63413376 0.30859894
0.03130207 0.4004413 0.36199856 0.20608076 0.7842157 0.7924339 -0.47803468 -0.80261886
0.23189992 -1.4964799 -0.27423358 0.85055083 0.40593255 0.4672956 0.8473982 0.5625932
0.45308176 0.37266198 0.41285947 -1.637228 0.82781917 0.46914777 0.0285215 0.42363316
0.7531329 0.2511261 0.85549754 -0.13824254 -1.3556951 -1.0498414 0.557593 -0.94086766
0.6400773 -0.20933735 0.4848589 0.06634636 -0.21249643 0.5050954 0.06020278 0.4296554
0.15366584 0.23335306 0.59614474 0.24352589 0.63989896 0.5603997 0.5833074 0.24068992
-0.16157177 0.41326606 0.51248264 0.16088842 0.58190155 0.8930243 -0.7964845 -0.7313277
0.16872291 -1.4641603 -0.74657947 0.6549458 0.31613818 0.45039716 0.99497 0.25487006
0.89702106 2.14565 -0.7388962 -0.48755094 0.9680689 -0.42154154 0.097273014 -0.29049572
1.0525916 -0.12779506 -1.937724 -0.11412511 -0.588848 -0.18311164 -3.1467395 -1.6270611
00000000: 8836 96bd c78e 993c cdd5 edbc c482 903d
00000010: db7b 843d 7706 4b3d 3486 64bc c44b d5bd
00000020: 8cd1 1cbd d34f 4639 8e15 b3bc 89f2 71bd
00000030: bf9d 8dbd 0e6e f7bc 26ad f03d 28f9 66bd
00000040: b5d7 e5bb 8607 89bd fe73 bcbd eb3e 04be
00000050: 3215 c9bd 8fc2 04be 7aaa c33d 49db f8bb
00000060: a25b bdbd f7eb c4bd 4f14 87bd e818 103d
00000070: f9db e8bb ce51 c3bc e662 b3bd 1654 493d
00000080: 1170 f1b9 58c5 653d b4a5 a53c ea6a 85bd
00000090: ee06 b73d 5c47 93bd 26ac 05bd b5ef e1bc
000000a0: 2806 69bd 6f51 0ebe ec5b 94bd 2b89 81bd
000000b0: babf b43d 08ed dbbd 0eca 49bd aa21 b3bd
000000c0: b1b7 d33e 1137 3f3f a051 d43e 481c c4bf
000000d0: ce7c 553f 5064 693e a514 e6bd 4f7b 9a3e
000000e0: 585a 8b3f 0c30 903e 3ca5 693f b01c b2bd
000000f0: 83e6 89bf 1e4f 79bf 593a b43e bf2b 62bf
00000100: 6938 5c3f 7347 14be ff39 ed3e 64b2 133d
00000110: 2e88 fabc 68d0 d13e 6251 0a3c 8749 df3e
00000120: 2721 d33d 8630 853e 45fe 533f 6bdc 983e
00000130: 1279 503f 532f d93e 9099 393f 91b8 1d3e
00000140: d067 3b3d 59ee df3e 7edc eb3e 91d7 2b3e
00000150: 63cb 483f f81e 5e3f 54c0 0ebf 9058 52bf
00000160: 4627 1c3e 5393 c1bf 6630 debe bfb3 3f3f
00000170: d133 d43e 3536 b63e d51f 703f a951 883e
00000180: b543 a43e 1cfb 2d3f d069 d93e 3209 b4bf
00000190: 077e 4e3f fba1 ac3e 63e0 03be ea4b c83e
000001a0: 4753 853f 5828 283e a492 343f f087 a1bd
000001b0: f5b2 97bf 1861 95bf c185 013f 5812 5ebf
000001c0: 3b56 4f3f c6ba 67be f420 c43e bb2d 04be
000001d0: 7ca5 353d 8666 e73e fcdd 0bbd 73b9 f63e
000001e0: b3c8 4b3e 8929 333e 5d27 2b3f e30f 183e
000001f0: 2134 0f3f aa5c cd3e 66d7 fa3e 05f7 ac3e
00000200: ec34 67bd 680f f43e a836 803e c886 773c
00000210: 41b7 393f de9d 473f bc0f d7be f2ec 3cbf
00000220: 6f63 3b3e b416 babf f20b 96be 0559 3f3f
00000230: 85b6 583e 7471 ef3e f171 7d3f 7f35 c93e
00000240: 59b7 c63e 606f 103f 1fa5 043f 6b9b cdbf
00000250: fe7f 313f 5bdd 993e 9748 0dbd 87e8 b73e
00000260: 6e6e 893f c30d 133e d96b 793f 0185 d5bd
00000270: e657 9cbf 45cc 83bf 606d aa3e 6e92 58bf
00000280: e3ae 663f 6ed4 a5bd 83a4 1a3f 1a93 bd3d
00000290: f9de c53c d069 183f 2568 183e c283 013f
000002a0: 2fc2 683e 77b0 6c3e 3a49 203f b4b3 7b3e
000002b0: 5f13 403f a6f9 043f 9756 223f ae00 9e3e
000002c0: 9936 003d a406 cd3e e057 b93e d606 533e
000002d0: 5cc2 483f f3dc 4a3f f6c0 f4be 6e78 4dbf
000002e0: 2c77 6d3e a78c bfbf 5868 8cbe b3bd 593f
000002f0: 64d6 cf3e 5e41 ef3e 17ef 583f 1c06 103f
00000300: 55fa e73e 8dcd be3e 5162 d33e b090 d1bf
00000310: f5eb 533f 2334 f03e eca5 e93c 72e6 d83e
00000320: 51cd 403f 9a93 803e e301 5b3f 748f 0dbe
00000330: 6b87 adbf 3461 86bf 6abe 0e3f b4dc 70bf
00000340: 1bdc 233f 885c 56be 6d3f f83e 9ae0 873d
00000350: aa98 59be ef4d 013f 3197 763d cbfb db3e
00000360: 945a 1d3e 1bf4 6e3e f19c 183f da5e 793e
00000370: 6bd0 233f 5b76 0f3f a253 153f 6b77 763e
00000380: 1273 25be 9c97 d33e 1032 033f efbf 243e
00000390: 80f7 143f 3e9d 643f 68e6 4bbf 4b38 3bbf
000003a0: b3c5 2c3e 9b69 bbbf d51f 3fbf 87aa 273f
000003b0: dddc a13e 759a e63e 5bb6 7e3f 547e 823e
000003c0: 2ca3 653f 5452 0940 4d28 3dbf 47a0 f9be
000003d0: 5dd3 773f 4bd4 d7be 1337 c73d dbbb 94be
000003e0: 52bb 863f b5dc 02be 5707 f8bf 6dba e9bd
000003f0: bebe 16bf 9e81 3bbe 2e64 49c0 8a43 d0bf

Linear2.bias f4 [24]
0.09810897 0.18362248 0.17137924 0.022126742 -0.18898106 0.26459694 0.13802743 0.029411187
-0.12364394 0.037777513 -0.12653212 -0.11795935 0.1545867 -0.02201496 0.27236012 -0.085366294
-0.10076361 0.1886742 0.18488175 0.29640278 0.25244364 0.060259182 -0.06347833 -0.0062123844
00000000: 5bed c83d 8807 3c3e 0a7e 2f3e 2443 b53c
00000010: 4084 41be 4079 873e 1057 0d3e bbef f03c
00000020: 0939 fdbd 98bc 1a3d a391 01be ac94 f1bd
00000030: fa4b 1e3e b858 b4bc c972 8b3e 86d4 aebd
00000040: 275d cebd cf33 413e a451 3d3e 1bc2 973e
00000050: 4b40 813e 55d2 763d ed00 82bd 4291 cbbb

Linear3.weight f4 [1, 28]
0.08724676 -1.0362899 -0.8786123 -0.8634494 -1.0226419 -1.9832618 -0.86483383 -1.5404521
-1.2821051 3.6885672 -1.3694682 -1.1715579 2.2271066 -1.1681169 2.3755558 -1.037559
-0.074258894 2.2626781 3.1400523 2.6378431 1.4939064 -1.1742916 -1.2233213 -1.1277114
-0.18490578 -0.53108716 -0.04686193 0.005417746
00000000: 6eae b23d 26a5 84bf bcec 60bf 050b 5dbf
00000010: eee5 82bf 86db fdbf c065 5dbf 892d c5bf
00000020: 051c a4bf 7c11 6c40 bc4a afbf 9cf5 95bf
00000030: ea88 0e40 db84 95bf 1b09 1840 bcce 84bf
00000040: 0c15 98bd b8cf 1040 9ef6 4840 6cd2 2840
00000050: 5338 bf3f 304f 96bf cb95 9cbf d958 90bf
00000060: f157 3dbe 54f5 07bf 4cf2 3fbd 5987 b13b
