ModelPara/DDPG/Mario_localPi_DDPG2021-10-08T10-47-31.pth (torch, 17567 bytes, 6 tensors)

Linear1.weight f4 [48, 24]
00000000: 3a83 133e b83a f73d 5879 c73d 67c5 43be
00000010: b068 0cbe 524b 0bbe 4c91 22be b4f4 863d
00000020: 2c8a 3cbd a0bf a73c ebb2 b5bd 36f1 013e
00000030: 3447 f53d 3004 8b3c acde 253d b935 1bbe
00000040: 1631 31be 90a9 32bd 5015 d23d 7cce 83bd
00000050: ee96 403e 6367 43be 7ec1 a2bd 280a b43d
00000060: dcd4 233e 02b0 23be 34be 2a3e 248e c93d
00000070: b2eb 403e a0e9 32be 9048 093e 0c5e 0fbe
00000080: 18ca 0d3d 1501 40be c8e0 133d 463c 1a3e
00000090: c026 243e c9eb d8bd 92ef 3d3e 40f4 323e
000000a0: 2042 f53b 2446 0e3e 92b7 393e a26e 1f3e
000000b0: 3498 4fbe dbd9 31be a472 25bd c7cf b5bd
000000c0: a324 c5bd f4ae bebd 9c47 dc3d 4265 93bd
000000d0: bae4 2f3e 30a3 1b3c 1cff 8e3d 201d da3d
000000e0: 6023 3a3c 900f 643c 804a 9c3d f4db 72bd
000000f0: 08d9 52bd 76ba 9cbd 2858 91bd 8065 2f3d
00000100: 6469 00be e4fc 133e 945e 173e be0a c8bd
00000110: 3cbd 2d3e ba33 3fbe 305b 3d3d 10e4 33bd
00000120: a444 2c3e bcbd b13d 400c 25be 5f87 4ebe
00000130: 681f f6bc 692d 45be ee99 413e d066 4a3d
00000140: fc3e 8b3d 7c6f bc3d 64a2 2cbd b0db 393d
00000150: e64c 3e3e 0213 80bd 3884 f9bc e810 1cbe
00000160: 6056 9e3d a002 5ebd 9608 93bd d818 e5bc
00000170: b8ac c7bd 14df 77bd 6bfd 45be 6530 c7bd
00000180: 2067 043e e815 483d 5443 2f3e 30a7 72bd
00000190: c859 743d 24a9 4f3e e0de 983b f8da 1c3d
000001a0: d21b 9dbd aa35 4b3e 80a0 2abb 5a75 213e
000001b0: 7bd2 a8bd 1e53 183e 701a c6bc 3804 9a3c
000001c0: fcab 1c3e 3c6a e33d 8484 bfbd 40a4 44bb
000001d0: f414 293d 8063 a4bc 78c3 333e 6878 163e
000001e0: 5c02 c73d 42af 1d3e e6d7 13be 389e 443e
000001f0: b0d9 3bbd ea29 373e 5083 d23d 3098 2bbd
00000200: 3883 4cbe 20a3 983b 5065 0b3d b8d5 1e3e
00000210: 6c9e 443e 8657 183e 8cbd 8dbd 68bb 343e
00000220: 641b adbd 7c64 09be 3457 443e 0c33 893d
00000230: 94f0 52bd 1060 ed3c 509b a33c 78cc 233e
00000240: 000f 72ba 30f3 26be aae1 253e bcf6 8f3d
00000250: 30dd bbbc f8d2 debc 4487 2b3d ba79 143e
00000260: 60e8 4ebe c055 173d e113 acbd 0042 04bd
00000270: b80f de3c 3954 c5bd a2b1 cbbd 78f5 be3d
00000280: 6c1f a73d 6444 63bd fee2 b4bd 5a67 12be
00000290: 2cfb b53d 16c8 00be ac95 65bd 162c 0c3e
000002a0: ecb8 483e 4809 c43d 2884 083e b82d b33c
000002b0: 944b 06be 7210 3d3e b6d2 16be 3225 87bd
000002c0: c024 24be c169 12be b8b0 5cbd 24ff 56bd
000002d0: aee9 4d3e 78e6 d33d 90cb 66bd f884 d3bc
000002e0: f806 24bd 4fa6 a5bd d05f 2c3e 4402 fa3d
000002f0: 9eec 3a3e 7073 76bd e805 393d 52d0 84bd
00000300: 6c1e 1f3e 119d e6bd bce2 87bd a691 3a3e
00000310: 226c 45be a8d5 983d 6904 ddbd 80c4 613b
00000320: 1c15 1d3e a81f 9e3c c6c6 a1bd a477 ff3d
00000330: 00d7 c93d 14b0 b63d 6ef9 46be b8b8 113e
00000340: 1a15 d2bd 95de 03be 5e48 40be c013 eebb
00000350: a0df 87bb 7843 a43c d460 8ebd 8cec e93d
00000360: 8066 dfbc 8e84 113e 1cdd c53d 6866 96bd
00000370: 04a1 cb3d b8fd 983c 9805 94bc b298 4d3e
00000380: e877 963d e079 363e ccd6 e83d c47f 19bd
00000390: 8c6c 483e cc43 08bd 5a07 9ebd c75f ccbd
000003a0: 409d 7ebb 9b02 4cbe 08ba f83c cca7 e83d
000003b0: 4275 133e 024f 2d3e 44d3 293e 8025 fe3a
000003c0: 6971 a2bd 3a82 3e3e bc27 1a3e 0cab c8bd
000003d0: 80f1 533d 9329 35be a213 0dbe c86e bd3d
000003e0: 0028 1d3e 80c4 483b 1609 0bbe 7c25 c13d
000003f0: d01e 8d3c 329b 013e 0077 a33d 54c7 08be
0.14405528 0.120717466 0.09739941 -0.19118272 -0.1371181 -0.13602951 -0.15875739 0.06589642
-0.04603021 0.020477116 -0.088720165 0.12689671 0.119764715 0.01696977 0.04049556 -0.15157212
-0.17303881 -0.04361874 0.10257971 -0.06435868 0.18807575 -0.19082408 -0.07947062 0.08791
0.15999168 -0.1598511 0.16674119 0.09841564 0.1883991 -0.17471933 0.13406587 -0.1400072
0.03461656 -0.18750413 0.03610304 0.15062055 0.16030407 -0.105918474 0.1854842 0.17475986
0.0074846894 0.13893944 0.18136433 0.15569547 -0.20272905 -0.17368262 -0.040392533 -0.08877521
-0.096261285 -0.093107134 0.10755846 -0.07197048 0.17177096 0.009499356 0.06982252 0.106500864
0.011360973 0.013919726 0.07631397 -0.059291795 -0.05147651 -0.07652752 -0.070968926 0.042821407
-0.12540203 0.14451939 0.14782172 -0.09767674 0.16966718 -0.18672076 0.04622954 -0.04391867
0.1682306 0.08678767 -0.16117954 -0.20168827 -0.030044273 -0.19255604 0.18906376 0.049414456
0.06799123 0.092009515 -0.042147055 0.045375526 0.18584022 -0.062536255 -0.030458555 -0.15240824
0.077313185 -0.054201722 -0.07179372 -0.027965948 -0.0974974 -0.06051548 -0.19334953 -0.097260274
0.12929964 0.048849016 0.17115527 -0.059241474 0.059655935 0.20279366 0.0046652406 0.038294762
-0.07671322 0.1984469 -0.0026035607 0.15767422 -0.08243271 0.14875457 -0.024182528 0.01880084
0.15299982 0.11104247 -0.09351447 -0.0030005127 0.041279748 -0.020066977 0.17555034 0.14694369
0.09717247 0.15398887 -0.14437827 0.1920098 -0.0458619 0.17887083 0.10278952 -0.041893184
-0.19971931 0.004658118 0.034032166 0.15511215 0.19201058 0.14877138 -0.06920919 0.17649615
-0.0845249 -0.13417238 0.1917389 0.066991895 -0.051498964 0.02897647 0.01997152 0.15995967
-0.00092338026 -0.16303706 0.16199365 0.07029483 -0.022932619 -0.027200207 0.041877046 0.1449956
-0.20205832 0.036947012 -0.08402229 -0.032289505 0.027107105 -0.09635205 -0.0994599 0.09324163
0.0816029 -0.055485144 -0.08832358 -0.14297238 0.08885798 -0.12576327 -0.05605094 0.13688692
0.19601792 0.09572083 0.13331664 0.021872386 -0.13114768 0.18463305 -0.14728817 -0.06598891
-0.16029644 -0.14298154 -0.05387947 -0.052489415 0.20108673 0.10346693 -0.056346476 -0.02582024
-0.04004571 -0.080883615 0.16833425 0.122074634 0.18254325 -0.060168684 0.04517165 -0.064850464
0.15538949 -0.11260427 -0.06635043 0.18219623 -0.1927953 0.07462627 -0.10791857 0.0034449399
0.15340084 0.019302204 -0.07899241 0.124739915 0.09855461 0.08920303 -0.19431087 0.14230621
-0.10257931 -0.12877877 -0.18777606 -0.007265538 -0.004146531 0.020051703 -0.06952062 0.11422071
-0.027270555 0.14210722 0.09661314 -0.07343751 0.09942821 0.01867567 -0.018069074 0.2007778
0.07347089 0.17819929 0.11369094 -0.037475362 0.19572657 -0.03326778 -0.07716246 -0.099792056
-0.0038851053 -0.19922869 0.030362144 0.1136013 0.14400199 0.1692467 0.16584498 0.0019389838
-0.079317875 0.18604365 0.1505422 -0.097982496 0.051743984 -0.1769164 -0.1377702 0.092496455
0.1534729 0.0030634701 -0.13577685 0.09430978 0.017226607 0.12656859 0.07981682 -0.13357288

Linear1.bias f4 [48]
00000000: 22b6 08be 4301 35be aa28 343e 5028 343c
00000010: dc47 043d 3eb4 36be bad9 27be b036 183d
00000020: 0876 33be 4084 133e aa82 40be 7030 8a3c
00000030: 3489 213d 00d7 973d 00a0 ecbd 7343 29be
00000040: 8012 95bb 70f2 f7bc c21e 8abd 763a 4b3e
00000050: a429 3c3e 3479 2d3e a0c8 94bd 24a2 44bd
00000060: 962f 183e b0b9 55bd 988b 2dbd cdbd d1bd
00000070: 00f8 653d 48b1 753d f4b5 c83d 124a 003e
00000080: 9ae7 3b3e 84f7 3cbd e200 d1bd 287b 02be
00000090: d872 e93d 5885 d5bc 40f0 2dbe c4e6 2a3d
000000a0: 0c8f 353d a030 adbb 5880 a2bc be7c 11be
000000b0: ec48 133d 1e73 22be 40b9 63bd c84c 0ebd
-0.13350728 -0.17676263 0.17593637 0.010995939 0.032295093 -0.17842194 -0.1639165 0.03716153
-0.17525494 0.14405918 -0.18799844 0.0168688 0.039437488 0.07414055 -0.11553955 -0.16529636
-0.0045493245 -0.03026697 -0.06744148 0.1984652 0.1837526 0.16940767 -0.07264829 -0.04800619
0.14861903 -0.05217904 -0.042369455 -0.1024128 0.056144714 0.05998352 0.0980033 0.12528256
0.18350068 -0.046134487 -0.102052465 -0.12742293 0.11398858 -0.02606456 -0.1698618 0.04172398
0.044325873 -0.0052853376 -0.01983659 -0.14207742 0.035958216 -0.15864226 -0.05559659 -0.034741193

Linear2.weight f4 [48, 48]
00000000: 0617 4ebd b60e bebd dcd5 95bd 80f7 28bc
00000010: 080a 983c 541b 75bd ecb4 d93d 6493 84bd
00000020: 8043 bf3c 10bd e1bd c4ee 13bd 949e 373d
00000030: b55e 82bd 9893 833d a42c 9e3d 1442 07bd
00000040: 5467 96bd 22a9 02be f081 3b3c 1468 843d
00000050: da2d c53d 4042 06bb c11b 9dbd 8a5a b23d
00000060: 8c71 bcbc 32c4 0b3e 4443 1bbd b8f7 67bd
00000070: feff 07bd 53eb 9abd 40d1 cbbb 5c57 5b3d
00000080: b0e8 b93c 2b96 b5bd 521a 28bd 308a 063d
00000090: 9aeb 21bd ec50 4d3d b033 b4bc d0b3 f93d
000000a0: 0a1e 45bd bcc1 bdbd d07d 4ebd 2184 a0bd
000000b0: 6a4a fbbd ac52 01be 081e 583d c0ba b43c
000000c0: 95d7 c4bd 8481 053e d078 bb3d 08c9 89bc
000000d0: 6c1a 1e3d 1007 063e 222f 0cbd 1e00 3bbd
000000e0: a438 553d 8cae 1cbd f0f4 4a3d 06d5 9e3d
000000f0: 1468 303d ee5c c2bd ac94 703d ec0d 10be
00000100: 46a4 1cbd 64ed 693d e0d1 91bb 0895 b33c
00000110: f003 6c3c 6d9b 80bd 94e4 fcbd bc79 31bd
00000120: 0636 0e3e 9886 513d 00eb a0ba 7313 13be
00000130: ba22 823d 3cac 133e 2200 cabd 1f3d 01be
00000140: 480b cfbc e0d2 363d 905e da3c a8ca 6a3d
00000150: 0e3e 27bd 2ca3 e9bc 3412 b0bc 00e3 b7bb
00000160: 7033 2d3c 9233 c73d ec00 cdbd 705d 9e3c
00000170: e0b4 0c3e 38b2 acbd c6e9 9bbd 8489 2d3d
00000180: f029 51bc d049 c0bd 5cf3 85bd 2490 7e3d
00000190: fa09 46bd 2ca5 8f3d 222e 7ebd 0c36 993d
000001a0: 5ab4 2fbd d850 93bd 004f a43a c1c7 f2bd
000001b0: e029 babd 94b7 823d 5443 673d c4da 66bd
000001c0: 086a 683d 7c1b 6abd 00a0 67b9 b873 b8bd
000001d0: 2a64 9ebd c417 3a3d 749b 0a3e 50ab 99bc
000001e0: a011 31bc 080c aebd ce95 b5bd d1f0 bbbd
000001f0: 5453 c0bd 6023 43bd 783e df3c 245a 763d
00000200: fed2 0bbd b1fa 05be 0182 12be 6821 83bc
00000210: 1ae6 08be a448 7b3d d840 123e 6c64 e5bd
00000220: 9ac0 7cbd f014 aabc 6447 b83d 7ccd a43d
00000230: a85b 833c 238c 91bd 3690 073e 3699 053e
00000240: b64b 0c3e a4d4 9f3d 38f6 563d d83d 293d
00000250: c096 1e3c cd83 13be d205 54bd a0a3 d2bb
00000260: 87c1 88bd a4ba ffbd 0064 f4b9 51ab 86bd
00000270: 00e5 313c 4069 733c 7627 03bd c0c0 7abb
00000280: 147a 4f3d 5c63 3b3d fbf8 a2bd 80f3 96bc
00000290: 1423 c63d b605 053e fe5b 14bd 8b6f fabd
000002a0: 009e f4bd 427b 0cbd 008f 86bd 84cf b2bd
000002b0: 802b 58bc 8d3d 99bd 40b0 ebbb 90cd b93d
000002c0: 74a5 d13d 4472 873d 201e 773d 3cb4 fe3d
000002d0: 404c 433c 4882 3a3d e4da 0b3e 5a48 49bd
000002e0: 6041 b33b 118f 8fbd 68bc a33d 6cc9 6a3d
000002f0: f0f7 673c 8c44 02be d045 a13d b0d0 103e
00000300: 87d9 dabd a6bf c5bd 0079 c2bb f804 d13d
00000310: d6e9 22bd b452 db3d 40e2 90bc b80c c8bd
00000320: eb73 85bd 72b8 c03d 04a5 ea3d d474 e33d
00000330: 5f5c c3bd 9856 f93d a84f fcbd 24c8 0fbe
00000340: 647c 50bd 3e5b 933d 8803 803d f08c 02be
00000350: e3d9 a2bd 0002 033e f8e6 eb3d 50b2 083c
00000360: 900c 2e3d 4ec2 c6bd 90d6 e43c 0566 a4bd
00000370: a0d9 d13c 2068 f03d c4e0 ae3d 782b 8c3c
00000380: 204b 3ebc 504f 0a3e c0e8 4dbb 24ea bbbd
00000390: 8cc4 d13d 42e7 e5bd 3a3d 843d bf8e d1bd
000003a0: b261 7dbd 4c23 6d3d c84f 5f3d 083d 143d
000003b0: f1d1 81bd 00b3 b8bd c2a1 a6bd 3a3e c03d
000003c0: fc80 e53d ec48 103d c0db 313b 40dc 03bc
000003d0: ecee a0bc 04fe 003e c0da 1b3c 80f7 edba
000003e0: 688b 2c3d 5a20 ffbd 04ff 0f3e dab8 c73d
000003f0: 0cd7 803d 88f7 e03d 40d3 e13d 0e92 cbbd
-0.050314926 -0.0928015 -0.07316181 -0.010312915 0.01855947 -0.059840515 0.10630211 -0.06473425
0.023347616 -0.11022389 -0.036116377 0.044828966 -0.0636572 0.06424636 0.07723358 -0.033022
-0.07343927 -0.12759832 0.011444554 0.06465164 0.09627886 -0.0020486265 -0.07671309 0.08708675
-0.023003362 0.13649061 -0.037905946 -0.056632727 -0.033203118 -0.07564416 -0.006220013 0.05355011
0.022693962 -0.08866533 -0.041040726 0.03284663 -0.039531328 0.050126 -0.021997303 0.121925
-0.04812435 -0.092654675 -0.050412953 -0.078377016 -0.12270053 -0.12629193 0.052763015 0.022061706
-0.096114315 0.13037688 0.091539025 -0.016819492 0.038599417 0.13088632 -0.034224637 -0.04565441
0.05205597 -0.0382524 0.049549997 0.07755475 0.043068007 -0.09490381 0.058735535 -0.14067811
-0.0382426 0.05711116 -0.004450068 0.02192165 0.014405236 -0.06279645 -0.12348285 -0.043328986
0.13887796 0.05115375 -0.0012277067 -0.14362888 0.0635428 0.14421171 -0.098633066 -0.12620972
-0.025273934 0.0446347 0.026656419 0.057322174 -0.040830664 -0.02852019 -0.021493055 -0.0056117773
0.010571346 0.09726633 -0.100099415 0.019331664 0.13740873 -0.0843243 -0.07612948 0.042367473
-0.012766346 -0.093890786 -0.06540558 0.062149182 -0.04834936 0.07013926 -0.062055714 0.07481012
-0.042896606 -0.07193154 0.0012535751 -0.11854506 -0.09090018 0.06382671 0.056460693 -0.056360975
0.056741744 -0.057155117 -0.00022089481 -0.090064466 -0.077339485 0.04543282 0.13535863 -0.018758446
-0.010807425 -0.084983885 -0.088664636 -0.091767915 -0.093908936 -0.047641158 0.027251467 0.06014456
-0.034136765 -0.13083912 -0.14307405 -0.01600714 -0.13369027 0.061348572 0.14282548 -0.112007946
-0.061707117 -0.020761937 0.08997992 0.080470055 0.016034916 -0.07106807 0.13238606 0.13046727
0.13700756 0.0780423 0.052480906 0.041318744 0.009679496 -0.14405747 -0.051763363 -0.006428197
-0.066775374 -0.12486771 -0.00046613812 -0.06575645 0.0108578205 0.0148566365 -0.032020055 -0.003826186
0.050653532 0.045749053 -0.079576455 -0.018426657 0.09674659 0.1299046 -0.036220543 -0.122283064
-0.119441986 -0.034297235 -0.06570244 -0.08730987 -0.013193965 -0.07482443 -0.0071926415 0.09072411
0.10236636 0.06613591 0.060331464 0.12436721 0.011920035 0.045534402 0.13657719 -0.049141265
0.00547044 -0.070097096 0.0799492 0.057320997 0.014158234 -0.12721461 0.07874644 0.14142108
-0.10686021 -0.09655695 -0.0059348345 0.10206026 -0.039773785 0.10709134 -0.01768601 -0.09768051
-0.0651625 0.0941018 0.114572555 0.111062676 -0.09539103 0.121747196 -0.12319881 -0.14041191
-0.05089988 0.071951374 0.062506735 -0.12749076 -0.07951715 0.12793732 0.11518663 0.008343294
0.04249245 -0.097050294 0.027934343 -0.08027271 0.025616467 0.1173861 0.085389644 0.017110571
-0.011614591 0.13506818 -0.0031419247 -0.09175518 0.102425665 -0.112257496 0.064569905 -0.10232305
-0.061860748 0.05789499 0.054519445 0.036191016 -0.06338871 -0.090185165 -0.081363216 0.09386869
0.112062424 0.035225794 0.0027139038 -0.008048117 -0.019645177 0.125969 0.009512603 -0.0018155426
0.042125136 -0.124573424 0.14062124 0.097520545 0.06291017 0.10984713 0.11026621 -0.09939967

Linear2.bias f4 [48]
00000000: ea6b 20bd 949e ddbd dec0 013e 9446 16bd
00000010: 3be0 01be 18d9 6c3d e06e 313c 00e3 9b3d
00000020: 4887 b93c 9a45 76bd c0f7 ccbb b0c7 d6bd
00000030: d088 e5bd 2aff 073e e867 b73d 2c6c 753d
00000040: bcd1 513d 70c9 40bd 542a eb3d 9427 f2bd
00000050: 5c2b 953d 44e8 b8bc 1e36 b53d 603c 5d3d
00000060: 8ce3 e13d 20b5 413d e043 893c 88a1 febd
00000070: 0218 0abd 04f9 d03d 5114 cbbd 40c6 3b3d
00000080: fc5a b93d f027 d33c ec56 423d c295 debd
00000090: 4e71 be3d 9877 2f3d 6880 8f3d 88ea 103d
000000a0: 6760 dabd 50cd b83d 5c38 e33d 6a0c 033e
000000b0: 8857 833c e446 153d 7a3f ae3d 12d9 9e3d
-0.039165415 -0.10821262 0.12671229 -0.036688402 -0.12683193 0.057824224 0.010829657 0.07611656
0.022647515 -0.06012497 -0.00625512 -0.10487306 -0.112077355 0.13280931 0.089553654 0.059917614
0.05122541 -0.047067106 0.11482683 -0.11823955 0.07283661 -0.02257169 0.08848213 0.054012656
0.11029729 0.047291875 0.016755998 -0.124331534 -0.033714302 0.10203746 -0.099159844 0.045843363
0.09050557 0.02577588 0.047446176 -0.10868408 0.09298955 0.042838663 0.070069134 0.035379916
-0.106629185 0.09023535 0.11094734 0.12797704 0.01603295 0.03644456 0.08508201 0.077562466

Linear3.weight f4 [4, 48]
00000000: c06f 7d3c a691 91bd 9039 a33d 78c5 783d
00000010: 6095 753c 0085 ceba 042f 2fbd 3420 343d
00000020: ef1e a4bd 40c5 823d c0a3 5bbb b08a ec3c
00000030: 00d4 acbb b40f 303d 8409 5e3d a449 99bd
00000040: b4b9 0d3e 8411 bfbc e072 d5bd 20db 143d
00000050: 708a 8e3c 4685 cc3d 9163 bfbd bc2a 3d3d
00000060: 4017 43bc 4977 a1bd 4c61 6d3d 601d 113d
00000070: 74fc 1a3d 6aca 853d 5f97 87bd c05f 5f3c
00000080: f019 0c3e 3088 073e a053 59bc 5770 8ebd
00000090: 4d79 9ebd d63b bb3d 8cdb f3bd 6c80 003d
000000a0: cc85 f5bd 82aa 0dbe 8e44 8b3d bcc8 e9bd
000000b0: 20bd 02bc 8e9c 9f3d 18fb e6bc 30cd f9bc
000000c0: 701a 13bc fa69 adbd d4c6 c4bc 7bf0 b8bd
000000d0: 8014 7b3c a69c b53d 3cb1 acbd f659 c1bd
000000e0: 7814 f3bc c29e f6bd e8e3 f23c f69b 0dbe
000000f0: 0da0 afbd c0da 61bc 1a44 d43d 407d 11be
00000100: 52e7 ca3d f232 823d a49e e33d 106d 54bc
00000110: 07a2 04be a54a f4bd c003 3abc e427 b93d
00000120: 1eda 1ebd 6074 8dbc d860 263d 1cc5 fbbd
00000130: e1d5 eebd 90cc 1d3c 2a9c 75bd 183c 953c
00000140: f4c9 af3d 7076 ae3d 5628 28bd 1519 11be
00000150: 1cea 943d ac3f d3bc 3c90 693d 9016 303d
00000160: c6ae d3bd 8538 0fbe a636 013e 1af0 0b3e
00000170: 3448 ca3d f8b5 013d b788 cabd 0ec6 be3d
00000180: c07a f3bd 800d 66bb 7844 91bc 0cc6 92bd
00000190: f0ea ab3c 3058 053e c805 b43c 4ac6 bcbd
000001a0: b054 bcbd c863 cd3c b2c5 11be 2e49 103e
000001b0: 5864 a03d 749e 233d 5842 a43d 90d4 7bbc
000001c0: 046d 583d 9264 05bd b2bb 7dbd 4aaf 09bd
000001d0: 4e06 863d 847b ee3d 7471 a63d d21a a6bd
000001e0: c000 cabc cae9 c43d 3440 ee3d 60fe 0f3c
000001f0: 1cad e43d 25ae b3bd e00a 6e3d 084b aabd
00000200: d8b0 56bd e0c3 66bc 8075 2dbb c870 9a3d
00000210: 3ceb 063d d8ed 643d 2d39 bfbd 60c0 b43d
00000220: 00f9 04ba 0240 b43d f097 ed3d fae3 033e
00000230: 7ba5 c8bd 28fd 733d 362a 07be a8b9 863d
00000240: 8c27 4abd 40a2 e1bd 5e5d d63d ec8f db3d
00000250: 2e5e 7ebd 0ab0 893d fff9 c3bd d3df a7bd
00000260: c073 033e b055 313d ded1 81bd 84eb 973d
00000270: 3ca3 95bd 84f3 0f3d ccae f03d b8b3 b23d
00000280: d049 57bc 98d1 763d 15b6 8dbd a4c9 e93d
00000290: 006c 013a 904e 343d 9a34 8abd 10e1 923c
000002a0: 0238 a9bd 60ab bf3c 8076 9eba 3871 a73d
000002b0: ac3a 253d b082 713c 58e3 cb3d c027 f73d
000002c0: c6c6 b63d 26bf 96bd 84fd 063d 721b 1abd
000002d0: 388d 8dbc 21c7 c6bd 0cb0 6d3d 3384 8fbd
000002e0: 7863 69bd b443 483d 90a4 db3d 36b9 09be
000002f0: e08b f8bb c069 f43d 91f2 04be ea82 003e
0.015468538 -0.07107858 0.079699636 0.060735196 0.014989227 -0.001575619 -0.042769447 0.043976024
-0.080137126 0.06385279 -0.003351435 0.028874725 -0.005274296 0.042983726 0.054208294 -0.07484749
0.13840371 -0.023323782 -0.10422301 0.036341786 0.017399997 0.099863574 -0.09345163 0.046183333
-0.011907399 -0.0788408 0.057954118 0.035428405 0.037838414 0.06532748 -0.066206686 0.013633668
0.1368177 0.13235545 -0.013264567 -0.06955021 -0.0773798 0.09142272 -0.119071096 0.031372473
-0.1198841 -0.13834575 0.06800185 -0.1141524 -0.007979661 0.07793532 -0.028195903 -0.030493349
-0.008978471 -0.08467479 -0.02402059 -0.09030243 0.015324712 0.08867769 -0.08432242 -0.09440987
-0.029672846 -0.120419994 0.02964969 -0.13829026 -0.08575449 -0.013785064 0.10364552 -0.14207935
0.09907402 0.06357373 0.11114243 -0.012965456 -0.12952434 -0.119283 -0.011353433 0.09040812
-0.03878223 -0.017267406 0.0406197 -0.12293455 -0.11661888 0.009631291 -0.059963383 0.018217131
0.085834414 0.08518684 -0.041054092 -0.14169724 0.07271215 -0.025787197 0.05702232 0.042990267
-0.1033607 -0.13986404 0.12618503 0.1366581 0.09877053 0.03166768 -0.098893575 0.0931512
-0.11888647 -0.0035103261 -0.017732844 -0.07166681 0.02098605 0.13021922 0.021975413 -0.09217508
-0.0919584 0.025071993 -0.14235571 0.14090416 0.07831639 0.039946035 0.080204666 -0.015370503
0.05283834 -0.032566614 -0.06194658 -0.033614434 0.06544171 0.116446525 0.08127108 -0.08110584
-0.02465856 0.09614904 0.116333395 0.008788675 0.111658305 -0.0877345 0.05811584 -0.08315092
-0.052414745 -0.014084786 -0.002646774 0.075410426 0.03293918 0.055890888 -0.09337077 0.08825755
-0.0005072504 0.08801271 0.116012454 0.12879935 -0.09797188 0.0595676 -0.13199696 0.0657838
-0.04935412 -0.11017275 0.10467027 0.1072081 -0.062101535 0.0672303 -0.09569167 -0.08196988
0.12837124 0.04329461 -0.06338857 0.07417968 -0.07306525 0.035144344 0.1175209 0.08725685
-0.013140157 0.060258478 -0.06919495 0.11415413 0.0004937053 0.044020236 -0.06748314 0.017929584
-0.08262636 0.023397148 -0.0012089759 0.08175892 0.040339157 0.014740631 0.09955472 0.120681286
0.08924632 -0.073606774 0.032956615 -0.03762383 -0.017279252 -0.097059496 0.05802922 -0.07007637
-0.056979626 0.04889269 0.10724747 -0.13449559 -0.007585034 0.11934233 -0.12983157 0.1254994

Linear3.bias f4 [4]
00000000: 5890 ef3c e7f2 e3bd 5c82 1c3d 760e 99bd
0.029243633 -0.11130314 0.038210258 -0.07473461
