ModelPara/DDPG/Mario_localQ_DDPG2021-10-08T11-48-38.pth (torch, 11935 bytes, 5 tensors)

Linear1.weight f4 [48, 24]
000000 9c a3 25 bc b1 5c 2e bf dc b2 7e 3e 23 37 7e be
       -0.010109808 -0.68110186 0.24872917 -0.2482572
000010 34 22 b1 3e 55 f1 a5 be ea 85 48 be 04 e6 9a bd
       0.34596407 -0.32410684 -0.19582334 -0.07563403
000020 79 04 73 be 96 9e ed 3e 88 89 1a be 35 9e a7 3e
       -0.23732175 0.46410054 -0.15091527 0.3273789
000030 52 34 8a 3e 6c a5 6e bd 20 5c 88 3e 55 0b f4 3d
       0.26993042 -0.058263227 0.26632786 0.11916224
000040 1a ec 54 3e bf 57 c3 3e 68 9f 0f 3e 6f 98 bc 3d
       0.2079319 0.38152882 0.14025652 0.09208762
000050 6c e4 7c 3e 01 b7 bc 3e ce fd 8c 3d d0 37 83 bd
       0.24696511 0.3685837 0.06884347 -0.0640713
000060 3f 1d b0 3c 57 46 f5 3f 5e 47 19 c0 be 67 85 bf
       0.02149832 1.9162091 -2.394981 -1.0422285
000070 2a cf 6e 3c 6a 98 a9 bd 04 79 38 bd 3c 75 a2 bd
       0.014575759 -0.08281024 -0.045037284 -0.07932517
000080 eb d1 39 be 1d 78 e4 3d e7 f1 e5 bd d8 43 e0 bd
       -0.18146484 0.11155722 -0.1122778 -0.1095044
000090 55 53 af bd 4a 5d 6b bd 43 60 c1 bd 1f 5c 77 bd
       -0.08560816 -0.057462014 -0.094421886 -0.060390588
0000a0 cc 24 00 3c e0 14 d4 bd 72 59 22 be 04 ef df bb
       0.007821273 -0.10355544 -0.15854433 -0.006833913
0000b0 23 8f 64 3c 0a 95 24 3e 2f da b5 bd e0 7e 6e 3c
       0.013950142 0.16072479 -0.08879506 0.014556617
0000c0 7b 24 f9 3e d8 68 d6 3f e0 b8 9f bf ac 34 57 bf
       0.48660645 1.6750746 -1.2478294 -0.84064746
0000d0 86 36 c5 3e b3 e1 00 3e 94 15 77 3e 94 73 b4 bb
       0.3851816 0.12586097 0.24129325 -0.005506942
0000e0 c4 d0 b0 bc 35 9f c6 3e 70 cd 73 3d 3b 9b 84 3b
       -0.021583922 0.3879334 0.059522092 0.004046825
0000f0 72 ec af bd 5f 8f af 3c 37 64 d1 3b 57 d0 e6 3d
       -0.0859002 0.02143067 0.0063901204 0.112702064
000100 fd e9 81 be ad 69 28 be 51 3b 4e be aa 39 a3 3d
       -0.2537383 -0.16446562 -0.20139815 0.07969983
000110 c3 80 bd bd d9 13 ab bd 68 47 ae be 28 39 3d 3d
       -0.09253075 -0.08353395 -0.34038854 0.046197087
000120 90 af 71 bf 31 d8 b2 3f df 07 69 3f 8f 57 f6 be
       -0.9440851 1.3972226 0.91027635 -0.48113677
000130 04 cd 01 3e ff 3f 15 3e ea 33 d6 bd bb 44 14 bf
       0.12675864 0.14575194 -0.104591206 -0.57917374
000140 d0 0b 38 3c a2 7d 2b 3e 12 c3 08 be 6e de 0e 3e
       0.011233285 0.16747144 -0.13355663 0.13952038
000150 4b 4b a2 be 50 ae ec 3d 2e a3 42 be 60 ff 0d be
       -0.3169807 0.11556685 -0.1900756 -0.13866949
000160 de b3 67 be 7c f8 84 bd 26 65 f4 3d f9 d6 c6 3d
       -0.22627208 -0.06492707 0.11933355 0.097089715
000170 42 d3 97 bd 8e 35 1e be 24 e5 b3 3d 49 9f 10 be
       -0.07413341 -0.15450117 0.087839395 -0.14123262
000180 b1 02 2b bf 74 36 3b c0 b8 78 6e 3f b5 b0 b1 bf
       -0.6680098 -2.9251986 0.9315295 -1.3882052
000190 93 34 e8 3c 7a 24 03 3e 4e 15 be 3b c2 98 c3 bd
       0.028345382 0.12806883 0.0058008796 -0.095506206
0001a0 c0 fb 6f bd 29 c1 11 bf 4d 66 26 be ec fa 65 bd
       -0.058589697 -0.56935364 -0.16249962 -0.0561475
0001b0 6e b1 89 3d b2 5e d5 3c 8f 53 f5 3d 2e 1b 3d be
       0.06723295 0.02604613 0.11978828 -0.184674
0001c0 a9 1e 43 bd 63 d0 b7 bd e6 df 2b 3d 48 69 d2 3d
       -0.04763666 -0.089752935 0.041961573 0.10273987
0001d0 fa 74 39 bb 45 9a 85 3d c7 f5 6c bd 6c 4d be bd
       -0.0028298483 0.06523565 -0.05785158 -0.09292111
0001e0 1b 8b 07 3f b7 ef ce 3f 9b ed 2c be 22 e2 e0 be
       0.52946633 1.6166905 -0.16887514 -0.43922526
0001f0 04 cf a3 3d 15 1a 29 3f 81 25 f5 bd fe ca 0f be
       0.079984695 0.66055423 -0.11970044 -0.14042279
000200 50 56 82 be 52 f2 6f 3e 1b 03 21 3f 7f 46 b6 3e
       -0.25456476 0.23432282 0.62895364 0.3560066
000210 2d 1a bd 3e 8e 7f 3b 3e ca 81 18 bd 3a 4e fe bc
       0.36934033 0.18310377 -0.03723315 -0.03104316
000220 d1 e9 22 bc 3c ef 3a 3e 7b ae ba 3c 5a a3 37 be
       -0.0099434415 0.18255323 0.022788277 -0.17933407
000230 be 0b 48 3e 24 fd a8 3c cd 94 d0 bd 09 78 bf bd
       0.1953573 0.02062852 -0.101846315 -0.09349067
000240 b8 7a 1a 3e 54 6c 14 be 3a ca 05 bc a9 12 29 be
       0.15085876 -0.14494449 -0.00816589 -0.16511025
000250 e0 e1 17 bd 42 8e 73 3d 6f ac 83 3d b4 d3 d5 bd
       -0.037080646 0.05946184 0.064293735 -0.1044077
000260 4f 4c 46 be a7 f0 84 bd 08 61 ea 3b 20 4b d4 3d
       -0.19365047 -0.06491213 0.0071526803 0.103658915
000270 74 74 e8 3c f4 0a 92 3d 25 13 a0 bd 56 9c 7e 3c
       0.028375842 0.071309954 -0.078161515 0.015540203
000280 d0 0d 1f bd 89 02 27 bc eb e6 81 3d 8b 27 97 bd
       -0.038831532 -0.0101934755 0.06342872 -0.07380589
000290 f1 c1 27 be 43 ea 85 bd 1e fe 32 3e 87 10 14 be
       -0.16382577 -0.065388225 0.1747975 -0.1445943
0002a0 98 a8 bb 3d c3 48 c6 bd 87 79 0d 3f c2 da ab bf
       0.09163016 -0.09681847 0.5526356 -1.3426135
0002b0 a8 36 dd bd 0b 1a 19 be 9f e2 13 bc 1e b8 d4 be
       -0.108014405 -0.14951341 -0.009026199 -0.4154672
0002c0 48 2b 5c bd 99 a7 87 3e 2c 57 17 be 2d 3a 4d 3e
       -0.053752214 0.26495054 -0.14779347 0.20041724
0002d0 77 61 03 3d 80 2b 80 be e3 2c 80 3e f8 7e 96 3d
       0.03207537 -0.25033188 0.25034246 0.07348436
0002e0 f0 e4 e5 3d dc 1c d4 3d f2 4f 7a 3e 0a c6 8a 3d
       0.11225307 0.10357067 0.24444559 0.06776054
0002f0 9a 17 d7 3d 4d 99 bc 3d ff 77 1f be d3 64 19 3e
       0.105025485 0.09208927 -0.15573119 0.14979868
000300 e9 02 39 bf db 95 31 c0 95 fd b6 3e 37 e3 38 bf
       -0.72270066 -2.7747715 0.35740343 -0.722217
000310 7c 87 5d be a0 75 3e be d2 8a 15 be e8 a1 08 be
       -0.21633714 -0.18599558 -0.14603737 -0.13343012
000320 84 1c 42 be e5 27 ab be 4d 71 a2 bd b3 ab 0e be
       -0.1895619 -0.33428875 -0.07931767 -0.13932686
000330 06 25 fe bd 8c 6f c0 3d 12 79 2b 3e b0 c7 7a 3e
       -0.124094054 0.09396276 0.16745403 0.24490237
000340 18 ed 89 3b 81 80 42 3e 92 9d 1b 3d ee f8 9f 3e
       0.004209172 0.18994333 0.037992068 0.31244606
000350 b6 05 45 3e 83 3e 8a bc 4c 0e c1 3d 17 1e 29 be
       0.1924046 -0.016875511 0.09426555 -0.16515385
000360 a3 5a 7e 3e 7c c6 34 bf 12 27 ea be 20 d6 fd be
       0.24839263 -0.70615363 -0.45732933 -0.49577427
000370 d5 23 8b 3d 31 f0 de be 80 90 34 3e e2 7d dd 3e
       0.06793944 -0.43542627 0.17633247 0.43260103
000380 e1 b6 4d 3e be 16 13 bb e0 ff 55 be 16 dd 32 3e
       0.20089294 -0.0022443975 -0.2089839 0.1746715
000390 03 ab ed bd 00 13 25 bf 7c 7e 5f 3d 56 d6 98 3d
       -0.116048835 -0.64482117 0.054563984 0.07462756
0003a0 ed 50 62 3b 74 49 b5 bd 44 28 dd bd f1 80 7c 3e
       0.0034533099 -0.08851901 -0.10798696 0.24658562
0003b0 de 92 e5 bd 1d 9e 7a 3e 11 9b 13 3d 4b 49 e0 bd
       -0.11209653 0.24474378 0.036036555 -0.109514795
0003c0 24 8f 5f 3f ab 03 df 3f d6 cc 64 bf 93 87 36 bf
       0.8732779 1.7422994 -0.89375055 -0.7130062
0003d0 04 7d a8 bd 03 84 40 3d 3b 72 79 be 85 a0 c3 3d
       -0.0822697 0.047000896 -0.24359982 0.09552101
0003e0 9d 08 61 bd 37 5d 1e 3f aa fd 1d 3e 2c 0e 7b 3c
       -0.054939855 0.61860985 0.15428796 0.015323203
0003f0 13 2f 4b bd 95 96 a8 3c 8b 9a b0 bd c8 8b 0f be
       -0.04960544 0.020579616 -0.08623227 -0.14018166

Linear1.bias f4 [48]
000000 82 c0 46 3c 25 d0 46 3d 22 d8 d8 bc a8 94 2a bd
       0.012130858 0.048538346 -0.026470248 -0.041645676
000010 7d c3 85 3c 5f d5 63 be e5 92 2b be fd 27 0b 3e
       0.016328568 -0.22249363 -0.16755255 0.13589473
000020 e7 65 64 3e a3 21 c6 3d 53 af 91 3b 63 18 07 3e
       0.22304498 0.096743844 0.004445949 0.13192897
000030 e0 d9 15 3c 69 a0 62 be 95 7c 34 be 34 59 29 3e
       0.009146184 -0.22131504 -0.1762565 0.16537935
000040 df e3 64 3e 11 32 2b be 35 4b cc 3d 13 5b 01 be
       0.22352551 -0.16718318 0.09975282 -0.12632398
000050 e3 c6 38 3e 71 6e 03 3e 0a 69 95 3c 21 4f 7d 3d
       0.1804462 0.12835099 0.018238563 0.06184304
000060 36 86 b9 3e 7c a6 57 be 17 64 87 3d eb de 1c 3d
       0.36235207 -0.21059602 0.066108875 0.03829853
000070 97 c2 98 3e 06 99 30 be 2f c6 1b bd 8a 79 10 3e
       0.2983596 -0.17245874 -0.0380308 0.14108863
000080 1e 6f 32 3e e0 8b 8a 3d b6 7f 18 3d c3 88 28 3f
       0.174252 0.0676496 0.03723117 0.6583368
000090 91 a3 a0 bd 1f 5b bf 3e 3f 93 45 3e fe 1f 03 3e
       -0.07843698 0.37374207 0.19294451 0.12805173
0000a0 1b 8d b3 bd ac 4b e8 3d 09 8b 49 3e b6 fa 95 3c
       -0.08767148 0.11342558 0.19681944 0.018308025
0000b0 26 cc 17 3e e8 9b 94 be ef f0 26 3e 33 a3 a8 3e
       0.1482397 -0.29025197 0.16302846 0.3293701

Linear2.weight f4 [24, 48]
000000 88 36 96 bd c7 8e 99 3c cd d5 ed bc c4 82 90 3d
       -0.0733462 0.01874484 -0.029032612 0.070561916
000010 db 7b 84 3d 77 06 4b 3d 34 86 64 bc c4 4b d5 bd
       0.06468936 0.049566712 -0.013948012 -0.10414842
000020 8c d1 1c bd d3 4f 46 39 8e 15 b3 bc 89 f2 71 bd
       -0.038285777 0.00018912488 -0.021860864 -0.05906919
000030 bf 9d 8d bd 0e 6e f7 bc 26 ad f0 3d 28 f9 66 bd
       -0.06914853 -0.030203845 0.117517754 -0.056389958
000040 b5 d7 e5 bb 86 07 89 bd fe 73 bc bd eb 3e 04 be
       -0.0070142397 -0.06690888 -0.09201811 -0.12914626
000050 32 15 c9 bd 8f c2 04 be 7a aa c3 3d 49 db f8 bb
       -0.09818496 -0.12964843 0.09554 -0.0075945
000060 a2 5b bd bd f7 eb c4 bd 4f 14 87 bd e8 18 10 3d
       -0.09245993 -0.09615319 -0.065956704 0.035180002
000070 f9 db e8 bb ce 51 c3 bc e6 62 b3 bd 16 54 49 3d
       -0.007106301 -0.023842718 -0.08759098 0.049152456
000080 11 70 f1 b9 58 c5 65 3d b4 a5 a5 3c ea 6a 85 bd
       -0.00046050598 0.056096405 0.020220615 -0.06514533
000090 ee 06 b7 3d 5c 47 93 bd 26 ac 05 bd b5 ef e1 bc
       0.089368686 -0.07191345 -0.032634877 -0.027580122
0000a0 28 06 69 bd 6f 51 0e be ec 5b 94 bd 2b 89 81 bd
       -0.056890637 -0.13898252 -0.07244095 -0.06324991
0000b0 ba bf b4 3d 08 ed db bd 0e ca 49 bd aa 21 b3 bd
       0.088256314 -0.107385695 -0.04926496 -0.08746655
0000c0 6a 2f 9c 3e c7 c6 27 3f 56 73 9f 3e 12 26 21 bf
       0.30504924 0.65537685 0.31142682 -0.62948716
0000d0 43 fc 90 3f 42 28 d9 3d a5 14 e6 bd 50 c3 a3 3e
       1.1326984 0.10603382 -0.112344064 0.3198495
0000e0 35 5d 89 3f a0 04 87 3e 43 26 40 3f 57 7d ce bd
       1.073157 0.26370716 0.7505838 -0.100825004
0000f0 58 4a 8d bf f3 97 0d bf a4 8e b6 3e ff cf 6a bf
       -1.1038313 -0.5530998 0.356557 -0.91723627
000100 1a 4c f5 3e b2 a1 cd 3d 8a ec d9 3e 64 b2 13 3d
       0.47909623 0.100406066 0.42563277 0.0360588
000110 2b 57 81 bd fc 4b 2a 3f d5 51 89 3e 68 47 df 3e
       -0.06315454 0.6652219 0.26820245 0.43609166
000120 d2 90 0f bd 3b 42 d1 3e 93 cc 04 3f 91 ca 8c 3e
       -0.03505022 0.40870842 0.51874655 0.27498296
000130 19 ae 0a 3f 8a 6b 23 3f c6 f3 1f 3f ca 3f bd ba
       0.541719 0.63835967 0.62481344 -0.0014438566
000140 37 c6 0c 3e ae 77 c0 3e 2a 8a 17 3f ee 0d 17 3e
       0.13747488 0.37591308 0.59195197 0.14751408
000150 35 52 e4 3e 21 65 89 3f c9 73 7d be 4f cd 32 bf
       0.4459397 1.0733987 -0.247512 -0.69844526
000160 6c e5 bc 3e c7 fd b8 bf 64 6a 97 be c2 3c 49 3f
       0.36893785 -1.4452447 -0.29573357 0.78608334
000170 1e 56 f4 3e 8c b0 20 3e 67 6a 74 3f 63 6b 88 3e
       0.47721952 0.15692347 0.9547486 0.2664443
000180 96 03 61 3e 1f 33 19 3f a5 a8 a4 3e 25 48 01 bf
       0.21974024 0.5984363 0.32159916 -0.5050071
000190 81 f3 8c 3f 54 75 5a 3e 63 e0 03 be cd 53 d1 3e
       1.1011811 0.2133382 -0.12878565 0.40884247
0001a0 cb 1c 83 3f bd 5f 2a 3e c6 23 0a 3f ed cb a1 bd
       1.0243162 0.16638084 0.53960836 -0.07900224
0001b0 f0 af 99 bf b0 eb 3e bf ca 15 02 3f ee e1 57 bf
       -1.2006817 -0.7457838 0.508145 -0.84329116
0001c0 2f 3f eb 3e 0a a5 22 3d 65 71 af 3e bb 2d 04 be
       0.45946643 0.039708175 0.342662 -0.1290807
0001d0 e0 5c 27 3d 90 20 35 3f 2f 6b 6a 3e f8 a9 f3 3e
       0.040860057 0.7075281 0.2289245 0.47590613
0001e0 a6 6e 98 3d 27 61 a7 3e 80 a4 c2 3e bd c7 fd 3d
       0.074429795 0.3269131 0.3801613 0.12391613
0001f0 21 c3 91 3e 01 75 1d 3f 74 9a c7 3e e4 9d 4f 3e
       0.28469184 0.6150666 0.38985026 0.20275074
000200 44 76 09 3e 3c 1b dd 3e ac 99 c3 3e c8 16 e8 3b
       0.13424021 0.4318484 0.3820318 0.007082794
000210 c9 af dc 3e a1 0e 7c 3f 12 51 7c bd 98 a3 1d bf
       0.43102863 0.9845982 -0.061600752 -0.6157775
000220 53 c8 ca 3e a9 3f b2 bf 95 67 ed bd 7a 3f 49 3f
       0.3960596 -1.3925678 -0.11592022 0.7861248
000230 8c 4f 90 3e 26 4f a2 3e e4 de 80 3f c8 08 c9 3e
       0.2818569 0.3170101 1.0068021 0.39264512
000240 72 7b 92 3e 7b 3d f7 3e 19 9c d4 3e c8 6f 34 bf
       0.28609806 0.48289093 0.41525343 -0.70483065
000250 72 cf 7c 3f dc 0a 35 3e 97 48 0d bd 3e 7f c0 3e
       0.98754036 0.17679924 -0.034493055 0.37597078
000260 68 2a 87 3f 5c 80 13 3e 71 0b 4f 3f 6a 2e d9 bd
       1.0559816 0.14404434 0.80876833 -0.10604556
000270 4e 84 9e bf a6 2c 1c bf a3 80 ab 3e f7 6a 53 bf
       -1.2384126 -0.6100563 0.3349658 -0.8258509
000280 dc 7b 0c 3f be 2d 3c 3e e0 58 10 3f 1a 93 bd 3d
       0.54876494 0.18376824 0.5638561 0.09256573
000290 55 41 9f 3c 3d d9 59 3f 17 c7 d2 3e 30 bc ff 3e
       0.019440332 0.85097104 0.41167518 0.49948263
0002a0 b5 bf ce 3d 90 2c c4 3e a2 19 ac 3e b0 d9 61 3e
       0.10095159 0.38315248 0.33613306 0.22055697
0002b0 ce 89 f3 3e 9d 76 3b 3f a3 c2 08 3f 85 5a 30 3e
       0.47566074 0.73227865 0.5342199 0.1722203
0002c0 f4 6b 62 3e c1 84 b5 3e ff b9 fc 3e 73 63 49 3e
       0.22111493 0.35452846 0.49360654 0.19666843
0002d0 fa 98 fa 3e 67 4f 7f 3f 41 1e fe bd 00 64 2e bf
       0.48944837 0.99730533 -0.12408114 -0.6812134
0002e0 ec 02 e3 3e 13 e8 b7 bf 19 5f cb bd bf 9e 63 3f
       0.44338167 -1.4367698 -0.09930248 0.889141
0002f0 17 8d f3 3e 26 bc a1 3e d7 38 5d 3f cc ba 0f 3f
       0.4756858 0.31588858 0.86414856 0.56144404
000300 fc 1c b2 3e cd e5 cb 3e ea e5 96 3e 28 1f 3c bf
       0.34787738 0.39823762 0.29472286 -0.7348504
000310 2b 8e 8a 3f 84 5c 5b 3e ec a5 e9 3c 48 1a d5 3e
       1.0824636 0.2142201 0.0285215 0.41621614
000320 f7 f0 4d 3f 30 fa ce 3d ac 8d 30 3f d7 a7 52 bd
       0.8044581 0.10106313 0.68966174 -0.051429596
000330 92 54 9e bf 50 56 21 bf c0 bf 0a 3f 57 ea 61 bf
       -1.2369559 -0.6302233 0.5419884 -0.882482
000340 8d 84 b7 3e 57 6f bc 3d 4f 4f e0 3e 9a e0 87 3d
       0.35843316 0.09200924 0.43810508 0.06634636
000350 49 24 d3 bd c9 6e 2d 3f ab 5a 88 3e 6f 12 0e 3f
       -0.10309655 0.6774717 0.26631674 0.5549688
000360 6e db 06 3e 89 cd 05 3f 8b f7 dd 3e 56 73 6c 3e
       0.13169643 0.52266747 0.43352923 0.23090872
000370 49 6a b2 3e 7e de 26 3f 40 7b f5 3e c9 32 4e 3e
       0.34846714 0.65183246 0.47945595 0.2013656
000380 0d 0f 84 3a 72 70 c6 3e 23 81 21 3f 30 b4 66 3e
       0.0010075286 0.38757664 0.6308767 0.22529674
000390 8c 2f 9f 3e 53 51 8b 3f 9a bd 99 bd c3 2b 1c bf
       0.31090963 1.0884193 -0.07506867 -0.61004275
0003a0 42 45 c4 3e 67 ce b3 bf b0 01 42 be c4 96 3f 3f
       0.3833409 -1.4047364 -0.18945956 0.74839425
0003b0 f3 36 c2 3e 1a 89 a3 3e 1a 77 81 3f 01 ee 8c 3e
       0.37932548 0.31940538 1.0114472 0.27525333
0003c0 cf c6 15 3f 5c c9 9a 3f 18 f0 1b bf 66 ce a6 3e
       0.5850648 1.20927 -0.6091323 0.32579345
0003d0 8b e2 81 3f 68 67 48 bf 13 37 c7 3d 34 8c ec bd
       1.014726 -0.78282785 0.097273014 -0.11550179
0003e0 2a e5 87 3f 34 cd b7 3d 44 b5 26 3d dd d0 f0 bc
       1.061681 0.08974686 0.040700212 -0.029396469
0003f0 19 2a 0c bf 79 44 af 3e 48 31 25 c0 fe 15 8e bf
       -0.54751736 0.34231928 -2.581133 -1.1100461

Linear2.bias f4 [24]
000000 5b ed c8 3d 0d e3 d8 3d ab 9f e6 3d be d6 1d bd
       0.09810897 0.105901815 0.11260923 -0.038534872
000010 71 ff e1 bd 1d f6 00 3e 92 f4 a2 3d 2f 11 d7 3d
       -0.1103505 0.12593885 0.07956804 0.105013244
000020 b8 09 24 bd 00 a7 99 3d 7c 9e 70 bd 40 61 5e bd
       -0.04004833 0.07502556 -0.058744892 -0.054291964
000030 27 db 03 3e 4c 96 8c 3d fd 63 33 3e 61 be 6a bc
       0.12876569 0.06864604 0.17518611 -0.014327616
000040 27 5d ce bd 3d 34 32 3e ec 47 1d 3e e7 fb 4f 3e
       -0.10076361 0.1740274 0.15359467 0.20310937
000050 b0 01 45 3e 1c 4f e0 3d 47 cf 0b 3a 0e bc 51 3d
       0.19238925 0.10952589 0.0005333316 0.051204734

Linear3.weight f4 [1, 28]
000000 6e ae b2 3d 09 63 54 bf 70 c1 2e bf b5 e0 2e bf
       0.08724676 -0.82963616 -0.6826391 -0.68311626
000010 a9 57 3b bf 2a d7 cf bf ae bb 2c bf 53 44 87 bf
       -0.73180634 -1.6237538 -0.67473876 -1.0567726
000020 5d 11 62 bf 5b 66 ff 3f 8d 4b 77 bf ec c1 5e bf
       -0.88307744 1.9953111 -0.96599656 -0.8701465
000030 f1 6d bc 3f 64 52 54 bf eb b3 cf 3f af 49 42 bf
       1.4721051 -0.8293822 1.6226782 -0.7589368
000040 0c 15 98 bd 8e de bc 3f b3 06 f0 3f 5e ce d8 3f
       -0.074258894 1.4755418 1.8752044 1.6937978
000050 7e 8c 77 3f 8b 1a 5e bf ac 22 65 bf b0 26 53 bf
       0.9669875 -0.8675925 -0.8950603 -0.8248091
000060 73 35 ce be bf 6f 1d be 7c 41 a2 3c 4f 81 c9 3b
       -0.40275154 -0.15374659 0.019806616 0.006149448
