ModelPara/DDPG/Mario_localPi_DDPG2021-10-08T14-20-28.pth (torch, 51007 bytes, 18 tensors)

Linear1.weight f4 [48, 24]
0	0x3dc82d2b	0.0977424
1	0x3e20e86d	0.15713663
2	0x3da961fd	0.08270643
3	0xbe63adbc	-0.22234243
4	0xbdc35742	-0.095381275
5	0xbe098774	-0.13430578
6	0xbe808e40	-0.25108528
7	0x3d97e940	0.07417536
8	0xbd2c9be1	-0.042140845
9	0x3d7b5c0f	0.06136709
10	0xbd7e1915	-0.06203564
11	0x3e281650	0.16414762
12	0x3e0ee376	0.13953957
13	0x3e1287ec	0.14309663
14	0x3d5b81af	0.053590473
15	0xbe0dd523	-0.13850836
16	0xbe23ed97	-0.16008602
17	0xbcfc8dc3	-0.030829316
18	0x3debb621	0.11509348
19	0xbd559c78	-0.052151173
20	0x3e4ca7eb	0.1998593
21	0xbe37d22f	-0.17951272
22	0xbd8cf124	-0.068819314
23	0x3dcb04b5	0.09913007
24	0xba8d65dc	-0.0010787803
25	0xbde8d181	-0.11368085
26	0x3c88744f	0.016657023
27	0xbc6c7df0	-0.014434323
28	0x3e9dcca4	0.3082019
29	0xbd39e43d	-0.04538368
30	0x3d9e054d	0.07715855
31	0xbd90af97	-0.07064741
32	0x3d4a158f	0.049336966
33	0x3d099de2	0.033597834
34	0x3e4b3500	0.19844437
35	0x3ebd1030	0.36926413
36	0x3e3c870e	0.18410894
37	0xbd3a88e1	-0.045540694
38	0x3e5faadd	0.21842523
39	0x3e5490fa	0.20758429
40	0x3d2324a5	0.03982987
41	0x3e2e81bf	0.17041682
42	0x3e58a1eb	0.21155517
43	0x3e3c790b	0.18405549
44	0xbe353255	-0.17694981
45	0xbe1b4742	-0.15163901
46	0xbcd1f422	-0.025629107
47	0xbda33528	-0.07969123
48	0xbe8f5ffc	-0.28002918
49	0xbe50e665	-0.20400389
50	0x3d69b215	0.057054598
51	0xbe50ed9a	-0.20403138
52	0x3e5f30f2	0.21796015
53	0x3db189e1	0.086688764
54	0x3dbbfe8e	0.09179412
55	0x3e190fba	0.14947405
56	0x3ca8323c	0.020531766
57	0x3e6e434e	0.23267862
58	0x3e5435db	0.20723669
59	0x3e1ac142	0.15112785
60	0x3cb88cdb	0.022528103
61	0xbd287d58	-0.041135162
62	0xbd69ea27	-0.05710807
63	0x3d67876e	0.05652564
64	0xbde5bc36	-0.11217539
65	0x3e20a9bf	0.15689753
66	0x3e22c2fe	0.15894696
67	0xbdb4e58d	-0.08832846
68	0x3e34b345	0.17646511
69	0xbe3c057c	-0.18361467
70	0x3d320e0d	0.04347043
71	0xbd4c7d04	-0.04992391
72	0x3e234136	0.15942845
73	0x3db68ca1	0.089135416
74	0xbe9a2dfe	-0.30113214
75	0xbebc3c92	-0.3676496
76	0x3e016272	0.1263521
77	0xbc8ea2bc	-0.017411582
78	0x3d9e6e89	0.07735927
79	0x3dec8e06	0.11550526
80	0x3dc572c2	0.09641029
81	0x3e7e320b	0.24823777
82	0x3e07bcd2	0.13255623
83	0x3e46dc07	0.19419871
84	0x3e4eb399	0.20185699
85	0xbc821f2c	-0.015884005
86	0x3cc6a6aa	0.024249393
87	0xbdc83b5e	-0.097769484
88	0x3e06e548	0.13173401
89	0xb8cfcb45	-9.908391e-05
90	0xbc94f005	-0.018180856
91	0x3cccb127	0.024986817
92	0xbd39f033	-0.045395087
93	0xbc1bb17b	-0.009502764
94	0xbe152550	-0.14565015
95	0xbd629f13	-0.055327486
96	0xbd99be6e	-0.07507025
97	0xbc66285f	-0.014047711
98	0x3e11c0e1	0.14233734
99	0xbe37a078	-0.17932308
100	0x3dd86e90	0.10567963
101	0x3e5da0bf	0.21643351
102	0x3d6f369d	0.058401693
103	0x3de35b09	0.11101348
104	0xbd74ec45	-0.059795637
105	0x3ed7318f	0.42029998
106	0x3d53db31	0.05172271
107	0x3ebe4488	0.3716166
108	0xbd0fd957	-0.03511938
109	0x3e3c1a62	0.18369439
110	0xbb21b1f8	-0.0024672728
111	0x3d25465e	0.04035031
112	0x3e323578	0.17403209
113	0x3e0656f7	0.13119112
114	0xbd98f141	-0.074678905
115	0x3c64781e	0.013944654
116	0x3d6375d1	0.05553228
117	0xbc1efe12	-0.00970413
118	0x3e37ee8f	0.17962097
119	0x3e147d35	0.14500888
120	0xbc3c8873	-0.011507141
121	0x3e124080	0.14282417
122	0xbe5f3d5b	-0.21800749
123	0x3dfbf966	0.12303428
124	0x3cc2190c	0.023693584
125	0x3e6f0ff9	0.23345937
126	0x3d888a17	0.066669635
127	0x3c5465cd	0.012963724
128	0xbe527cab	-0.2055537
129	0x3ddb9f9d	0.10723803
130	0x3dc037cd	0.09385643
131	0x3e82b706	0.2553026
132	0x3e64ac6f	0.22331403
133	0x3e1cd22f	0.15314554
134	0xbda399e2	-0.07988335
135	0x3e29a6b4	0.16567498
136	0xbdc430ca	-0.09579618
137	0xbe15bd5b	-0.14623015
138	0x3e36d290	0.1785376
139	0x3d55b209	0.05217174
140	0xbd8c6798	-0.068556964
141	0x3c0f9898	0.0087644085
142	0xbbc587f0	-0.006028168
143	0x3e057a27	0.13034879
144	0xbb9d1e67	-0.004794884
145	0xbe28f587	-0.16499911
146	0x3e235c2a	0.15953127
147	0x3d8ce00a	0.068786696
148	0xbc9923bc	-0.018693797
149	0xbcba05f1	-0.022707911
150	0x3d193141	0.037400488
151	0x3e0fe01b	0.14050333
152	0xbe4ee860	-0.20205832
153	0x3d27dd1a	0.040982343
154	0xbda2e0a4	-0.07953003
155	0xbce54838	-0.027988538
156	0x3d016e66	0.031599425
157	0xbdc55439	-0.09635205
158	0xbdd4537b	-0.10367485
159	0x3db650c4	0.089021236
160	0x3d9e7223	0.077366136
161	0xbd74bb7a	-0.059749104
162	0xbdbdb24f	-0.09262525
163	0xbe16db94	-0.147322
164	0x3dacf46b	0.084450565
165	0xbe055d00	-0.13023758
166	0xbd77fc36	-0.06054326
167	0x3e079277	0.13239466
168	0x3ec237ac	0.379331
169	0xbd0b54cf	-0.034016427
170	0x3e8a8897	0.27057335
171	0xbe36baaa	-0.17844644
172	0x3bff9c08	0.007800583
173	0x3e04f569	0.12984242
174	0xbe6cfe90	-0.23143983
175	0xbc8a094a	-0.016850132
176	0xbd2495e1	-0.040182
177	0xbe8a70c6	-0.27039164
178	0xbe1fbb70	-0.15598845
179	0xbe4182bb	-0.18897526
180	0x3e09f010	0.13470483
181	0x3e2d43dd	0.16920419
182	0x3d13766b	0.036001604
183	0x3d881f9a	0.066466525
184	0x3d555f3c	0.052092776
185	0x3c33e741	0.010980428
186	0x3e84f9e5	0.25971904
187	0x3e5a0d68	0.21294177
188	0x3e8b922e	0.27259964
189	0x3cecc50b	0.028902551
190	0x3e09ddd5	0.13463528
191	0x3ce29f73	0.027663922
192	0x3d259fce	0.040435605
193	0xbdb3b77b	-0.087752305
194	0xbea1a434	-0.3157059
195	0xbe34caec	-0.17655534
196	0x3e062226	0.13098964
197	0x3eb1ad2d	0.34702435
198	0xbecdfe74	-0.40233195
199	0x3daa822b	0.08325609
200	0x3e964889	0.29352215
201	0x3e874d3c	0.26426113
202	0x3e37b7c7	0.17941199
203	0x3eb748c3	0.357977
204	0x3e4e89a6	0.20169696
205	0x3e8c4fc4	0.27404606
206	0xbb8ac90e	-0.0042353934
207	0x3eaa2d7a	0.3323782
208	0x3db3107b	0.08743378
209	0x3d7adfef	0.061248716
210	0x3b14397d	0.0022617273
211	0x3e3b11e5	0.18268545
212	0x3e3e40df	0.18579434
213	0x3e571ae5	0.21006353
214	0x3df24b97	0.11830824
215	0x3e9e2432	0.3088699
216	0xbdeacad7	-0.1146447
217	0x3d902acf	0.07039415
218	0x3df870ff	0.12130927
219	0xbddbea03	-0.107379936
220	0x3d88008f	0.066407315
221	0xbb31060d	-0.0027011663
222	0x3da9c5a5	0.08289651
223	0x3e78e4a8	0.24305975
224	0x3d4e449c	0.0503584
225	0x3e984a14	0.29744017
226	0x3dee3959	0.11632032
227	0x3d9d6be6	0.076865956
228	0x3e4eeae4	0.20206791
229	0xbcb745cf	-0.022372155
230	0xbdcad605	-0.09904102
231	0xbdf97d46	-0.12182097
232	0xbcd80007	-0.0263672
233	0xbe63d765	-0.22250135
234	0x3bc06dd6	0.0058724685
235	0x3db2f6c7	0.08738475
236	0x3dec2c60	0.11531901
237	0x3e0c37a1	0.13693096
238	0x3e0382e6	0.12842903
239	0xbd1db1e5	-0.03849973
240	0xbd438317	-0.04773244
241	0x3e3dabd1	0.18522574
242	0x3e1c80d8	0.15283525
243	0xbdb3fa92	-0.08788027
244	0x3cd6df70	0.02622959
245	0xbe030dc5	-0.12798221
246	0xbe025897	-0.12729107
247	0x3d94cf21	0.07266069
248	0x3dc27ddb	0.09496661
249	0xbd17dea8	-0.037077576
250	0xbdf60602	-0.12012865
251	0x3d7c188b	0.061546843
252	0x3c3970a3	0.011318359
253	0x3d9cb540	0.07651758
254	0x3cc9d7e6	0.024639081
255	0xbe415204	-0.18878943

Linear1.bias f4 [48]
0	0xbdfc2d25	-0.12313298
1	0xbe2b84b7	-0.16749845
2	0x3e2e0d80	0.16997337
3	0x3d5be042	0.053680666
4	0x3ced8dd2	0.02899829
5	0xbe54c67c	-0.20778841
6	0xbe2c7359	-0.16840877
7	0x3e08eb75	0.1337107
8	0x3cb2a207	0.021805776
9	0x3dd5eeca	0.10445936
10	0xbe7a917d	-0.24469562
11	0x3de6b571	0.11265076
12	0x3d2558ed	0.04036801
13	0x3e461fe2	0.193481
14	0x3cf3cda1	0.029761137
15	0xbe2b4ca8	-0.16728461
16	0x3dfe2612	0.12409605
17	0x3d2a90a3	0.041641843
18	0x3c5bed59	0.013423287
19	0x3e8b3415	0.27188173
20	0x3ecdf825	0.40228382
21	0x3e153c05	0.14573677
22	0xbe03cf25	-0.12871988
23	0xbd6f9e5d	-0.058500636
24	0x3e649a78	0.2232455
25	0xbd80b10d	-0.0628377
26	0xbcbf45b5	-0.023348669
27	0xbdd3cf69	-0.10342295
28	0x3de28aa3	0.11061599
29	0x3c22c38c	0.009934317
30	0x3e74f0df	0.2392001
31	0x3e22691a	0.15860406
32	0x3e8600cb	0.2617248
33	0x3c2f76ce	0.010709478
34	0x3d869e97	0.06573217
35	0xbddf30fa	-0.108980134
36	0xbc2b4c46	-0.010455197
37	0x3c7ab2c5	0.015301411
38	0xbe903c8a	-0.28171188
39	0xbc7b25db	-0.01532885
40	0x3c62e33d	0.013848123
41	0xbd1191bc	-0.035539374
42	0xbd87f308	-0.066381514
43	0xbddb51ad	-0.10708938
44	0x3d415770	0.047202528
45	0xbe73217d	-0.23743244
46	0x3e48d818	0.19613683
47	0x3d3bb59e	0.0458275

Linear2.weight f4 [48, 48]
0	0xbc6b7297	-0.014370582
1	0xbdad343e	-0.0845723
2	0xbd380932	-0.044930644
3	0x3c198dce	0.009372188
4	0x3d1cbc04	0.038265243
5	0xbd18db2d	-0.037318397
6	0x3ddec19c	0.10876772
7	0x3d2a3755	0.041556675
8	0x3d349cdf	0.044094916
9	0xbdbfa5ae	-0.09357773
10	0xbcb3c5dc	-0.021944933
11	0x3dc05c4a	0.09392603
12	0xb9a2fbf3	-0.00031086765
13	0x3e080477	0.13282953
14	0x3eb6be4f	0.3569207
15	0xbc4014ca	-0.0117237065
16	0x3bc02115	0.0058633187
17	0xbc955cff	-0.01823282
18	0x3d6a5958	0.05721411
19	0x3dd7a1ec	0.10528931
20	0x3df726c7	0.12067943
21	0x3ce61183	0.028084522
22	0xbb78b256	-0.0037948093
23	0x3de4d1c9	0.11172826
24	0x3c80a838	0.015705213
25	0x3e1b10fd	0.151432
26	0xbc0b418b	-0.008499513
27	0xbc7d8c1f	-0.015475302
28	0x3c23c029	0.009994545
29	0x3ce109f5	0.027470568
30	0x3d03f51a	0.03221617
31	0x3da4cd30	0.08046949
32	0x3d8eedff	0.06978988
33	0xbddc9a68	-0.10771638
34	0x3e8ba49b	0.27274022
35	0x3da0a205	0.07843403
36	0xbc93111e	-0.017952498
37	0x3dbab652	0.09116806
38	0xbb433709	-0.0029787442
39	0x3e1090c3	0.14117722
40	0xbc1357c7	-0.008993096
41	0xbd961453	-0.07328095
42	0xbcedd602	-0.029032711
43	0xbcf64dd8	-0.030066416
44	0xbdb4dea0	-0.08831525
45	0xbdfcf73a	-0.12351842
46	0x3e134194	0.14380485
47	0x3d7d2db0	0.06181115
48	0x3d5486ec	0.051886484
49	0x3eb47668	0.35246587
50	0x3e2c05fe	0.16799161
51	0x3e452b18	0.1925472
52	0x3deec0aa	0.116578415
53	0x3e6ffe56	0.23436865
54	0xbd068aa4	-0.03284706
55	0x3e09a7e0	0.13442945
56	0x3eaaf0ba	0.33386785
57	0x3d1bbb72	0.03802056
58	0x3dfc2bbe	0.12313031
59	0x3e62b09a	0.2213768
60	0x3e2ccc9c	0.16874927
61	0x3d2011b1	0.03907937
62	0x3ec4c76c	0.38433397
63	0xbd1e684e	-0.03867369
64	0x3e8f36bc	0.27971447
65	0x3e46a9da	0.1940073
66	0x3e40fe2e	0.18846962
67	0x3e074d7f	0.13213156
68	0x3eb00483	0.34378442
69	0x3d1cf807	0.038322475
70	0xbd47315b	-0.048631053
71	0x3d66b4f6	0.05632492
72	0x3e762bb9	0.24040116
73	0x3e04a6b7	0.12954222
74	0x3dd2eb5f	0.102988
75	0x3c1e07a1	0.009645374
76	0x3e25b7be	0.16183373
77	0x3e9240cb	0.28565058
78	0x3dc82c41	0.09774066
79	0xbbdaebbf	-0.006680935
80	0x3e01ba5b	0.12668745
81	0x3e6b3a0d	0.22971363
82	0x3eb66a46	0.35627955
83	0x3e3dbc78	0.18528926
84	0x3d01ceca	0.03169135
85	0x3d86df02	0.06585504
86	0x3cbb12c7	0.022836102
87	0x3de59bc6	0.11211352
88	0x3de23e93	0.11047091
89	0x3e4f19b4	0.20224649
90	0xbb1ad1c5	-0.0023623568
91	0x3e393106	0.18085107
92	0x3e70638d	0.23475476
93	0xbcabae9f	-0.02095729
94	0x3e7ed82f	0.24887155
95	0x3e556de6	0.20842704
96	0x3c916673	0.017749047
97	0xbd87fda3	-0.06640174
98	0xbd3c7754	-0.046012238
99	0x3db28325	0.0871642
100	0xbcb8ae24	-0.022543974
101	0x3dc52be7	0.09627514
102	0xbd7e2e22	-0.062055714
103	0x3e02bd1c	0.12767452
104	0x3a9cc44c	0.0011960356
105	0xbd67d394	-0.05659826
106	0x3aa450c7	0.001253628
107	0xbd9c81e1	-0.0764196
108	0xbd260498	-0.040531725
109	0x3ddc59c4	0.10759309
110	0x3dd4b625	0.10386304
111	0xbc37dceb	-0.011222105
112	0x3ddc0683	0.107434295
113	0xbcf0bd7c	-0.029387228
114	0x3d221883	0.039574157
115	0xbcb4f271	-0.022088261
116	0xbcfec386	-0.031099092
117	0x3d9105a7	0.07081156
118	0x3e0a9d66	0.13536605
119	0xbb8626eb	-0.004093995
120	0x3d335c68	0.043789297
121	0xbd0a7839	-0.03380606
122	0xbd3259ad	-0.043542553
123	0xbd8eb5a2	-0.069682375
124	0xbda4c236	-0.08044855
125	0xbc970f85	-0.018440017
126	0x3d9a5ca7	0.07537203
127	0x3dc60c16	0.09670274
128	0xbc224a55	-0.009905417
129	0xbd2c8206	-0.042116188
130	0xbe0c748b	-0.13716333
131	0x3ca2dad3	0.019879734
132	0xbe1b725d	-0.15180345
133	0x3da45c08	0.08025366
134	0x3e1240d8	0.14282548
135	0xbdba835c	-0.09107086
136	0xbd2536b8	-0.040335387
137	0x3b947165	0.0045301192
138	0x3de025be	0.10944699
139	0x3e01925e	0.12653491
140	0x3d27189d	0.040794957
141	0xbd918c23	-0.07106807
142	0x3e2a7ba2	0.16648725
143	0x3e3344e5	0.1750675
144	0x3e26e455	0.1629804
145	0x3da7a682	0.08186056
146	0x3dfcacdd	0.123376586
147	0x3d4889ca	0.04895953
148	0x3d131ed8	0.035918087
149	0xbe06a8ec	-0.13150376
150	0xbd4e004d	-0.050293256
151	0x3e2a5710	0.16634774
152	0xbca233f4	-0.019800164
153	0xbdcda23d	-0.1004071
154	0xbb62cf17	-0.0034608298
155	0x3c86bfe4	0.016448922
156	0x3dc36edb	0.095426284
157	0x3de02a90	0.10945618
158	0x3e78a3e9	0.24281277
159	0x3dab6e77	0.08370679
160	0x3e2c3193	0.16815786
161	0x3e0fc94e	0.14041635
162	0xbccd6b42	-0.025075559
163	0x3d9321fa	0.07184215
164	0x3e198caa	0.14995065
165	0x3e14d817	0.14535557
166	0x3d0f792e	0.035027675
167	0xbdeeb50f	-0.11655628
168	0xbd51832a	-0.05115048
169	0xbcd06e12	-0.02544311
170	0xbcb48b87	-0.022039188
171	0xbd794216	-0.06085404
172	0x3d1c6a27	0.038187172
173	0x3dc38ba6	0.0954812
174	0x3d782c36	0.060589038
175	0x3e225aa2	0.15854886
176	0x3e26c71a	0.16286889
177	0x3d1aafd7	0.03776535
178	0x3edccddb	0.43125805
179	0x3e384d98	0.1799835
180	0x3d0a4e5c	0.033766136
181	0x3dbfc09a	0.09362908
182	0x3e1ad6a9	0.15120949
183	0xbd06702e	-0.032821827
184	0x3d29f290	0.04149109
185	0xbd46046b	-0.048344057
186	0x3dbe627b	0.092961274
187	0x3e205e04	0.15660864
188	0x3d0f79c6	0.03502824
189	0xbe0c8827	-0.13723813
190	0x3dab042f	0.08350407
191	0x3e59fd8d	0.21288128
192	0xbcf9230d	-0.030412221
193	0xbd6d587d	-0.057945717
194	0x3d440f30	0.047866046
195	0x3e211bf4	0.1573332
196	0x3acc0eba	0.0015568354
197	0x3e1ab621	0.15108539
198	0xbc83c674	-0.01608584
199	0x3e681785	0.22665222
200	0xbc56d3cf	-0.013112023
201	0x3e123586	0.1427823
202	0x3e1b9d8d	0.1519682
203	0x3e351d6c	0.17687005
204	0x3cca8ad9	0.02472441
205	0x3e64ffcf	0.22363208
206	0x3e78d634	0.24300462
207	0xbda97690	-0.08274567
208	0x3e282ed7	0.16424118
209	0x3e06f3ae	0.13178894
210	0x3e091272	0.13385943
211	0xbd835b75	-0.064139284
212	0xbccad722	-0.024760786
213	0x3e3ad1e4	0.1824413
214	0x3e3bdf0b	0.18346803
215	0x3d91ff41	0.07128764
216	0x3dc74bd4	0.0973126
217	0xbd52a14c	-0.051423356
218	0x3dc4a3ab	0.0960153
219	0x3b558078	0.0032577794
220	0x3dc6c57f	0.09705638
221	0x3e963b0c	0.29341924
222	0x3e201771	0.15633942
223	0x3d96fd18	0.073724926
224	0x3d85ab64	0.06526831
225	0x3e72d60b	0.23714463
226	0x3eb830a9	0.35974625
227	0xbce1d73c	-0.027568452
228	0x3e7ae296	0.24500498
229	0xbd475639	-0.048666213
230	0x3ddd8333	0.1081604
231	0xbd0bfd3c	-0.03417705
232	0xbc326269	-0.010887721
233	0x3df03ad3	0.1172997
234	0x3dea2813	0.11433425
235	0x3e23d18c	0.15997905
236	0x3cf24926	0.029575896
237	0xbd17413f	-0.036927458
238	0xbe3c49d6	-0.18387541
239	0x3e1e4ed1	0.15459754
240	0x3e91b51b	0.28458485
241	0x3e1dd984	0.15415007
242	0x3c6de645	0.014520233
243	0x3ded1a8a	0.115773275
244	0xbc31fc5b	-0.010863389
245	0x3e0e2303	0.13880543
246	0x3c03a465	0.0080348
247	0x3d3228cb	0.043495934
248	0x3ea9b155	0.33143106
249	0xbde87138	-0.1134972
250	0x3e21582f	0.15756296
251	0x3e045a9c	0.1292519
252	0x3dbc1201	0.091831215
253	0x3df3c0de	0.11902021
254	0x3eafec83	0.34360132
255	0xbe094af0	-0.13407493

Linear2.bias f4 [48]
0	0x39b27ee2	0.0003404534
1	0x3a20cd31	0.00061340915
2	0x3e2e2715	0.17007096
3	0x3bf03586	0.0073305992
4	0xbca3d20c	-0.01999762
5	0x3d827cc3	0.06371453
6	0x3c1153b2	0.008870052
7	0x3e080ac1	0.13285352
8	0x3d80e851	0.06294311
9	0xbb2a1f6b	-0.0025958668
10	0x3db661f2	0.089054
11	0x3ea48529	0.32132843
12	0xbde06d4c	-0.10958347
13	0x3e212e30	0.15740275
14	0x3d3733c4	0.044727102
15	0x3e05036f	0.12989591
16	0x3d3b481b	0.045723062
17	0x3e0e9be1	0.1392665
18	0x3deb4f8c	0.11489782
19	0xbdf182c9	-0.117925234
20	0x3ddcdb87	0.10784059
21	0x3ef61c25	0.48068348
22	0x3e0bbcf5	0.136463
23	0x3d0bbbef	0.034114774
24	0x3e753ef7	0.239498
25	0x3e0ac82e	0.13552925
26	0x3d8be143	0.06830075
27	0xbcbf9088	-0.023384348
28	0x3ca7155c	0.020395927
29	0x3e191a84	0.14951521
30	0xbcaf5550	-0.021402985
31	0x3e16b1ed	0.14716311
32	0x3e58ee3f	0.21184634
33	0x3ea1f82b	0.3163465
34	0x3d3ad497	0.045612898
35	0xbc6e89c7	-0.014559216
36	0x3e437569	0.19087757
37	0x3e81e412	0.25369316
38	0x3d12a605	0.03580286
39	0x3cf097bb	0.029369226
40	0x3e62091f	0.22073792
41	0x3f18501d	0.59497243
42	0x3deec36d	0.11658368
43	0x3dcfe843	0.10151722
44	0x3e9f0b37	0.31063244
45	0x3d37f908	0.04491523
46	0x3e20d228	0.15705168
47	0x3d9f4ec7	0.077786975

Linear3.weight f4 [4, 48]
0	0xbe624d7e	-0.22099873
1	0xbd9f1b0e	-0.07768832
2	0xbdb03212	-0.086033
3	0xbe28eb7d	-0.16496082
4	0xbe196722	-0.14980748
5	0x3a3ea301	0.0007272214
6	0xbe240d62	-0.1602073
7	0xbe4a200c	-0.19738787
8	0xbd3d28dc	-0.046181545
9	0x3ce65b84	0.02811981
10	0xbe4f1641	-0.20223333
11	0x3f341804	0.70349145
12	0x3ad03200	0.0015884042
13	0x3d8e564d	0.06950054
14	0x3c5d5ec7	0.013511366
15	0xbdefd249	-0.117100306
16	0x3e119084	0.14215285
17	0x3d7810a6	0.060562752
18	0xbf0f6924	-0.56019807
19	0x3d1b0a34	0.037851527
20	0x3d865a26	0.06560163
21	0xbe249d07	-0.16075526
22	0xbde62736	-0.11237948
23	0x3b38db32	0.0028206822
24	0xbd9a20a6	-0.075257584
25	0xbe28deb2	-0.16491202
26	0x3d8ae4b8	0.06781906
27	0x3db2ea01	0.08736039
28	0xbd01a33d	-0.031649817
29	0xbe0ae435	-0.13563617
30	0xbe3400ae	-0.17578384
31	0x3d54712f	0.051865753
32	0x3ebd3efc	0.36962116
33	0x3da92ba3	0.08260276
34	0xbc5953a0	-0.013264567
35	0xbe950f3d	-0.29113188
36	0xbe441aa4	-0.19150788
37	0x3e49cdf9	0.19707479
38	0xbdbd93d0	-0.092567086
39	0x3ced8dea	0.028998334
40	0xbf2036e2	-0.62583745
41	0xbf89ba57	-1.0759991
42	0x3d9723fc	0.0737991
43	0xbdc756df	-0.09733366
44	0xbe0e5bd5	-0.13902219
45	0x3e15f382	0.14643672
46	0x3cc80054	0.024414219
47	0xbc85ea1f	-0.01634699
48	0x3e2cc8a5	0.16873415
49	0xbd94464f	-0.07239973
50	0xbdab7b99	-0.08373184
51	0x3dba67cc	0.09101829
52	0x3d9432f3	0.0723628
53	0x3aae5f45	0.0013303539
54	0xbe000671	-0.12502457
55	0x3d464e9f	0.048414823
56	0xbdbd0ec9	-0.09231336
57	0xbe601e93	-0.21886663
58	0xbdbb85a7	-0.091563515
59	0xbf236462	-0.63825047
60	0xbe091e61	-0.13390495
61	0xbd94b2d7	-0.072606735
62	0x3dc665a5	0.09687356
63	0xbe7a9a2b	-0.24472873
64	0x3da75bf0	0.081718326
65	0xbc7db852	-0.01548584
66	0x3e843983	0.25825128
67	0xbd2ce265	-0.042208094
68	0xbe4def43	-0.20110802
69	0xbf66a8d9	-0.9010139
70	0xbd9807da	-0.074233726
71	0x3de4dc9d	0.11174891
72	0xbe76e59c	-0.24111027
73	0xbe1a5a20	-0.15073442
74	0xbd2b0d94	-0.041760996
75	0xbecabd0d	-0.3959736
76	0xbe399680	-0.18123817
77	0x3ec85b9b	0.3913239
78	0xbe39a6ba	-0.18130007
79	0xbd5ba263	-0.05362166
80	0xbdd23cde	-0.10265516
81	0x3e06d78a	0.13168159
82	0xbd27ac8b	-0.040936034
83	0xbe8a3e4b	-0.2700065
84	0x3d86fa9e	0.0659077
85	0xbdde0deb	-0.108424984
86	0x3cd859fb	0.026410094
87	0x3d2c41c2	0.0420549
88	0xbe874df0	-0.2642665
89	0xbecb6b0c	-0.39730108
90	0x3d5b85fe	0.05359458
91	0x3d364338	0.0444977
92	0x3e2ca92f	0.16861413
93	0xbc7b7a45	-0.015348976
94	0xbe0d6a35	-0.13810046
95	0x3c15e665	0.009149169
96	0xbe5a29ba	-0.2130498
97	0xbe3d001d	-0.18457074
98	0xbc91205a	-0.017715622
99	0xbe842553	-0.25809726
100	0xbeb88603	-0.36039743
101	0x3dee266a	0.11628421
102	0xbd8f60b0	-0.070008636
103	0xbe87680e	-0.26446575
104	0xbe0d24fc	-0.1378364
105	0xbdb0bd2c	-0.08629832
106	0xbea05f1b	-0.3132256
107	0xbebaca23	-0.36482343
108	0x3e0bf553	0.13667803
109	0xbde9e563	-0.11420705
110	0x3d79c7f5	0.06098171
111	0xbcf9ca0e	-0.030491855
112	0x3d7b9464	0.061420813
113	0xbe47252a	-0.1944777
114	0x3e4a9a24	0.19785362
115	0xbb62f840	-0.0034632832
116	0xbdfa6754	-0.122267395
117	0xbc803f71	-0.015655251
118	0xbda5caf6	-0.08095352
119	0xbd93ad4d	-0.07210789
120	0xbe458233	-0.19287948
121	0x3da5696a	0.08076747
122	0x3b4d268c	0.0031303493
123	0xbe93a9f1	-0.28840593
124	0xbcb7b02a	-0.022422869
125	0xbe8a5081	-0.27014545
126	0x3d4ffcbd	0.05077814
127	0xbe81a248	-0.25319123
128	0xbebd1961	-0.36933425
129	0xbf1e0d85	-0.6173938
130	0xbb2d7580	-0.002646774
131	0x3d872a32	0.06599845
132	0xbea9ee7b	-0.3318976
133	0xbe9d1a86	-0.30684298
134	0xbda437f4	-0.08018485
135	0x3db5a931	0.08870161
136	0xb9d63acb	-0.00040861065
137	0x3d8c66ac	0.068555206
138	0x3d0509bb	0.032479983
139	0x3ca2715c	0.019829445
140	0xbf303ce8	-0.68842936
141	0xbd464aea	-0.048411287
142	0xbea06065	-0.31323543
143	0x3d748f0f	0.059706744
144	0xbe7d5d9f	-0.24742745
145	0xbe3b01d6	-0.18262419
146	0x3dd6684c	0.10469112
147	0xbdbe133c	-0.092810124
148	0xbea28659	-0.31743124
149	0x3d35bbe4	0.04436864
150	0xbda2bc8d	-0.079461195
151	0xbe87f3f8	-0.2655332
152	0x3d8e3e6e	0.06945501
153	0xbd83604a	-0.0641485
154	0xbe7cb8cc	-0.2467987
155	0xbebf5770	-0.37371397
156	0x3bdc616b	0.0067254803
157	0xbdf146cb	-0.11781081
158	0x3dc62524	0.09675053
159	0x3d6f5afe	0.058436386
160	0x3d32c75f	0.043647166
161	0xbdf49d8a	-0.11944111
162	0x3e9266b9	0.28593996
163	0x3e2d1e69	0.16906132
164	0xbe334156	-0.17505392
165	0xbdb7f7ef	-0.089828365
166	0xbe5792ed	-0.21052141
167	0x3cda57a6	0.026653122
168	0xbe8091e0	-0.25111294
169	0x3bdd7c37	0.0067591923
170	0xbde7f2b8	-0.11325592
171	0xbe4b6e66	-0.19866332
172	0xbdb62c6f	-0.08895194
173	0xbe2a459b	-0.16628115
174	0x3dd7a8e5	0.10530261
175	0xbd89676e	-0.06709181
176	0xbe4d7084	-0.20062453
177	0xbf3ad30c	-0.7297828
178	0x3d06fd84	0.032956615
179	0xbd37cbd5	-0.044872124
180	0xbe6e990f	-0.23300575
181	0xbec26383	-0.37966546
182	0x3d935f50	0.07195914
183	0xbd8e2bfe	-0.069419846
184	0xbd68c25d	-0.056825984
185	0x3cd9c303	0.026582247
186	0x3c565952	0.013082819
187	0xbe8368fb	-0.2566603
188	0xbf1fe8e3	-0.6246473
189	0x3cac8a49	0.021062033
190	0xbea55f2a	-0.32299167
191	0x3de800eb	0.113283

Linear3.bias f4 [4]
0	0x3dd50451	0.10401214
1	0xbe4cbef4	-0.19994718
2	0xbdc86f4a	-0.09786852
3	0xbe65bc85	-0.22435196

exp_avg f4 [48, 24]
0	0x00000004	6e-45
1	0x80000004	-6e-45
2	0x00000004	6e-45
3	0x00000004	6e-45
4	0x80000004	-6e-45
5	0x80000004	-6e-45
6	0x80000004	-6e-45
7	0x80000004	-6e-45
8	0x00000004	6e-45
9	0x80000004	-6e-45
10	0x00000004	6e-45
11	0x80000004	-6e-45
12	0x00000004	6e-45
13	0x00000004	6e-45
14	0x00000004	6e-45
15	0x00000004	6e-45
16	0x00000004	6e-45
17	0x00000004	6e-45
18	0x00000004	6e-45
19	0x00000004	6e-45
20	0x00000004	6e-45
21	0x00000004	6e-45
22	0x00000004	6e-45
23	0x00000004	6e-45
24	0x80000004	-6e-45
25	0x00000004	6e-45
26	0x80000004	-6e-45
27	0x00000004	6e-45
28	0x80000004	-6e-45
29	0x00000004	6e-45
30	0x80000004	-6e-45
31	0x00000004	6e-45
32	0x80000004	-6e-45
33	0x00000004	6e-45
34	0x80000004	-6e-45
35	0x00000004	6e-45
36	0x80000004	-6e-45
37	0x80000004	-6e-45
38	0x80000004	-6e-45
39	0x80000004	-6e-45
40	0x80000004	-6e-45
41	0x80000004	-6e-45
42	0x80000004	-6e-45
43	0x80000004	-6e-45
44	0x80000004	-6e-45
45	0x80000004	-6e-45
46	0x80000004	-6e-45
47	0x80000004	-6e-45
48	0x00000004	6e-45
49	0x00000004	6e-45
50	0x80000004	-6e-45
51	0x00000004	6e-45
52	0x00000004	6e-45
53	0x80000004	-6e-45
54	0x80000004	-6e-45
55	0x80000004	-6e-45
56	0x80000004	-6e-45
57	0x00000004	6e-45
58	0x00000004	6e-45
59	0x00000004	6e-45
60	0x00000004	6e-45
61	0x80000004	-6e-45
62	0x80000004	-6e-45
63	0x80000004	-6e-45
64	0x80000004	-6e-45
65	0x80000004	-6e-45
66	0x80000004	-6e-45
67	0x80000004	-6e-45
68	0x80000004	-6e-45
69	0x80000004	-6e-45
70	0x80000004	-6e-45
71	0x80000004	-6e-45
72	0x80000004	-6e-45
73	0x80000004	-6e-45
74	0x00000004	6e-45
75	0x00000004	6e-45
76	0x80000004	-6e-45
77	0x00000004	6e-45
78	0x00000004	6e-45
79	0x00000004	6e-45
80	0x80000004	-6e-45
81	0x00000004	6e-45
82	0x80000004	-6e-45
83	0x00000004	6e-45
84	0x80000004	-6e-45
85	0x80000004	-6e-45
86	0x80000004	-6e-45
87	0x80000004	-6e-45
88	0x80000004	-6e-45
89	0x80000004	-6e-45
90	0x80000004	-6e-45
91	0x80000004	-6e-45
92	0x80000004	-6e-45
93	0x80000004	-6e-45
94	0x80000004	-6e-45
95	0x80000004	-6e-45
96	0x80000004	-6e-45
97	0x80000004	-6e-45
98	0x00000004	6e-45
99	0x00000004	6e-45
100	0x80000004	-6e-45
101	0x80000004	-6e-45
102	0x00000004	6e-45
103	0x00000004	6e-45
104	0x80000004	-6e-45
105	0x00000004	6e-45
106	0x80000004	-6e-45
107	0x00000004	6e-45
108	0x80000004	-6e-45
109	0x80000004	-6e-45
110	0x80000004	-6e-45
111	0x80000004	-6e-45
112	0x80000004	-6e-45
113	0x80000004	-6e-45
114	0x80000004	-6e-45
115	0x80000004	-6e-45
116	0x80000004	-6e-45
117	0x80000004	-6e-45
118	0x80000004	-6e-45
119	0x80000004	-6e-45
120	0x80000004	-6e-45
121	0x80000004	-6e-45
122	0x00000004	6e-45
123	0x00000004	6e-45
124	0x80000004	-6e-45
125	0x80000004	-6e-45
126	0x00000004	6e-45
127	0x80000004	-6e-45
128	0x80000004	-6e-45
129	0x00000004	6e-45
130	0x80000004	-6e-45
131	0x00000004	6e-45
132	0x80000004	-6e-45
133	0x80000004	-6e-45
134	0x80000004	-6e-45
135	0x80000004	-6e-45
136	0x80000004	-6e-45
137	0x80000004	-6e-45
138	0x80000004	-6e-45
139	0x80000004	-6e-45
140	0x80000004	-6e-45
141	0x80000004	-6e-45
142	0x80000004	-6e-45
143	0x80000004	-6e-45
144	0x00000004	6e-45
145	0x00000004	6e-45
146	0x00000004	6e-45
147	0x00000004	6e-45
148	0x80000004	-6e-45
149	0x80000004	-6e-45
150	0x00000004	6e-45
151	0x00000004	6e-45
152	0x00000000	0.0
153	0x80000004	-6e-45
154	0x80000004	-6e-45
155	0x80000004	-6e-45
156	0x80000004	-6e-45
157	0x00000000	0.0
158	0x00000004	6e-45
159	0x00000004	6e-45
160	0x00000004	6e-45
161	0x00000004	6e-45
162	0x00000004	6e-45
163	0x00000004	6e-45
164	0x00000004	6e-45
165	0x00000004	6e-45
166	0x00000004	6e-45
167	0x00000004	6e-45
168	0x00000004	6e-45
169	0x00000004	6e-45
170	0x80000004	-6e-45
171	0x00000004	6e-45
172	0x00000004	6e-45
173	0x80000004	-6e-45
174	0x00000004	6e-45
175	0x00000004	6e-45
176	0x80000004	-6e-45
177	0x00000004	6e-45
178	0x80000004	-6e-45
179	0x00000004	6e-45
180	0x00000004	6e-45
181	0x80000004	-6e-45
182	0x80000004	-6e-45
183	0x80000004	-6e-45
184	0x80000004	-6e-45
185	0x80000004	-6e-45
186	0x80000004	-6e-45
187	0x80000004	-6e-45
188	0x80000004	-6e-45
189	0x80000004	-6e-45
190	0x80000004	-6e-45
191	0x80000004	-6e-45
192	0x00000004	6e-45
193	0x00000004	6e-45
194	0x80000004	-6e-45
195	0x00000004	6e-45
196	0x00000004	6e-45
197	0x80000004	-6e-45
198	0x00000004	6e-45
199	0x00000004	6e-45
200	0x80000004	-6e-45
201	0x00000004	6e-45
202	0x80000004	-6e-45
203	0x00000004	6e-45
204	0x00000004	6e-45
205	0x80000004	-6e-45
206	0x80000004	-6e-45
207	0x80000004	-6e-45
208	0x80000004	-6e-45
209	0x80000004	-6e-45
210	0x80000004	-6e-45
211	0x80000004	-6e-45
212	0x80000004	-6e-45
213	0x80000004	-6e-45
214	0x80000004	-6e-45
215	0x80000004	-6e-45
216	0x00000004	6e-45
217	0x00000004	6e-45
218	0x80000004	-6e-45
219	0x00000004	6e-45
220	0x00000004	6e-45
221	0x00000004	6e-45
222	0x80000004	-6e-45
223	0x00000004	6e-45
224	0x80000004	-6e-45
225	0x00000004	6e-45
226	0x80000004	-6e-45
227	0x00000004	6e-45
228	0x80000004	-6e-45
229	0x80000004	-6e-45
230	0x80000004	-6e-45
231	0x80000004	-6e-45
232	0x80000004	-6e-45
233	0x80000004	-6e-45
234	0x80000004	-6e-45
235	0x80000004	-6e-45
236	0x80000004	-6e-45
237	0x80000004	-6e-45
238	0x80000004	-6e-45
239	0x80000004	-6e-45
240	0x80000004	-6e-45
241	0x80000004	-6e-45
242	0x00000004	6e-45
243	0x00000004	6e-45
244	0x00000004	6e-45
245	0x00000004	6e-45
246	0x00000004	6e-45
247	0x80000004	-6e-45
248	0x80000004	-6e-45
249	0x80000004	-6e-45
250	0x00000004	6e-45
251	0x80000004	-6e-45
252	0x00000004	6e-45
253	0x80000004	-6e-45
254	0x80000004	-6e-45
255	0x80000004	-6e-45

exp_avg_sq f4 [48, 24]
0	0x000001f4	7e-43
1	0x000001f4	7e-43
2	0x000001f4	7e-43
3	0x000001f4	7e-43
4	0x000001f4	7e-43
5	0x000001f4	7e-43
6	0x000001f4	7e-43
7	0x000001f4	7e-43
8	0x000001f4	7e-43
9	0x000001f4	7e-43
10	0x000001f4	7e-43
11	0x000001f4	7e-43
12	0x000001f4	7e-43
13	0x000001f4	7e-43
14	0x000001f4	7e-43
15	0x000001f4	7e-43
16	0x000001f4	7e-43
17	0x000001f4	7e-43
18	0x000001f4	7e-43
19	0x000001f4	7e-43
20	0x000001f4	7e-43
21	0x000001f4	7e-43
22	0x000001f4	7e-43
23	0x000001f4	7e-43
24	0x000001f4	7e-43
25	0x000001f4	7e-43
26	0x000001f4	7e-43
27	0x000001f4	7e-43
28	0x000001f4	7e-43
29	0x000001f4	7e-43
30	0x000001f4	7e-43
31	0x000001f4	7e-43
32	0x000001f4	7e-43
33	0x000001f4	7e-43
34	0x000001f4	7e-43
35	0x000001f4	7e-43
36	0x000001f4	7e-43
37	0x000001f4	7e-43
38	0x000001f4	7e-43
39	0x000001f4	7e-43
40	0x000001f4	7e-43
41	0x000001f4	7e-43
42	0x000001f4	7e-43
43	0x000001f4	7e-43
44	0x000001f4	7e-43
45	0x000001f4	7e-43
46	0x000001f4	7e-43
47	0x000001f4	7e-43
48	0x000001f4	7e-43
49	0x000001f4	7e-43
50	0x000001f4	7e-43
51	0x000001f4	7e-43
52	0x000001f4	7e-43
53	0x000001f4	7e-43
54	0x000001f4	7e-43
55	0x000001f4	7e-43
56	0x000001f4	7e-43
57	0x000001f4	7e-43
58	0x000001f4	7e-43
59	0x000001f4	7e-43
60	0x000001f4	7e-43
61	0x000001f4	7e-43
62	0x000001f4	7e-43
63	0x000001f4	7e-43
64	0x000001f4	7e-43
65	0x000001f4	7e-43
66	0x000001f4	7e-43
67	0x000001f4	7e-43
68	0x000001f4	7e-43
69	0x000001f4	7e-43
70	0x000001f4	7e-43
71	0x000001f4	7e-43
72	0x000001f4	7e-43
73	0x000001f4	7e-43
74	0x000001f4	7e-43
75	0x000001f4	7e-43
76	0x000001f4	7e-43
77	0x000001f4	7e-43
78	0x000001f4	7e-43
79	0x000001f4	7e-43
80	0x000001f4	7e-43
81	0x000001f4	7e-43
82	0x000001f4	7e-43
83	0x000001f4	7e-43
84	0x000001f4	7e-43
85	0x000001f4	7e-43
86	0x000001f4	7e-43
87	0x000001f4	7e-43
88	0x000001f4	7e-43
89	0x000001f4	7e-43
90	0x000001f4	7e-43
91	0x000001f4	7e-43
92	0x000001f4	7e-43
93	0x000001f4	7e-43
94	0x000001f4	7e-43
95	0x000001f4	7e-43
96	0x000001f4	7e-43
97	0x000001f4	7e-43
98	0x000001f4	7e-43
99	0x000001f4	7e-43
100	0x000001f4	7e-43
101	0x000001f4	7e-43
102	0x000001f4	7e-43
103	0x000001f4	7e-43
104	0x000001f4	7e-43
105	0x000001f4	7e-43
106	0x000001f4	7e-43
107	0x000001f4	7e-43
108	0x000001f4	7e-43
109	0x000001f4	7e-43
110	0x000001f4	7e-43
111	0x000001f4	7e-43
112	0x000001f4	7e-43
113	0x000001f4	7e-43
114	0x000001f4	7e-43
115	0x000001f4	7e-43
116	0x000001f4	7e-43
117	0x000001f4	7e-43
118	0x000001f4	7e-43
119	0x000001f4	7e-43
120	0x000001f4	7e-43
121	0x000001f4	7e-43
122	0x000001f4	7e-43
123	0x000001f4	7e-43
124	0x000001f4	7e-43
125	0x000001f4	7e-43
126	0x000001f4	7e-43
127	0x000001f4	7e-43
128	0x000001f4	7e-43
129	0x000001f4	7e-43
130	0x000001f4	7e-43
131	0x000001f4	7e-43
132	0x000001f4	7e-43
133	0x000001f4	7e-43
134	0x000001f4	7e-43
135	0x000001f4	7e-43
136	0x000001f4	7e-43
137	0x000001f4	7e-43
138	0x000001f4	7e-43
139	0x000001f4	7e-43
140	0x000001f4	7e-43
141	0x000001f4	7e-43
142	0x000001f4	7e-43
143	0x000001f4	7e-43
144	0x000001f4	7e-43
145	0x000001f4	7e-43
146	0x000001f4	7e-43
147	0x000001f4	7e-43
148	0x000001f4	7e-43
149	0x000001f4	7e-43
150	0x000001f4	7e-43
151	0x000001f4	7e-43
152	0x00000000	0.0
153	0x000001f4	7e-43
154	0x000001f4	7e-43
155	0x000001f4	7e-43
156	0x000001f4	7e-43
157	0x00000000	0.0
158	0x000001f4	7e-43
159	0x000001f4	7e-43
160	0x000001f4	7e-43
161	0x000001f4	7e-43
162	0x000001f4	7e-43
163	0x000001f4	7e-43
164	0x000001f4	7e-43
165	0x000001f4	7e-43
166	0x000001f4	7e-43
167	0x000001f4	7e-43
168	0x18b80b90	4.757456e-24
169	0x16585705	1.74758e-25
170	0x17a7e93f	1.0851002e-24
171	0x17a0aad9	1.0382886e-24
172	0x19983f1d	1.5741923e-23
173	0x01da687a	8.023047e-38
174	0x19605112	1.15969006e-23
175	0x19da686d	2.2582849e-23
176	0x000001f4	7e-43
177	0x19978301	1.5665946e-23
178	0x000001f4	7e-43
179	0x192202e6	8.375789e-24
180	0x000001f4	7e-43
181	0x000001f4	7e-43
182	0x17093de4	4.4345204e-25
183	0x170c6071	4.5358166e-25
184	0x17165fca	4.8588517e-25
185	0x17294411	5.4692757e-25
186	0x17497a19	6.510071e-25
187	0x17802cdb	8.283129e-25
188	0x17b1973b	1.1476533e-24
189	0x180a95ac	1.7911647e-24
190	0x1882a73d	3.377308e-24
191	0x193483a5	9.332367e-24
192	0x14d70ec6	2.1715279e-26
193	0x127ccb48	7.9767743e-28
194	0x13c43471	4.9529067e-27
195	0x13bbbd99	4.7392394e-27
196	0x15b1e696	7.185353e-26
197	0x0003fcd9	3.66211e-40
198	0x15830ebd	5.293373e-26
199	0x15ff35fb	1.03078846e-25
200	0x000001f4	7e-43
201	0x15b10ac7	7.1506734e-26
202	0x000001f4	7e-43
203	0x153d4f9b	3.8231044e-26
204	0x000001f4	7e-43
205	0x000001f4	7e-43
206	0x13205e33	2.0241283e-27
207	0x132407f2	2.0703627e-27
208	0x132fb69c	2.2178139e-27
209	0x1345c9e0	2.4964428e-27
210	0x136b6d4a	2.9715054e-27
211	0x1395c5e8	3.780804e-27
212	0x13cf840b	5.238435e-27
213	0x1421f002	8.175756e-27
214	0x1498ab6f	1.5415696e-26
215	0x1552ee9d	4.2597395e-26
216	0x000001f4	7e-43
217	0x000001f4	7e-43
218	0x000001f4	7e-43
219	0x000001f4	7e-43
220	0x000001f4	7e-43
221	0x000001f4	7e-43
222	0x000001f4	7e-43
223	0x000001f4	7e-43
224	0x000001f4	7e-43
225	0x000001f4	7e-43
226	0x000001f4	7e-43
227	0x000001f4	7e-43
228	0x000001f4	7e-43
229	0x000001f4	7e-43
230	0x000001f4	7e-43
231	0x000001f4	7e-43
232	0x000001f4	7e-43
233	0x000001f4	7e-43
234	0x000001f4	7e-43
235	0x000001f4	7e-43
236	0x000001f4	7e-43
237	0x000001f4	7e-43
238	0x000001f4	7e-43
239	0x000001f4	7e-43
240	0x000001f4	7e-43
241	0x000001f4	7e-43
242	0x000001f4	7e-43
243	0x000001f4	7e-43
244	0x000001f4	7e-43
245	0x000001f4	7e-43
246	0x000001f4	7e-43
247	0x000001f4	7e-43
248	0x000001f4	7e-43
249	0x000001f4	7e-43
250	0x000001f4	7e-43
251	0x000001f4	7e-43
252	0x000001f4	7e-43
253	0x000001f4	7e-43
254	0x000001f4	7e-43
255	0x000001f4	7e-43

exp_avg f4 [48]
0	0x00000004	6e-45
1	0x80000004	-6e-45
2	0x80000004	-6e-45
3	0x80000004	-6e-45
4	0x80000004	-6e-45
5	0x80000004	-6e-45
6	0x00000004	6e-45
7	0x80000004	-6e-45
8	0x80000004	-6e-45
9	0x80000004	-6e-45
10	0x80000004	-6e-45
11	0x80000004	-6e-45
12	0x80000004	-6e-45
13	0x80000004	-6e-45
14	0x00000004	6e-45
15	0x80000004	-6e-45
16	0x80000004	-6e-45
17	0x80000004	-6e-45
18	0x80000004	-6e-45
19	0x80000004	-6e-45
20	0x00000004	6e-45
21	0x80000004	-6e-45
22	0x80000004	-6e-45
23	0x80000004	-6e-45
24	0x80000004	-6e-45
25	0x80000004	-6e-45
26	0x80000004	-6e-45
27	0x00000004	6e-45
28	0x80000004	-6e-45
29	0x80000004	-6e-45
30	0x80000004	-6e-45
31	0x80000004	-6e-45
32	0x80000004	-6e-45
33	0x80000004	-6e-45
34	0x80000004	-6e-45
35	0x80000004	-6e-45
36	0x00000004	6e-45
37	0x80000004	-6e-45
38	0x00000004	6e-45
39	0x80000004	-6e-45
40	0x80000004	-6e-45
41	0x80000004	-6e-45
42	0x80000004	-6e-45
43	0x80000004	-6e-45
44	0x80000004	-6e-45
45	0x80000004	-6e-45
46	0x80000004	-6e-45
47	0x80000004	-6e-45

exp_avg_sq f4 [48]
0	0x000001f4	7e-43
1	0x000001f4	7e-43
2	0x000001f4	7e-43
3	0x000001f4	7e-43
4	0x000001f4	7e-43
5	0x000001f4	7e-43
6	0x000001f4	7e-43
7	0x19da687a	2.258287e-23
8	0x15ff35fd	1.0307886e-25
9	0x000001f4	7e-43
10	0x000001f4	7e-43
11	0x000001f4	7e-43
12	0x000001f4	7e-43
13	0x19656143	1.1858664e-23
14	0x12835980	8.289326e-28
15	0x000001f4	7e-43
16	0x197bf1e5	1.3025246e-23
17	0x000001f4	7e-43
18	0x000001f4	7e-43
19	0x1993174f	1.5208858e-23
20	0x139fac6e	4.030727e-27
21	0x000001f4	7e-43
22	0x000001f4	7e-43
23	0x000001f4	7e-43
24	0x19b9fd31	1.9230815e-23
25	0x000001f4	7e-43
26	0x1a5916e9	4.4893055e-23
27	0x000001f4	7e-43
28	0x19e5b040	2.3749232e-23
29	0x19368942	9.4368985e-24
30	0x19a3ee85	1.6950142e-23
31	0x000001f4	7e-43
32	0x19990428	1.5821508e-23
33	0x1a008453	2.657667e-23
34	0x18d1cbcc	5.4231016e-24
35	0x000001f4	7e-43
36	0x000001f4	7e-43
37	0x000001f4	7e-43
38	0x000001f4	7e-43
39	0x172fdb9f	5.682275e-25
40	0x198d24e8	1.4593965e-23
41	0x000001f4	7e-43
42	0x1984ab66	1.3717707e-23
43	0x000001f4	7e-43
44	0x000001f4	7e-43
45	0x000001f4	7e-43
46	0x1afe324a	1.05133184e-22
47	0x181715d1	1.9527307e-24

exp_avg f4 [48, 48]
0	0x00000004	6e-45
1	0x00000004	6e-45
2	0x00000004	6e-45
3	0x00000004	6e-45
4	0x00000004	6e-45
5	0x00000004	6e-45
6	0x80000004	-6e-45
7	0x00000004	6e-45
8	0x00000004	6e-45
9	0x00000004	6e-45
10	0x00000004	6e-45
11	0x00000004	6e-45
12	0x00000004	6e-45
13	0x00000004	6e-45
14	0x00000004	6e-45
15	0x00000004	6e-45
16	0x00000004	6e-45
17	0x00000004	6e-45
18	0x00000004	6e-45
19	0x00000004	6e-45
20	0x00000004	6e-45
21	0x00000004	6e-45
22	0x00000004	6e-45
23	0x00000004	6e-45
24	0x00000004	6e-45
25	0x00000004	6e-45
26	0x00000004	6e-45
27	0x00000004	6e-45
28	0x00000004	6e-45
29	0x00000004	6e-45
30	0x00000004	6e-45
31	0x80000004	-6e-45
32	0x00000004	6e-45
33	0x00000004	6e-45
34	0x00000004	6e-45
35	0x00000004	6e-45
36	0x80000004	-6e-45
37	0x00000004	6e-45
38	0x00000004	6e-45
39	0x00000004	6e-45
40	0x00000004	6e-45
41	0x00000004	6e-45
42	0x00000004	6e-45
43	0x00000004	6e-45
44	0x00000004	6e-45
45	0x00000004	6e-45
46	0x00000004	6e-45
47	0x00000004	6e-45
48	0x80000004	-6e-45
49	0x80000004	-6e-45
50	0x80000004	-6e-45
51	0x80000004	-6e-45
52	0x80000004	-6e-45
53	0x80000004	-6e-45
54	0x80000004	-6e-45
55	0x80000004	-6e-45
56	0x80000004	-6e-45
57	0x80000004	-6e-45
58	0x80000004	-6e-45
59	0x80000004	-6e-45
60	0x80000004	-6e-45
61	0x80000004	-6e-45
62	0x80000004	-6e-45
63	0x80000004	-6e-45
64	0x80000004	-6e-45
65	0x80000004	-6e-45
66	0x80000004	-6e-45
67	0x80000004	-6e-45
68	0x80000004	-6e-45
69	0x80000004	-6e-45
70	0x80000004	-6e-45
71	0x80000004	-6e-45
72	0x80000004	-6e-45
73	0x80000004	-6e-45
74	0x80000004	-6e-45
75	0x80000004	-6e-45
76	0x80000004	-6e-45
77	0x80000004	-6e-45
78	0x80000004	-6e-45
79	0x80000004	-6e-45
80	0x80000004	-6e-45
81	0x80000004	-6e-45
82	0x80000004	-6e-45
83	0x80000004	-6e-45
84	0x80000004	-6e-45
85	0x80000004	-6e-45
86	0x80000004	-6e-45
87	0x80000004	-6e-45
88	0x80000004	-6e-45
89	0x80000004	-6e-45
90	0x80000004	-6e-45
91	0x80000004	-6e-45
92	0x80000004	-6e-45
93	0x80000004	-6e-45
94	0x80000004	-6e-45
95	0x80000004	-6e-45
96	0x80000004	-6e-45
97	0x80000004	-6e-45
98	0x80000004	-6e-45
99	0x80000004	-6e-45
100	0x80000004	-6e-45
101	0x80000004	-6e-45
102	0x00000000	0.0
103	0x80000004	-6e-45
104	0x80000004	-6e-45
105	0x80000004	-6e-45
106	0x80000004	-6e-45
107	0x80000004	-6e-45
108	0x80000004	-6e-45
109	0x80000004	-6e-45
110	0x80000004	-6e-45
111	0x80000004	-6e-45
112	0x80000004	-6e-45
113	0x80000004	-6e-45
114	0x80000004	-6e-45
115	0x80000004	-6e-45
116	0x80000004	-6e-45
117	0x80000004	-6e-45
118	0x80000004	-6e-45
119	0x80000004	-6e-45
120	0x80000004	-6e-45
121	0x80000004	-6e-45
122	0x80000004	-6e-45
123	0x80000004	-6e-45
124	0x80000004	-6e-45
125	0x80000004	-6e-45
126	0x80000004	-6e-45
127	0x80000004	-6e-45
128	0x80000004	-6e-45
129	0x80000004	-6e-45
130	0x80000004	-6e-45
131	0x80000004	-6e-45
132	0x80000004	-6e-45
133	0x80000004	-6e-45
134	0x80000004	-6e-45
135	0x80000004	-6e-45
136	0x80000004	-6e-45
137	0x80000004	-6e-45
138	0x80000004	-6e-45
139	0x80000004	-6e-45
140	0x80000004	-6e-45
141	0x80000004	-6e-45
142	0x80000004	-6e-45
143	0x80000004	-6e-45
144	0x00000004	6e-45
145	0x00000004	6e-45
146	0x00000004	6e-45
147	0x00000004	6e-45
148	0x00000004	6e-45
149	0x00000004	6e-45
150	0x80000004	-6e-45
151	0x00000004	6e-45
152	0x00000004	6e-45
153	0x00000004	6e-45
154	0x00000004	6e-45
155	0x00000004	6e-45
156	0x00000004	6e-45
157	0x00000004	6e-45
158	0x00000004	6e-45
159	0x00000004	6e-45
160	0x00000004	6e-45
161	0x00000004	6e-45
162	0x00000004	6e-45
163	0x00000004	6e-45
164	0x00000004	6e-45
165	0x00000004	6e-45
166	0x00000004	6e-45
167	0x00000004	6e-45
168	0x00000004	6e-45
169	0x00000004	6e-45
170	0x00000004	6e-45
171	0x00000004	6e-45
172	0x00000004	6e-45
173	0x00000004	6e-45
174	0x00000004	6e-45
175	0x80000004	-6e-45
176	0x00000004	6e-45
177	0x00000004	6e-45
178	0x00000004	6e-45
179	0x00000004	6e-45
180	0x80000004	-6e-45
181	0x00000004	6e-45
182	0x00000004	6e-45
183	0x00000004	6e-45
184	0x00000004	6e-45
185	0x00000004	6e-45
186	0x00000004	6e-45
187	0x00000004	6e-45
188	0x00000004	6e-45
189	0x00000004	6e-45
190	0x00000004	6e-45
191	0x00000004	6e-45
192	0x00000004	6e-45
193	0x00000004	6e-45
194	0x00000004	6e-45
195	0x00000004	6e-45
196	0x00000004	6e-45
197	0x00000004	6e-45
198	0x80000004	-6e-45
199	0x00000004	6e-45
200	0x00000004	6e-45
201	0x00000004	6e-45
202	0x00000004	6e-45
203	0x00000004	6e-45
204	0x00000004	6e-45
205	0x00000004	6e-45
206	0x00000004	6e-45
207	0x00000004	6e-45
208	0x00000004	6e-45
209	0x00000004	6e-45
210	0x00000004	6e-45
211	0x00000004	6e-45
212	0x00000004	6e-45
213	0x00000004	6e-45
214	0x00000004	6e-45
215	0x00000004	6e-45
216	0x00000004	6e-45
217	0x00000004	6e-45
218	0x00000004	6e-45
219	0x00000004	6e-45
220	0x00000004	6e-45
221	0x00000004	6e-45
222	0x00000004	6e-45
223	0x80000004	-6e-45
224	0x00000004	6e-45
225	0x00000004	6e-45
226	0x00000004	6e-45
227	0x00000004	6e-45
228	0x80000004	-6e-45
229	0x00000004	6e-45
230	0x00000004	6e-45
231	0x00000004	6e-45
232	0x00000004	6e-45
233	0x00000004	6e-45
234	0x00000004	6e-45
235	0x00000004	6e-45
236	0x00000004	6e-45
237	0x00000004	6e-45
238	0x00000004	6e-45
239	0x00000004	6e-45
240	0x00000004	6e-45
241	0x00000004	6e-45
242	0x00000004	6e-45
243	0x00000004	6e-45
244	0x00000004	6e-45
245	0x00000004	6e-45
246	0x00000004	6e-45
247	0x00000004	6e-45
248	0x00000004	6e-45
249	0x00000004	6e-45
250	0x00000004	6e-45
251	0x00000004	6e-45
252	0x00000004	6e-45
253	0x00000004	6e-45
254	0x00000004	6e-45
255	0x00000004	6e-45

exp_avg_sq f4 [48, 48]
0	0x000001f4	7e-43
1	0x000001f4	7e-43
2	0x000001f4	7e-43
3	0x000001f4	7e-43
4	0x000001f4	7e-43
5	0x000001f4	7e-43
6	0x000001f4	7e-43
7	0x1719ac18	4.965418e-25
8	0x13d9d4cc	5.4988335e-27
9	0x000001f4	7e-43
10	0x000001f4	7e-43
11	0x000001f4	7e-43
12	0x000001f4	7e-43
13	0x1655841b	1.7247688e-25
14	0x167f32d2	2.0614772e-25
15	0x000001f4	7e-43
16	0x178c7482	9.076699e-25
17	0x000001f4	7e-43
18	0x000001f4	7e-43
19	0x1642421b	1.5692054e-25
20	0x15706d4b	4.855383e-26
21	0x000001f4	7e-43
22	0x000001f4	7e-43
23	0x000001f4	7e-43
24	0x166cee4e	1.9139124e-25
25	0x000001f4	7e-43
26	0x167059eb	1.9415419e-25
27	0x000001f4	7e-43
28	0x11a59f6a	2.6130656e-28
29	0x160423e0	1.0674195e-25
30	0x15f38510	9.8356854e-26
31	0x000001f4	7e-43
32	0x158b45a1	5.625151e-26
33	0x16fa8ca0	4.0478425e-25
34	0x1596b305	6.086696e-26
35	0x000001f4	7e-43
36	0x000001f4	7e-43
37	0x000001f4	7e-43
38	0x000001f4	7e-43
39	0x14542928	1.07113814e-26
40	0x14d3b357	2.1376292e-26
41	0x000001f4	7e-43
42	0x13580599	2.7265793e-27
43	0x000001f4	7e-43
44	0x000001f4	7e-43
45	0x000001f4	7e-43
46	0x17b51c3a	1.1703976e-24
47	0x13c63088	5.0030082e-27
48	0x000001f4	7e-43
49	0x000001f4	7e-43
50	0x000001f4	7e-43
51	0x000001f4	7e-43
52	0x000001f4	7e-43
53	0x000001f4	7e-43
54	0x000001f4	7e-43
55	0x15e23ded	9.1378375e-26
56	0x12a05961	1.0119453e-27
57	0x000001f4	7e-43
58	0x000001f4	7e-43
59	0x000001f4	7e-43
60	0x000001f4	7e-43
61	0x151d2c35	3.174077e-26
62	0x153bdb40	3.7937307e-26
63	0x000001f4	7e-43
64	0x164ec876	1.6703802e-25
65	0x000001f4	7e-43
66	0x000001f4	7e-43
67	0x150eff4b	2.8878062e-26
68	0x1430fb94	8.935344e-27
69	0x000001f4	7e-43
70	0x000001f4	7e-43
71	0x000001f4	7e-43
72	0x152e68ae	3.5221598e-26
73	0x000001f4	7e-43
74	0x1530ed4c	3.573011e-26
75	0x000001f4	7e-43
76	0x1073d61a	4.8088238e-29
77	0x14c28a90	1.9643647e-26
78	0x14b34255	1.8100544e-26
79	0x000001f4	7e-43
80	0x144d0a76	1.0351918e-26
81	0x15b86f1c	7.449231e-26
82	0x145ddd6b	1.1201316e-26
83	0x000001f4	7e-43
84	0x000001f4	7e-43
85	0x000001f4	7e-43
86	0x000001f4	7e-43
87	0x131c2ce3	1.97121e-27
88	0x139bd638	3.9338737e-27
89	0x000001f4	7e-43
90	0x121f047a	5.017707e-28
91	0x000001f4	7e-43
92	0x000001f4	7e-43
93	0x000001f4	7e-43
94	0x16855197	2.15388e-25
95	0x1291e407	9.207e-28
96	0x000001f4	7e-43
97	0x000001f4	7e-43
98	0x000001f4	7e-43
99	0x000001f4	7e-43
100	0x000001f4	7e-43
101	0x000001f4	7e-43
102	0x00000000	0.0
103	0x161757ad	1.2225348e-25
104	0x12d68764	1.3538675e-27
105	0x000001f4	7e-43
106	0x000001f4	7e-43
107	0x000001f4	7e-43
108	0x000001f4	7e-43
109	0x15524769	4.2465495e-26
110	0x157b5420	5.075541e-26
111	0x000001f4	7e-43
112	0x168a536d	2.2347752e-25
113	0x000001f4	7e-43
114	0x000001f4	7e-43
115	0x153f501e	3.8635344e-26
116	0x146cc80f	1.195441e-26
117	0x000001f4	7e-43
118	0x000001f4	7e-43
119	0x000001f4	7e-43
120	0x156956b9	4.7122387e-26
121	0x000001f4	7e-43
122	0x156cb4f7	4.7802577e-26
123	0x000001f4	7e-43
124	0x10a31cab	6.4336334e-29
125	0x15022308	2.6280926e-26
126	0x14efd3d8	2.421639e-26
127	0x000001f4	7e-43
128	0x14892905	1.3849644e-26
129	0x15f6c001	9.966154e-26
130	0x14946a14	1.4986021e-26
131	0x000001f4	7e-43
132	0x000001f4	7e-43
133	0x000001f4	7e-43
134	0x000001f4	7e-43
135	0x1350f1a6	2.6372433e-27
136	0x13d07db9	5.2630554e-27
137	0x000001f4	7e-43
138	0x1254bf02	6.713084e-28
139	0x000001f4	7e-43
140	0x000001f4	7e-43
141	0x000001f4	7e-43
142	0x16b25d54	2.881635e-25
143	0x12c32f2c	1.2317859e-27
144	0x000001f4	7e-43
145	0x000001f4	7e-43
146	0x000001f4	7e-43
147	0x000001f4	7e-43
148	0x000001f4	7e-43
149	0x000001f4	7e-43
150	0x000001f4	7e-43
151	0x1632dfe0	1.4449368e-25
152	0x12fd8e05	1.6001555e-27
153	0x000001f4	7e-43
154	0x000001f4	7e-43
155	0x000001f4	7e-43
156	0x000001f4	7e-43
157	0x15788838	5.019066e-26
158	0x1594867b	5.9988897e-26
159	0x000001f4	7e-43
160	0x16a37d67	2.641321e-25
161	0x000001f4	7e-43
162	0x000001f4	7e-43
163	0x15621ddf	4.56639e-26
164	0x148bedbe	1.4129186e-26
165	0x000001f4	7e-43
166	0x000001f4	7e-43
167	0x000001f4	7e-43
168	0x1589e4b7	5.569471e-26
169	0x000001f4	7e-43
170	0x158be26d	5.649889e-26
171	0x000001f4	7e-43
172	0x10c0c8f9	7.6040294e-29
173	0x1519cfaf	3.1061937e-26
174	0x150dba6b	2.862178e-26
175	0x000001f4	7e-43
176	0x14a21cc0	1.636916e-26
177	0x1611d1ee	1.1779249e-25
178	0x14af69fd	1.771229e-26
179	0x000001f4	7e-43
180	0x000001f4	7e-43
181	0x000001f4	7e-43
182	0x000001f4	7e-43
183	0x1376f48d	3.1170138e-27
184	0x13f66b7e	6.2205126e-27
185	0x000001f4	7e-43
186	0x127b72fb	7.934336e-28
187	0x000001f4	7e-43
188	0x000001f4	7e-43
189	0x000001f4	7e-43
190	0x16d2cfef	3.4058554e-25
191	0x12e6b144	1.455874e-27
192	0x000001f4	7e-43
193	0x000001f4	7e-43
194	0x000001f4	7e-43
195	0x000001f4	7e-43
196	0x000001f4	7e-43
197	0x000001f4	7e-43
198	0x000001f4	7e-43
199	0x15e2220a	9.133438e-26
200	0x12a045da	1.0114639e-27
201	0x000001f4	7e-43
202	0x000001f4	7e-43
203	0x000001f4	7e-43
204	0x000001f4	7e-43
205	0x151d1907	3.172564e-26
206	0x153bc41f	3.791906e-26
207	0x000001f4	7e-43
208	0x164eaf27	1.6695816e-25
209	0x000001f4	7e-43
210	0x000001f4	7e-43
211	0x150eedbd	2.8864214e-26
212	0x1430e5df	8.931063e-27
213	0x000001f4	7e-43
214	0x000001f4	7e-43
215	0x000001f4	7e-43
216	0x152e5350	3.5204742e-26
217	0x000001f4	7e-43
218	0x1530d798	3.571299e-26
219	0x000001f4	7e-43
220	0x1073b823	4.8065154e-29
221	0x14c272c9	1.9634269e-26
222	0x14b32c61	1.8091885e-26
223	0x000001f4	7e-43
224	0x144cf15a	1.0346966e-26
225	0x15b8586e	7.4456526e-26
226	0x145dc21f	1.1195932e-26
227	0x000001f4	7e-43
228	0x000001f4	7e-43
229	0x000001f4	7e-43
230	0x000001f4	7e-43
231	0x131c19bb	1.9702654e-27
232	0x139bc30b	3.931983e-27
233	0x000001f4	7e-43
234	0x121ef0e9	5.0152954e-28
235	0x000001f4	7e-43
236	0x000001f4	7e-43
237	0x000001f4	7e-43
238	0x16854124	2.1528418e-25
239	0x1291d231	9.202603e-28
240	0x000001f4	7e-43
241	0x000001f4	7e-43
242	0x000001f4	7e-43
243	0x000001f4	7e-43
244	0x000001f4	7e-43
245	0x000001f4	7e-43
246	0x000001f4	7e-43
247	0x101cdc8f	3.0935487e-29
248	0x0cde5a34	3.4258805e-31
249	0x000001f4	7e-43
250	0x000001f4	7e-43
251	0x000001f4	7e-43
252	0x000001f4	7e-43
253	0x0f59f293	1.0745644e-29
254	0x0f823f53	1.2843381e-29
255	0x000001f4	7e-43

exp_avg f4 [48]
0	0x00000004	6e-45
1	0x80000004	-6e-45
2	0x80000004	-6e-45
3	0x00000004	6e-45
4	0x00000004	6e-45
5	0x00000004	6e-45
6	0x80000004	-6e-45
7	0x00000004	6e-45
8	0x80000004	-6e-45
9	0x80000004	-6e-45
10	0x80000004	-6e-45
11	0x80000004	-6e-45
12	0x00000004	6e-45
13	0x80000004	-6e-45
14	0x00000004	6e-45
15	0x80000004	-6e-45
16	0x00000004	6e-45
17	0x80000004	-6e-45
18	0x00000004	6e-45
19	0x00000004	6e-45
20	0x80000004	-6e-45
21	0x80000004	-6e-45
22	0x80000004	-6e-45
23	0x00000004	6e-45
24	0x80000004	-6e-45
25	0x80000004	-6e-45
26	0x80000004	-6e-45
27	0x80000004	-6e-45
28	0x80000004	-6e-45
29	0x00000004	6e-45
30	0x80000004	-6e-45
31	0x80000004	-6e-45
32	0x80000004	-6e-45
33	0x00000004	6e-45
34	0x00000004	6e-45
35	0x80000004	-6e-45
36	0x00000004	6e-45
37	0x80000004	-6e-45
38	0x00000004	6e-45
39	0x00000004	6e-45
40	0x80000004	-6e-45
41	0x80000004	-6e-45
42	0x00000004	6e-45
43	0x00000004	6e-45
44	0x00000004	6e-45
45	0x80000004	-6e-45
46	0x80000004	-6e-45
47	0x00000004	6e-45

exp_avg_sq f4 [48]
0	0x1761ead1	7.29978e-25
1	0x16264d2f	1.3433728e-25
2	0x165e7ddf	1.7972735e-25
3	0x16837bcf	2.1242326e-25
4	0x162638cf	1.3427299e-25
5	0x10669b10	4.5478958e-29
6	0x16f8060f	4.0070384e-25
7	0x1594d4fb	6.011275e-26
8	0x168733d9	2.1843147e-25
9	0x17be09e2	1.2280957e-24
10	0x1685033a	2.1489345e-25
11	0x194a0171	1.0443446e-23
12	0x000001f4	7e-43
13	0x16274bff	1.3514133e-25
14	0x1694ecb7	2.4060078e-25
15	0x17ed9731	1.5353932e-24
16	0x000001f4	7e-43
17	0x13f31836	6.1365698e-27
18	0x18044e1e	1.710004e-24
19	0x000001f4	7e-43
20	0x17a07313	1.0368806e-24
21	0x19c947a1	2.0811844e-23
22	0x162ed76c	1.4123583e-25
23	0x000001f4	7e-43
24	0x17e69d0e	1.4903048e-24
25	0x1734421b	5.8244574e-25
26	0x155d6067	4.4706643e-26
27	0x189b818a	4.019736e-24
28	0x17824edf	8.420963e-25
29	0x1897e4d6	3.926365e-24
30	0x17826492	8.426441e-25
31	0x15b674a5	7.369325e-26
32	0x16a73668	2.701464e-25
33	0x1709a156	4.447072e-25
34	0x000001f4	7e-43
35	0x18109a3b	1.868943e-24
36	0x1609e51e	1.1139069e-25
37	0x16ba8234	3.013209e-25
38	0x000001f4	7e-43
39	0x000001f4	7e-43
40	0x180a8252	1.7901877e-24
41	0x189c8747	4.046165e-24
42	0x15b65e3e	7.36579e-26
43	0x157b6d22	5.0775137e-26
44	0x1761a184	7.290528e-25
45	0x000001f4	7e-43
46	0x17174fc1	4.8891395e-25
47	0x132a33a0	2.148247e-27
