ModelPara/DDPG/Mario_localPi_DDPG2021-10-08T13-34-58.pth (torch, 51007 bytes, 18 tensors)

Linear1.weight f4 [48, 24]
000000 2b 2d c8 3d 6d e8 20 3e fd 61 a9 3d bc ad 63 be
       0.0977424 0.15713663 0.08270643 -0.22234243
000010 42 57 c3 bd 74 87 09 be 40 8e 80 be 40 e9 97 3d
       -0.095381275 -0.13430578 -0.25108528 0.07417536
000020 e1 9b 2c bd 0f 5c 7b 3d 15 19 7e bd 50 16 28 3e
       -0.042140845 0.06136709 -0.06203564 0.16414762
000030 76 e3 0e 3e ec 87 12 3e af 81 5b 3d 23 d5 0d be
       0.13953957 0.14309663 0.053590473 -0.13850836
000040 97 ed 23 be c3 8d fc bc 21 b6 eb 3d 78 9c 55 bd
       -0.16008602 -0.030829316 0.11509348 -0.052151173
000050 eb a7 4c 3e 2f d2 37 be 24 f1 8c bd b5 04 cb 3d
       0.1998593 -0.17951272 -0.068819314 0.09913007
000060 dc 65 8d ba 81 d1 e8 bd 4f 74 88 3c f0 7d 6c bc
       -0.0010787803 -0.11368085 0.016657023 -0.014434323
000070 a4 cc 9d 3e 3d e4 39 bd 4d 05 9e 3d 97 af 90 bd
       0.3082019 -0.04538368 0.07715855 -0.07064741
000080 8f 15 4a 3d e2 9d 09 3d 00 35 4b 3e 30 10 bd 3e
       0.049336966 0.033597834 0.19844437 0.36926413
000090 0e 87 3c 3e e1 88 3a bd dd aa 5f 3e fa 90 54 3e
       0.18410894 -0.045540694 0.21842523 0.20758429
0000a0 a5 24 23 3d bf 81 2e 3e eb a1 58 3e 0b 79 3c 3e
       0.03982987 0.17041682 0.21155517 0.18405549
0000b0 55 32 35 be 42 47 1b be 22 f4 d1 bc 28 35 a3 bd
       -0.17694981 -0.15163901 -0.025629107 -0.07969123
0000c0 fc 5f 8f be 65 e6 50 be 15 b2 69 3d 9a ed 50 be
       -0.28002918 -0.20400389 0.057054598 -0.20403138
0000d0 f2 30 5f 3e e1 89 b1 3d 8e fe bb 3d ba 0f 19 3e
       0.21796015 0.086688764 0.09179412 0.14947405
0000e0 3c 32 a8 3c 4e 43 6e 3e db 35 54 3e 42 c1 1a 3e
       0.020531766 0.23267862 0.20723669 0.15112785
0000f0 db 8c b8 3c 58 7d 28 bd 27 ea 69 bd 6e 87 67 3d
       0.022528103 -0.041135162 -0.05710807 0.05652564
000100 36 bc e5 bd bf a9 20 3e fe c2 22 3e 8d e5 b4 bd
       -0.11217539 0.15689753 0.15894696 -0.08832846
000110 45 b3 34 3e 7c 05 3c be 0d 0e 32 3d 04 7d 4c bd
       0.17646511 -0.18361467 0.04347043 -0.04992391
000120 36 41 23 3e a1 8c b6 3d fe 2d 9a be 92 3c bc be
       0.15942845 0.089135416 -0.30113214 -0.3676496
000130 72 62 01 3e bc a2 8e bc 89 6e 9e 3d 06 8e ec 3d
       0.1263521 -0.017411582 0.07735927 0.11550526
000140 c2 72 c5 3d 0b 32 7e 3e d2 bc 07 3e 07 dc 46 3e
       0.09641029 0.24823777 0.13255623 0.19419871
000150 99 b3 4e 3e 2c 1f 82 bc aa a6 c6 3c 5e 3b c8 bd
       0.20185699 -0.015884005 0.024249393 -0.097769484
000160 48 e5 06 3e 45 cb cf b8 05 f0 94 bc 27 b1 cc 3c
       0.13173401 -9.908391e-05 -0.018180856 0.024986817
000170 33 f0 39 bd 7b b1 1b bc 50 25 15 be 13 9f 62 bd
       -0.045395087 -0.009502764 -0.14565015 -0.055327486
000180 6e be 99 bd 5f 28 66 bc e1 c0 11 3e 78 a0 37 be
       -0.07507025 -0.014047711 0.14233734 -0.17932308
000190 90 6e d8 3d bf a0 5d 3e 9d 36 6f 3d 09 5b e3 3d
       0.10567963 0.21643351 0.058401693 0.11101348
0001a0 45 ec 74 bd 8f 31 d7 3e 31 db 53 3d 88 44 be 3e
       -0.059795637 0.42029998 0.05172271 0.3716166
0001b0 57 d9 0f bd 62 1a 3c 3e f8 b1 21 bb 5e 46 25 3d
       -0.03511938 0.18369439 -0.0024672728 0.04035031
0001c0 78 35 32 3e f7 56 06 3e 41 f1 98 bd 1e 78 64 3c
       0.17403209 0.13119112 -0.074678905 0.013944654
0001d0 d1 75 63 3d 12 fe 1e bc 8f ee 37 3e 35 7d 14 3e
       0.05553228 -0.00970413 0.17962097 0.14500888
0001e0 73 88 3c bc 80 40 12 3e 5b 3d 5f be 66 f9 fb 3d
       -0.011507141 0.14282417 -0.21800749 0.12303428
0001f0 0c 19 c2 3c f9 0f 6f 3e 17 8a 88 3d cd 65 54 3c
       0.023693584 0.23345937 0.066669635 0.012963724
000200 ab 7c 52 be 9d 9f db 3d cd 37 c0 3d 06 b7 82 3e
       -0.2055537 0.10723803 0.09385643 0.2553026
000210 6f ac 64 3e 2f d2 1c 3e e2 99 a3 bd b4 a6 29 3e
       0.22331403 0.15314554 -0.07988335 0.16567498
000220 ca 30 c4 bd 5b bd 15 be 90 d2 36 3e 09 b2 55 3d
       -0.09579618 -0.14623015 0.1785376 0.05217174
000230 98 67 8c bd 98 98 0f 3c f0 87 c5 bb 27 7a 05 3e
       -0.068556964 0.0087644085 -0.006028168 0.13034879
000240 67 1e 9d bb 87 f5 28 be 2a 5c 23 3e 0a e0 8c 3d
       -0.004794884 -0.16499911 0.15953127 0.068786696
000250 bc 23 99 bc f1 05 ba bc 41 31 19 3d 1b e0 0f 3e
       -0.018693797 -0.022707911 0.037400488 0.14050333
000260 60 e8 4e be 1a dd 27 3d a4 e0 a2 bd 38 48 e5 bc
       -0.20205832 0.040982343 -0.07953003 -0.027988538
000270 66 6e 01 3d 39 54 c5 bd 7b 53 d4 bd c4 50 b6 3d
       0.031599425 -0.09635205 -0.10367485 0.089021236
000280 23 72 9e 3d 7a bb 74 bd 4f b2 bd bd 94 db 16 be
       0.077366136 -0.059749104 -0.09262525 -0.147322
000290 6b f4 ac 3d 00 5d 05 be 36 fc 77 bd 77 92 07 3e
       0.084450565 -0.13023758 -0.06054326 0.13239466
0002a0 86 58 c2 3e 2f 1e 0b bd 98 78 8a 3e 5f 9a 36 be
       0.37958163 -0.033964332 0.2704513 -0.17832325
0002b0 ab a7 07 3c 69 f5 04 3e 15 94 6c be 1e 4b 85 bc
       0.008279721 0.12984242 -0.23103364 -0.01627117
0002c0 e1 95 24 bd 83 33 8a be 70 bb 1f be 21 29 41 be
       -0.040182 -0.26992425 -0.15598845 -0.18863346
0002d0 10 f0 09 3e dd 43 2d 3e 04 23 13 3d 63 f6 87 3d
       0.13470483 0.16920419 0.035922065 0.066387914
0002e0 3a 08 55 3d 8e 6e 32 3c ed ee 84 3e 4d f2 59 3e
       0.0520098 0.010890616 0.25963536 0.21283837
0002f0 3b 83 8b 3e 4f 70 eb 3c 3c a5 09 3e 6b a2 df 3c
       0.27248558 0.028740076 0.13441938 0.027299127
000300 06 b0 25 3d 79 b7 b3 bd 34 a4 a1 be e6 ca 34 be
       0.040451072 -0.08775229 -0.3157059 -0.17655525
000310 32 28 06 3e 2d ad b1 3e 7f fd cd be ee 93 aa 3d
       0.13101271 0.34702435 -0.40232465 0.083289966
000320 89 48 96 3e 2f 4f 87 3e c7 b7 37 3e d2 48 b7 3e
       0.29352215 0.264276 0.17941199 0.35797745
000330 a6 89 4e 3e c4 4f 8c 3e 38 f3 8a bb 7a 2d aa 3e
       0.20169696 0.27404606 -0.0042404197 0.3323782
000340 6e 10 b3 3d 96 db 7a 3d 75 d0 13 3b e3 11 3b 3e
       0.08743368 0.06124457 0.002255467 0.18268542
000350 d9 40 3e 3e d8 1a 57 3e e6 45 f2 3d f9 23 9e 3e
       0.18579425 0.21006334 0.11829738 0.3088682
000360 d7 ca ea bd cf 2a 90 3d ff 70 f8 3d 03 ea db bd
       -0.1146447 0.07039415 0.12130927 -0.107379936
000370 8f 00 88 3d 0d 06 31 bb a5 c5 a9 3d a8 e4 78 3e
       0.066407315 -0.0027011663 0.08289651 0.24305975
000380 9c 44 4e 3d 14 4a 98 3e 59 39 ee 3d e6 6b 9d 3d
       0.0503584 0.29744017 0.11632032 0.076865956
000390 e4 ea 4e 3e cf 45 b7 bc 05 d6 ca bd 46 7d f9 bd
       0.20206791 -0.022372155 -0.09904102 -0.12182097
0003a0 07 00 d8 bc 65 d7 63 be d6 6d c0 3b c7 f6 b2 3d
       -0.0263672 -0.22250135 0.0058724685 0.08738475
0003b0 60 2c ec 3d a1 37 0c 3e e6 82 03 3e e5 b1 1d bd
       0.11531901 0.13693096 0.12842903 -0.03849973
0003c0 17 83 43 bd d1 ab 3d 3e d8 80 1c 3e 92 fa b3 bd
       -0.04773244 0.18522574 0.15283525 -0.08788027
0003d0 70 df d6 3c c5 0d 03 be 97 58 02 be 21 cf 94 3d
       0.02622959 -0.12798221 -0.12729107 0.07266069
0003e0 db 7d c2 3d a8 de 17 bd 02 06 f6 bd 8b 18 7c 3d
       0.09496661 -0.037077576 -0.12012865 0.061546843
0003f0 a3 70 39 3c 40 b5 9c 3d e6 d7 c9 3c 04 52 41 be
       0.011318359 0.07651758 0.024639081 -0.18878943

Linear1.bias f4 [48]
000000 25 2d fc bd b7 84 2b be 80 0d 2e 3e 42 e0 5b 3d
       -0.12313298 -0.16749845 0.16997337 0.053680666
000010 d2 8d ed 3c 7c c6 54 be 59 73 2c be fe 55 08 3e
       0.02899829 -0.20778841 -0.16840877 0.13314053
000020 55 55 b2 3c ca ee d5 3d 7d 91 7a be 71 b5 e6 3d
       0.021769205 0.10445936 -0.24469562 0.11265076
000030 ed 58 25 3d 11 b4 45 3e 0b da f3 3c a8 4c 2b be
       0.04036801 0.19306971 0.029767057 -0.16728461
000040 63 42 fd 3d a3 90 2a 3d 59 ed 5b 3c a4 f7 8a 3e
       0.12366178 0.041641843 0.013423287 0.2714206
000050 25 f8 cd 3e 05 3c 15 3e 25 cf 03 be 5d 9e 6f bd
       0.40228382 0.14573677 -0.12871988 -0.058500636
000060 69 0f 64 3e 0d b1 80 bd 13 f9 c5 bc 69 cf d3 bd
       0.22271504 -0.0628377 -0.02416662 -0.10342295
000070 89 54 e1 3d 3c a1 1c 3c 36 6f 74 3e 1a 69 22 3e
       0.11002452 0.009559926 0.23870549 0.15860406
000080 34 c3 85 3e c3 25 25 3c 12 0c 86 3d fa 30 df bd
       0.2612549 0.010079804 0.06545271 -0.108980134
000090 46 4c 2b bc c5 b2 7a 3c 8a 3c 90 be 48 a2 7c bc
       -0.010455197 0.015301411 -0.28171188 -0.01541955
0000a0 bb 3c 5b 3c bc 91 11 bd 19 df 88 bd ad 51 db bd
       0.0133811785 -0.035539374 -0.066831775 -0.10708938
0000b0 70 57 41 3d 7d 21 73 be 0e 91 47 3e 9d 05 3b 3d
       0.047202528 -0.23743244 0.19488928 0.04565965

Linear2.weight f4 [48, 48]
000000 97 72 6b bc 3e 34 ad bd 32 09 38 bd ce 8d 19 3c
       -0.014370582 -0.0845723 -0.044930644 0.009372188
000010 04 bc 1c 3d 2d db 18 bd 9c c1 de 3d 68 90 2a 3d
       0.038265243 -0.037318397 0.10876772 0.041641623
000020 aa a3 34 3d ae a5 bf bd dc c5 b3 bc 4a 5c c0 3d
       0.044101395 -0.09357773 -0.021944933 0.09392603
000030 f3 fb a2 b9 fd 0f 08 3e 9f c3 b6 3e ca 14 40 bc
       -0.00031086765 0.13287349 0.35696122 -0.0117237065
000040 6f f9 c3 3b ff 5c 95 bc 58 59 6a 3d c9 b9 d7 3d
       0.0059806625 -0.01823282 0.05721411 0.105334826
000050 c8 32 f7 3d 83 11 e6 3c 56 b2 78 bb c9 d1 e4 3d
       0.12070233 0.028084522 -0.0037948093 0.11172826
000060 1f 18 81 3c fd 10 1b 3e 25 61 0a bc 1f 8c 7d bc
       0.015758572 0.151432 -0.008446013 -0.015475302
000070 92 c8 23 3c 94 5d e1 3c 81 1b 04 3d 30 cd a4 3d
       0.00999655 0.027510442 0.032252792 0.08046949
000080 eb fa 8e 3d c3 73 dc bd 75 a6 8b 3e 05 a2 a0 3d
       0.069814526 -0.10764267 0.27275434 0.07843403
000090 1e 11 93 bc 52 b6 ba 3d 09 37 43 bb 77 91 10 3e
       -0.017952498 0.09116806 -0.0029787442 0.1411799
0000a0 54 11 13 bc 53 14 96 bd 19 ca ed bc d8 4d f6 bc
       -0.008976299 -0.07328095 -0.029027032 -0.030066416
0000b0 a0 de b4 bd 3a f7 fc bd 4d 62 13 3e 83 34 7d 3d
       -0.08831525 -0.12351842 0.14392968 0.061817657
0000c0 ec 86 54 3d 68 76 b4 3e fe 05 2c 3e 18 2b 45 3e
       0.051886484 0.35246587 0.16799161 0.1925472
0000d0 aa c0 ee 3d 56 fe 6f 3e a4 8a 06 bd 3a a0 09 3e
       0.116578415 0.23436865 -0.03284706 0.13440028
0000e0 ba f0 aa 3e 72 bb 1b 3d be 2b fc 3d 9a b0 62 3e
       0.33386785 0.03802056 0.12313031 0.2213768
0000f0 9c cc 2c 3e 7e fc 1f 3d 56 c7 c4 3e 4e 68 1e bd
       0.16874927 0.039059155 0.3843333 -0.03867369
000100 2e 32 8f 3e da a9 46 3e 2e fe 40 3e c9 49 07 3e
       0.27967972 0.1940073 0.18846962 0.1321174
000110 83 04 b0 3e 07 f8 1c 3d 5b 31 47 bd f6 b4 66 3d
       0.34378442 0.038322475 -0.048631053 0.05632492
000120 75 27 76 3e b7 a6 04 3e 13 e1 d2 3d a1 07 1e 3c
       0.24038489 0.12954222 0.10296836 0.009645374
000130 be b7 25 3e c5 40 92 3e c8 25 c8 3d bf eb da bb
       0.16183373 0.2856504 0.09772831 -0.006680935
000140 b9 b9 01 3e 93 33 6b 3e 45 6a b6 3e 78 bc 3d 3e
       0.12668504 0.22968893 0.35627952 0.18528926
000150 ca ce 01 3d 02 df 86 3d c7 12 bb 3c b9 9b e5 3d
       0.03169135 0.06585504 0.022836102 0.11211342
000160 08 3d e2 3d b4 19 4f 3e 50 ff 1a bb 06 31 39 3e
       0.11046797 0.20224649 -0.0023650713 0.18085107
000170 8d 63 70 3e 9f ae ab bc 61 cb 7e 3e e6 6d 55 3e
       0.23475476 -0.02095729 0.2488227 0.20842704
000180 73 66 91 3c a3 fd 87 bd 54 77 3c bd 25 83 b2 3d
       0.017749047 -0.06640174 -0.046012238 0.0871642
000190 24 ae b8 bc e7 2b c5 3d 22 2e 7e bd dc b3 02 3e
       -0.022543974 0.09627514 -0.062055714 0.12763923
0001a0 54 37 9c 3a 94 d3 67 bd c7 50 a4 3a e1 81 9c bd
       0.0011918345 -0.05659826 0.001253628 -0.0764196
0001b0 98 04 26 bd 59 4e dc 3d b1 a9 d4 3d eb dc 37 bc
       -0.040531725 0.10757131 0.103839286 -0.011222105
0001c0 ea e9 db 3d 7c bd f0 bc 83 18 22 3d 6a 23 b5 bc
       0.10737975 -0.029387228 0.039574157 -0.022111613
0001d0 8d dd fe bc a7 05 91 3d 66 9d 0a 3e eb 26 86 bb
       -0.031111503 0.07081156 0.13536605 -0.004093995
0001e0 34 42 33 3d 39 78 0a bd ed 73 32 bd a2 b5 8e bd
       0.043764308 -0.03380606 -0.043567587 -0.069682375
0001f0 36 c2 a4 bd da 37 97 bc de 54 9a 3d 16 0c c6 3d
       -0.08044855 -0.01845925 0.075357184 0.09670274
000200 51 84 22 bc 74 a8 2c bd 4b 76 0c be d3 da a2 3c
       -0.009919242 -0.042152837 -0.13717 0.019879734
000210 5d 72 1b be 08 5c a4 3d d8 40 12 3e 0e 84 ba bd
       -0.15180345 0.08025366 0.14282548 -0.09107219
000220 64 3d 25 bd 65 71 94 3b bc 25 e0 3d 5e 92 01 3e
       -0.04034175 0.0045301192 0.10944697 0.12653491
000230 9d 18 27 3d 23 8c 91 bd ad 6c 2a 3e e5 44 33 3e
       0.040794957 -0.07106807 0.16643019 0.1750675
000240 55 e4 26 3e 82 a6 a7 3d dd ac fc 3d ca 89 48 3d
       0.1629804 0.08186056 0.123376586 0.04895953
000250 d8 1e 13 3d ec a8 06 be 4d 00 4e bd 68 61 2a 3e
       0.035918087 -0.13150376 -0.050293256 0.1663872
000260 5f 2c a2 bc 3d a2 cd bd 17 cf 62 bb e4 bf 86 3c
       -0.019796548 -0.1004071 -0.0034608298 0.016448922
000270 db 6e c3 3d ec 36 e0 3d be a9 78 3e 77 6e ab 3d
       0.095426284 0.109479755 0.24283502 0.08370679
000280 58 40 2c 3e 4e c9 0f 3e 42 6b cd bc ea 2d 93 3d
       0.1682142 0.14041635 -0.025075559 0.07186492
000290 02 8e 19 3e 17 d8 14 3e 2e 79 0f 3d 0f b5 ee bd
       0.14995578 0.14535557 0.035027675 -0.11655628
0002a0 46 66 51 bd 12 6e d0 bc da 4f b4 bc 16 42 79 bd
       -0.051122926 -0.02544311 -0.022010732 -0.06085404
0002b0 28 6a 1c 3d 3b 95 c3 3d d0 3f 78 3d a2 5a 22 3e
       0.038187176 0.09549948 0.06060773 0.15854886
0002c0 14 c9 26 3e 26 da 1a 3d e0 cd dc 3e 98 4d 38 3e
       0.16287643 0.0378057 0.4312582 0.1799835
0002d0 5c 4e 0a 3d 9a c0 bf 3d a9 d6 1a 3e 01 6b 06 bd
       0.033766136 0.09362908 0.15120949 -0.03281689
0002e0 1f fa 29 3d 6b 04 46 bd 7d 62 be 3d 04 5e 20 3e
       0.0414983 -0.048344057 0.09296129 0.15660864
0002f0 c6 79 0f 3d 27 88 0c be a5 27 ab 3d 8d fd 59 3e
       0.03502824 -0.13723813 0.08357171 0.21288128
000300 0d 23 f9 bc 7d 58 6d bd 30 0f 44 3d f4 1b 21 3e
       -0.030412221 -0.057945717 0.047866046 0.1573332
000310 ba 0e cc 3a 21 b6 1a 3e 74 c6 83 bc 36 1f 68 3e
       0.0015568354 0.15108539 -0.01608584 0.22668156
000320 44 c6 56 bc 86 35 12 3e 8d 9d 1b 3e 6c 1d 35 3e
       -0.013108794 0.1427823 0.1519682 0.17687005
000330 d9 8a ca 3c b3 03 65 3e bc da 78 3e 90 76 a9 bd
       0.02472441 0.22364692 0.2430219 -0.08274567
000340 3f 3a 28 3e ae f3 06 3e 72 12 09 3e 56 52 83 bd
       0.16428469 0.13178894 0.13385943 -0.06412189
000350 13 c1 ca bc e4 d1 3a 3e 0b df 3b 3e 41 ff 91 3d
       -0.024750268 0.1824413 0.18346803 0.07128764
000360 1d 56 c7 3d 4c a1 52 bd fc ad c4 3d 78 80 55 3b
       0.09733222 -0.051423356 0.096034974 0.0032577794
000370 7f c5 c6 3d 12 3b 96 3e 9a 19 20 3e 18 fd 96 3d
       0.09705638 0.29341942 0.15634766 0.073724926
000380 f2 af 85 3d 86 dc 72 3e ab 30 b8 3e 3c d7 e1 bc
       0.065276995 0.23716936 0.3597463 -0.027568452
000390 96 e2 7a 3e 39 56 47 bd 33 83 dd 3d 58 f9 0b bd
       0.24500498 -0.048666213 0.1081604 -0.03417334
0003a0 4a 45 32 bc d3 3a f0 3d 13 28 ea 3d 8c d1 23 3e
       -0.010880778 0.1172997 0.11433425 0.15997905
0003b0 26 49 f2 3c 3f 41 17 bd fb 3c 3c be d1 4e 1e 3e
       0.029575896 -0.036927458 -0.18382637 0.15459754
0003c0 1b b5 91 3e 84 d9 1d 3e 45 e6 6d 3c 8a 1a ed 3d
       0.28458485 0.15415007 0.014520233 0.115773275
0003d0 5b fc 31 bc 03 23 0e 3e 65 a4 03 3c cb 28 32 3d
       -0.010863389 0.13880543 0.0080348 0.043495934
0003e0 55 b1 a9 3e 38 71 e8 bd 2f 58 21 3e 9c 5a 04 3e
       0.33143106 -0.1134972 0.15756296 0.1292519
0003f0 01 12 bc 3d de c0 f3 3d 83 ec af 3e f0 4a 09 be
       0.091831215 0.11902021 0.34360132 -0.13407493

Linear2.bias f4 [48]
000000 ec 89 e9 39 c0 19 15 3a 77 1b 2e 3e 9e 0f f2 3b
       0.00044543983 0.0005687736 0.17002665 0.0073871156
000010 10 75 a3 bc c3 7c 82 3d 42 10 10 3c 95 10 08 3e
       -0.01995328 0.06371453 0.008792939 0.13287576
000020 78 cc 80 3d 37 07 33 bb 53 46 b6 3d 3d 53 a4 3e
       0.06288999 -0.0027317533 0.08900132 0.32094756
000030 4c 6d e0 bd 49 24 21 3e d2 70 37 3d 95 dd 04 3e
       -0.10958347 0.15736498 0.04478533 0.12975152
000040 1b 48 3b 3d da 9b 0e 3e 6a a2 eb 3d c9 82 f1 bd
       0.045723062 0.1392664 0.115055874 -0.117925234
000050 55 9c dc 3d 66 d5 f5 3e b5 b2 0b 3e ef bb 0b 3d
       0.107720055 0.48014373 0.1364239 0.034114774
000060 cb 19 75 3e c4 b1 0a 3e a6 d5 8b 3d 3c 92 c1 bc
       0.2393562 0.13544375 0.068278596 -0.0236293
000070 33 2b a6 3c 5f 58 19 3e 6c 3f b0 bc 73 ab 16 3e
       0.02028427 0.14975117 -0.021514617 0.1471384
000080 6f df 58 3e 15 01 a2 3e 97 d4 3a 3d 92 46 71 bc
       0.21178983 0.3164145 0.045612898 -0.014726298
000090 53 7e 43 3e 97 dd 81 3e 05 a6 12 3d bb 97 f0 3c
       0.19091158 0.25364372 0.03580286 0.029369226
0000a0 07 e0 61 3e f3 41 18 3f ee d2 ee 3d c6 f4 cf 3d
       0.22058116 0.5947563 0.116613254 0.10154109
0000b0 f0 16 9f 3e 08 f9 37 3d 57 bd 20 3e d8 4e 9f 3d
       0.31072187 0.04491523 0.15697227 0.0777871

Linear3.weight f4 [4, 48]
000000 7e 4d 62 be 0e 1b 9f bd 12 32 b0 bd 7d eb 28 be
       -0.22099873 -0.07768832 -0.086033 -0.16496082
000010 22 67 19 be 01 a3 3e 3a 62 0d 24 be 0c 20 4a be
       -0.14980748 0.0007272214 -0.1602073 -0.19738787
000020 dc 28 3d bd 84 5b e6 3c 41 16 4f be 04 18 34 3f
       -0.046181545 0.02811981 -0.20223333 0.70349145
000030 00 32 d0 3a 4d 56 8e 3d c7 5e 5d 3c 49 d2 ef bd
       0.0015884042 0.06950054 0.013511366 -0.117100306
000040 84 90 11 3e a6 10 78 3d 24 69 0f bf 34 0a 1b 3d
       0.14215285 0.060562752 -0.56019807 0.037851527
000050 26 5a 86 3d 07 9d 24 be 36 27 e6 bd 32 db 38 3b
       0.06560163 -0.16075526 -0.11237948 0.0028206822
000060 a6 20 9a bd b2 de 28 be b8 e4 8a 3d 01 ea b2 3d
       -0.075257584 -0.16491202 0.06781906 0.08736039
000070 3d a3 01 bd 35 e4 0a be ae 00 34 be 2f 71 54 3d
       -0.031649817 -0.13563617 -0.17578384 0.051865753
000080 fc 3e bd 3e a3 2b a9 3d a0 53 59 bc 3d 0f 95 be
       0.36962116 0.08260276 -0.013264567 -0.29113188
000090 a4 1a 44 be f9 cd 49 3e d0 93 bd bd ea 8d ed 3c
       -0.19150788 0.19707479 -0.092567086 0.028998334
0000a0 e2 36 20 bf 57 ba 89 bf fc 23 97 3d df 56 c7 bd
       -0.62583745 -1.0759991 0.0737991 -0.09733366
0000b0 d5 5b 0e be 82 f3 15 3e 54 00 c8 3c 1f ea 85 bc
       -0.13902219 0.14643672 0.024414219 -0.01634699
0000c0 c6 2c 2d 3e ea f6 91 bd 1e ac aa bd 17 98 bb 3d
       0.16911611 -0.07127173 -0.0833361 0.09159868
0000d0 fc 58 95 3d 71 72 bf 3a b4 d5 fe bd 23 de 48 3d
       0.07292363 0.001460625 -0.124431044 0.04903997
0000e0 7d 4d bb bd c3 fb 5f be 02 a0 b9 bd eb 18 23 bf
       -0.09145639 -0.21873383 -0.09063722 -0.63709897
0000f0 61 1e 09 be cb 06 94 bd 8c 85 c6 3d 06 e0 79 be
       -0.13390495 -0.07227858 0.09693441 -0.24401864
000100 f0 5b a7 3d df 09 69 bc b2 a1 84 3e 65 e2 2c bd
       0.081718326 -0.014223545 0.25904614 -0.042208094
000110 75 bb 4d be 46 eb 65 bf 1d f5 95 bd 9d dc e4 3d
       -0.2009104 -0.89812124 -0.07322142 0.11174891
000120 db fe 75 be 44 98 19 be 88 39 2a bd 3a 6f ca be
       -0.24023001 -0.14999491 -0.041558772 -0.39537984
000130 84 3f 39 be 5f 1b c9 3e b9 13 39 be bb c3 58 bd
       -0.18090636 0.39278695 -0.1807393 -0.052921038
000140 01 5b d1 bd ad c8 08 3e 8b ac 27 bd 01 cc 89 be
       -0.10222436 0.13357802 -0.040936034 -0.26913455
000150 f7 48 88 3d 2b a2 db bd fb 59 d8 3c c2 41 2c 3d
       0.06654542 -0.107242905 0.026410094 0.0420549
000160 71 6a 86 be 6b e6 c9 be 50 a6 5d 3d db fd 37 3d
       -0.26253083 -0.39433607 0.054113686 0.04491983
000170 c5 3c 2e 3e 45 7a 7b bc 40 e3 0c be b7 74 1c 3c
       0.17015369 -0.015348976 -0.13758564 0.009549311
000180 ba 29 5a be 1d 00 3d be 5a 20 91 bc 53 25 84 be
       -0.2130498 -0.18457074 -0.017715622 -0.25809726
000190 03 86 b8 be 6a 26 ee 3d b0 60 8f bd 0e 68 87 be
       -0.36039743 0.11628421 -0.070008636 -0.26446575
0001a0 fc 24 0d be 2c bd b0 bd 1b 5f a0 be 23 ca ba be
       -0.1378364 -0.08629832 -0.3132256 -0.36482343
0001b0 53 f5 0b 3e 63 e5 e9 bd f5 c7 79 3d 0e ca f9 bc
       0.13667803 -0.11420705 0.06098171 -0.030491855
0001c0 64 94 7b 3d 2a 25 47 be 24 9a 4a 3e 40 f8 62 bb
       0.061420813 -0.1944777 0.19785362 -0.0034632832
0001d0 54 67 fa bd 71 3f 80 bc f6 ca a5 bd 4d ad 93 bd
       -0.122267395 -0.015655251 -0.08095352 -0.07210789
0001e0 33 82 45 be 6a 69 a5 3d 8c 26 4d 3b f1 a9 93 be
       -0.19287948 0.08076747 0.0031303493 -0.28840593
0001f0 2a b0 b7 bc 81 50 8a be bd fc 4f 3d 48 a2 81 be
       -0.022422869 -0.27014545 0.05077814 -0.25319123
000200 61 19 bd be 85 0d 1e bf 80 75 2d bb 32 2a 87 3d
       -0.36933425 -0.6173938 -0.002646774 0.06599845
000210 7b ee a9 be 86 1a 9d be f4 37 a4 bd 31 a9 b5 3d
       -0.3318976 -0.30684298 -0.08018485 0.08870161
000220 cb 3a d6 b9 ac 66 8c 3d bb 09 05 3d 5c 71 a2 3c
       -0.00040861065 0.068555206 0.032479983 0.019829445
000230 e8 3c 30 bf ea 4a 46 bd 65 60 a0 be 0f 8f 74 3d
       -0.68842936 -0.048411287 -0.31323543 0.059706744
000240 9f 5d 7d be d6 01 3b be 4c 68 d6 3d 3c 13 be bd
       -0.24742745 -0.18262419 0.10469112 -0.092810124
000250 59 86 a2 be e4 bb 35 3d 8d bc a2 bd f8 f3 87 be
       -0.31743124 0.04436864 -0.079461195 -0.2655332
000260 6e 3e 8e 3d 4a 60 83 bd cc b8 7c be 70 57 bf be
       0.06945501 -0.0641485 -0.2467987 -0.37371397
000270 6b 61 dc 3b cb 46 f1 bd 24 25 c6 3d fe 5a 6f 3d
       0.0067254803 -0.11781081 0.09675053 0.058436386
000280 5f c7 32 3d 8a 9d f4 bd b9 66 92 3e 69 1e 2d 3e
       0.043647166 -0.11944111 0.28593996 0.16906132
000290 56 41 33 be ef f7 b7 bd ed 92 57 be a6 57 da 3c
       -0.17505392 -0.089828365 -0.21052141 0.026653122
0002a0 e0 91 80 be 37 7c dd 3b b8 f2 e7 bd 66 6e 4b be
       -0.25111294 0.0067591923 -0.11325592 -0.19866332
0002b0 6f 2c b6 bd 9b 45 2a be e5 a8 d7 3d 6e 67 89 bd
       -0.08895194 -0.16628115 0.10530261 -0.06709181
0002c0 84 70 4d be 0c d3 3a bf 84 fd 06 3d d5 cb 37 bd
       -0.20062453 -0.7297828 0.032956615 -0.044872124
0002d0 0f 99 6e be 83 63 c2 be 50 5f 93 3d fe 2b 8e bd
       -0.23300575 -0.37966546 0.07195914 -0.069419846
0002e0 5d c2 68 bd 03 c3 d9 3c 52 59 56 3c fb 68 83 be
       -0.056825984 0.026582247 0.013082819 -0.2566603
0002f0 e3 e8 1f bf 49 8a ac 3c 2a 5f a5 be eb 00 e8 3d
       -0.6246473 0.021062033 -0.32299167 0.113283

Linear3.bias f4 [4]
000000 51 04 d5 3d 1c 1e 4c be 4a 6f c8 bd 85 bc 65 be
       0.10401214 -0.19933361 -0.09786852 -0.22435196

exp_avg f4 [48, 24]
000000 04 00 00 00 04 00 00 80 04 00 00 00 04 00 00 00
       6e-45 -6e-45 6e-45 6e-45
000010 04 00 00 80 04 00 00 80 04 00 00 80 04 00 00 80
       -6e-45 -6e-45 -6e-45 -6e-45
000020 04 00 00 00 04 00 00 80 04 00 00 00 04 00 00 80
       6e-45 -6e-45 6e-45 -6e-45
000030 04 00 00 00 04 00 00 00 04 00 00 00 04 00 00 00
       6e-45 6e-45 6e-45 6e-45
000040 04 00 00 00 04 00 00 00 04 00 00 00 04 00 00 00
       6e-45 6e-45 6e-45 6e-45
000050 04 00 00 00 04 00 00 00 04 00 00 00 04 00 00 00
       6e-45 6e-45 6e-45 6e-45
000060 04 00 00 80 04 00 00 00 04 00 00 80 04 00 00 00
       -6e-45 6e-45 -6e-45 6e-45
000070 04 00 00 80 04 00 00 00 04 00 00 80 04 00 00 00
       -6e-45 6e-45 -6e-45 6e-45
000080 04 00 00 80 04 00 00 00 04 00 00 80 04 00 00 00
       -6e-45 6e-45 -6e-45 6e-45
000090 04 00 00 80 04 00 00 80 04 00 00 80 04 00 00 80
       -6e-45 -6e-45 -6e-45 -6e-45
0000a0 04 00 00 80 04 00 00 80 04 00 00 80 04 00 00 80
       -6e-45 -6e-45 -6e-45 -6e-45
0000b0 04 00 00 80 04 00 00 80 04 00 00 80 04 00 00 80
       -6e-45 -6e-45 -6e-45 -6e-45
0000c0 04 00 00 00 04 00 00 00 04 00 00 80 04 00 00 00
       6e-45 6e-45 -6e-45 6e-45
0000d0 04 00 00 00 04 00 00 80 04 00 00 80 04 00 00 80
       6e-45 -6e-45 -6e-45 -6e-45
0000e0 04 00 00 80 04 00 00 00 04 00 00 00 04 00 00 00
       -6e-45 6e-45 6e-45 6e-45
0000f0 04 00 00 00 04 00 00 80 04 00 00 80 04 00 00 80
       6e-45 -6e-45 -6e-45 -6e-45
000100 04 00 00 80 04 00 00 80 04 00 00 80 04 00 00 80
       -6e-45 -6e-45 -6e-45 -6e-45
000110 04 00 00 80 04 00 00 80 04 00 00 80 04 00 00 80
       -6e-45 -6e-45 -6e-45 -6e-45
000120 04 00 00 80 04 00 00 80 04 00 00 00 04 00 00 00
       -6e-45 -6e-45 6e-45 6e-45
000130 04 00 00 80 04 00 00 00 04 00 00 00 04 00 00 00
       -6e-45 6e-45 6e-45 6e-45
000140 04 00 00 80 04 00 00 00 04 00 00 80 04 00 00 00
       -6e-45 6e-45 -6e-45 6e-45
000150 04 00 00 80 04 00 00 80 04 00 00 80 04 00 00 80
       -6e-45 -6e-45 -6e-45 -6e-45
000160 04 00 00 80 04 00 00 80 04 00 00 80 04 00 00 80
       -6e-45 -6e-45 -6e-45 -6e-45
000170 04 00 00 80 04 00 00 80 04 00 00 80 04 00 00 80
       -6e-45 -6e-45 -6e-45 -6e-45
000180 04 00 00 80 04 00 00 80 04 00 00 00 04 00 00 00
       -6e-45 -6e-45 6e-45 6e-45
000190 04 00 00 80 04 00 00 80 04 00 00 00 04 00 00 00
       -6e-45 -6e-45 6e-45 6e-45
0001a0 04 00 00 80 04 00 00 00 04 00 00 80 04 00 00 00
       -6e-45 6e-45 -6e-45 6e-45
0001b0 04 00 00 80 04 00 00 80 04 00 00 80 04 00 00 80
       -6e-45 -6e-45 -6e-45 -6e-45
0001c0 04 00 00 80 04 00 00 80 04 00 00 80 04 00 00 80
       -6e-45 -6e-45 -6e-45 -6e-45
0001d0 04 00 00 80 04 00 00 80 04 00 00 80 04 00 00 80
       -6e-45 -6e-45 -6e-45 -6e-45
0001e0 04 00 00 80 04 00 00 80 04 00 00 00 04 00 00 00
       -6e-45 -6e-45 6e-45 6e-45
0001f0 04 00 00 80 04 00 00 80 04 00 00 00 04 00 00 80
       -6e-45 -6e-45 6e-45 -6e-45
000200 04 00 00 80 04 00 00 00 04 00 00 80 04 00 00 00
       -6e-45 6e-45 -6e-45 6e-45
000210 04 00 00 80 04 00 00 80 04 00 00 80 04 00 00 80
       -6e-45 -6e-45 -6e-45 -6e-45
000220 04 00 00 80 04 00 00 80 04 00 00 80 04 00 00 80
       -6e-45 -6e-45 -6e-45 -6e-45
000230 04 00 00 80 04 00 00 80 04 00 00 80 04 00 00 80
       -6e-45 -6e-45 -6e-45 -6e-45
000240 04 00 00 00 04 00 00 00 04 00 00 00 04 00 00 00
       6e-45 6e-45 6e-45 6e-45
000250 04 00 00 80 04 00 00 80 04 00 00 00 04 00 00 00
       -6e-45 -6e-45 6e-45 6e-45
000260 00 00 00 00 04 00 00 80 04 00 00 80 04 00 00 80
       0.0 -6e-45 -6e-45 -6e-45
000270 04 00 00 80 00 00 00 00 04 00 00 00 04 00 00 00
       -6e-45 0.0 6e-45 6e-45
000280 04 00 00 00 04 00 00 00 04 00 00 00 04 00 00 00
       6e-45 6e-45 6e-45 6e-45
000290 04 00 00 00 04 00 00 00 04 00 00 00 04 00 00 00
       6e-45 6e-45 6e-45 6e-45
0002a0 60 6c 6e 1a e7 c8 36 19 a8 bb e3 99 4d c4 de 19
       4.930479e-23 9.449751e-24 -2.3547044e-23 2.3033547e-23
0002b0 b3 d9 d8 1a 56 dd 01 8f cf 1f ba 1a 56 dd 01 1b
       8.968722e-23 -6.402819e-30 7.6979187e-23 1.0742147e-22
0002c0 04 00 00 80 91 53 d8 1a 04 00 00 80 61 2d 9e 1a
       -6e-45 8.9470515e-23 -6e-45 6.542058e-23
0002d0 04 00 00 00 04 00 00 80 9b 95 91 99 dd 3c 93 99
       6e-45 -6e-45 -1.5053074e-23 -1.5224026e-23
0002e0 0a 64 98 99 16 ae a1 99 ed 64 b0 99 65 f8 c6 99
       -1.5756837e-23 -1.6717323e-23 -1.8238737e-23 -2.0573046e-23
0002f0 89 34 ea 99 86 4b 12 9a 90 e2 48 9a 34 f7 a6 9a
       -2.4216252e-23 -3.02531e-23 -4.1542046e-23 -6.905537e-23
000300 12 86 6b 18 d8 8f 34 17 a3 f6 e0 97 c0 0e dc 17
       3.0440726e-24 5.8342693e-25 -1.4537921e-24 1.422089e-24
000310 95 36 d6 18 0f 49 00 8d 50 dc b7 18 0a 49 00 19
       5.5372817e-24 -3.9530986e-31 4.752685e-24 6.632195e-24
000320 04 00 00 80 15 b2 d5 18 04 00 00 80 f1 40 9c 18
       -6e-45 5.5239026e-24 -6e-45 4.039063e-24
000330 04 00 00 00 04 00 00 80 61 d0 8f 97 74 72 91 97
       6e-45 -6e-45 -9.293761e-25 -9.399297e-25
000340 92 89 96 97 c3 b6 9f 97 c6 3f ae 97 fb 8c c4 97
       -9.72825e-25 -1.032127e-24 -1.1260585e-24 -1.2701792e-24
000350 70 5b e7 97 1e 84 10 98 24 71 46 98 70 ef a4 98
       -1.4951107e-24 -1.8678266e-24 -2.5648022e-24 -4.2634776e-24
000360 04 00 00 00 04 00 00 00 04 00 00 80 04 00 00 00
       6e-45 6e-45 -6e-45 6e-45
000370 04 00 00 00 04 00 00 00 04 00 00 80 04 00 00 00
       6e-45 6e-45 -6e-45 6e-45
000380 04 00 00 80 04 00 00 00 04 00 00 80 04 00 00 00
       -6e-45 6e-45 -6e-45 6e-45
000390 04 00 00 80 04 00 00 80 04 00 00 80 04 00 00 80
       -6e-45 -6e-45 -6e-45 -6e-45
0003a0 04 00 00 80 04 00 00 80 04 00 00 80 04 00 00 80
       -6e-45 -6e-45 -6e-45 -6e-45
0003b0 04 00 00 80 04 00 00 80 04 00 00 80 04 00 00 80
       -6e-45 -6e-45 -6e-45 -6e-45
0003c0 04 00 00 80 04 00 00 80 04 00 00 00 04 00 00 00
       -6e-45 -6e-45 6e-45 6e-45
0003d0 04 00 00 00 04 00 00 00 04 00 00 00 04 00 00 80
       6e-45 6e-45 6e-45 -6e-45
0003e0 04 00 00 80 04 00 00 80 04 00 00 00 04 00 00 80
       -6e-45 -6e-45 6e-45 -6e-45
0003f0 04 00 00 00 04 00 00 80 04 00 00 80 04 00 00 80
       6e-45 -6e-45 -6e-45 -6e-45

exp_avg_sq f4 [48, 24]
000000 f4 01 00 00 f4 01 00 00 f4 01 00 00 f4 01 00 00
       7e-43 7e-43 7e-43 7e-43
000010 f4 01 00 00 f4 01 00 00 f4 01 00 00 f4 01 00 00
       7e-43 7e-43 7e-43 7e-43
000020 f4 01 00 00 f4 01 00 00 f4 01 00 00 f4 01 00 00
       7e-43 7e-43 7e-43 7e-43
000030 f4 01 00 00 f4 01 00 00 f4 01 00 00 f4 01 00 00
       7e-43 7e-43 7e-43 7e-43
000040 f4 01 00 00 f4 01 00 00 f4 01 00 00 f4 01 00 00
       7e-43 7e-43 7e-43 7e-43
000050 f4 01 00 00 f4 01 00 00 f4 01 00 00 f4 01 00 00
       7e-43 7e-43 7e-43 7e-43
000060 f4 01 00 00 f4 01 00 00 f4 01 00 00 f4 01 00 00
       7e-43 7e-43 7e-43 7e-43
000070 f4 01 00 00 f4 01 00 00 f4 01 00 00 f4 01 00 00
       7e-43 7e-43 7e-43 7e-43
000080 f4 01 00 00 f4 01 00 00 f4 01 00 00 f4 01 00 00
       7e-43 7e-43 7e-43 7e-43
000090 f4 01 00 00 f4 01 00 00 f4 01 00 00 f4 01 00 00
       7e-43 7e-43 7e-43 7e-43
0000a0 f4 01 00 00 f4 01 00 00 f4 01 00 00 f4 01 00 00
       7e-43 7e-43 7e-43 7e-43
0000b0 f4 01 00 00 f4 01 00 00 f4 01 00 00 f4 01 00 00
       7e-43 7e-43 7e-43 7e-43
0000c0 f4 01 00 00 f4 01 00 00 f4 01 00 00 f4 01 00 00
       7e-43 7e-43 7e-43 7e-43
0000d0 f4 01 00 00 f4 01 00 00 f4 01 00 00 f4 01 00 00
       7e-43 7e-43 7e-43 7e-43
0000e0 f4 01 00 00 f4 01 00 00 f4 01 00 00 f4 01 00 00
       7e-43 7e-43 7e-43 7e-43
0000f0 f4 01 00 00 f4 01 00 00 f4 01 00 00 f4 01 00 00
       7e-43 7e-43 7e-43 7e-43
000100 f4 01 00 00 f4 01 00 00 f4 01 00 00 f4 01 00 00
       7e-43 7e-43 7e-43 7e-43
000110 f4 01 00 00 f4 01 00 00 f4 01 00 00 f4 01 00 00
       7e-43 7e-43 7e-43 7e-43
000120 f4 01 00 00 f4 01 00 00 f4 01 00 00 f4 01 00 00
       7e-43 7e-43 7e-43 7e-43
000130 f4 01 00 00 f4 01 00 00 f4 01 00 00 f4 01 00 00
       7e-43 7e-43 7e-43 7e-43
000140 f4 01 00 00 f4 01 00 00 f4 01 00 00 f4 01 00 00
       7e-43 7e-43 7e-43 7e-43
000150 f4 01 00 00 f4 01 00 00 f4 01 00 00 f4 01 00 00
       7e-43 7e-43 7e-43 7e-43
000160 f4 01 00 00 f4 01 00 00 f4 01 00 00 f4 01 00 00
       7e-43 7e-43 7e-43 7e-43
000170 f4 01 00 00 f4 01 00 00 f4 01 00 00 f4 01 00 00
       7e-43 7e-43 7e-43 7e-43
000180 f4 01 00 00 f4 01 00 00 f4 01 00 00 f4 01 00 00
       7e-43 7e-43 7e-43 7e-43
000190 f4 01 00 00 f4 01 00 00 f4 01 00 00 f4 01 00 00
       7e-43 7e-43 7e-43 7e-43
0001a0 f4 01 00 00 f4 01 00 00 f4 01 00 00 f4 01 00 00
       7e-43 7e-43 7e-43 7e-43
0001b0 f4 01 00 00 f4 01 00 00 f4 01 00 00 f4 01 00 00
       7e-43 7e-43 7e-43 7e-43
0001c0 f4 01 00 00 f4 01 00 00 f4 01 00 00 f4 01 00 00
       7e-43 7e-43 7e-43 7e-43
0001d0 f4 01 00 00 f4 01 00 00 f4 01 00 00 f4 01 00 00
       7e-43 7e-43 7e-43 7e-43
0001e0 f4 01 00 00 f4 01 00 00 f4 01 00 00 f4 01 00 00
       7e-43 7e-43 7e-43 7e-43
0001f0 f4 01 00 00 f4 01 00 00 f4 01 00 00 f4 01 00 00
       7e-43 7e-43 7e-43 7e-43
000200 f4 01 00 00 f4 01 00 00 f4 01 00 00 f4 01 00 00
       7e-43 7e-43 7e-43 7e-43
000210 f4 01 00 00 f4 01 00 00 f4 01 00 00 f4 01 00 00
       7e-43 7e-43 7e-43 7e-43
000220 f4 01 00 00 f4 01 00 00 f4 01 00 00 f4 01 00 00
       7e-43 7e-43 7e-43 7e-43
000230 f4 01 00 00 f4 01 00 00 f4 01 00 00 f4 01 00 00
       7e-43 7e-43 7e-43 7e-43
000240 f4 01 00 00 f4 01 00 00 f4 01 00 00 f4 01 00 00
       7e-43 7e-43 7e-43 7e-43
000250 f4 01 00 00 f4 01 00 00 f4 01 00 00 f4 01 00 00
       7e-43 7e-43 7e-43 7e-43
000260 00 00 00 00 f4 01 00 00 f4 01 00 00 f4 01 00 00
       0.0 7e-43 7e-43 7e-43
000270 f4 01 00 00 00 00 00 00 f4 01 00 00 f4 01 00 00
       7e-43 0.0 7e-43 7e-43
000280 f4 01 00 00 f4 01 00 00 f4 01 00 00 f4 01 00 00
       7e-43 7e-43 7e-43 7e-43
000290 f4 01 00 00 f4 01 00 00 f4 01 00 00 f4 01 00 00
       7e-43 7e-43 7e-43 7e-43
0002a0 02 6f 3a 1a 95 44 f9 17 b4 b2 46 19 2d f1 34 19
       3.855357e-23 1.610856e-24 1.0272449e-23 9.354487e-24
0002b0 b8 7e 17 1b 67 ae 5d 03 d8 50 e2 1a 5b ae 5d 1b
       1.2531372e-22 6.5146267e-37 9.360202e-23 1.8337029e-22
0002c0 f4 01 00 00 c5 41 1a 1b f4 01 00 00 8d bd a0 1a
       7e-43 1.2759833e-22 7e-43 6.6480685e-23
0002d0 d9 36 f7 00 f4 01 00 00 a5 2a 8b 18 77 58 8e 18
       2.2703043e-38 7e-43 3.5973718e-24 3.6795466e-24
0002e0 bd 7b 98 18 d4 a3 ab 18 69 4d cc 18 f8 f8 01 19
       3.9416023e-24 4.436789e-24 5.281093e-24 6.7194225e-24
0002f0 d7 14 34 19 58 87 8c 19 6d 7c 04 1a ca b6 af 1a
       9.3099905e-24 1.4530326e-23 2.739747e-23 7.2673615e-23
000300 c4 47 35 16 01 5a f2 13 3d 2e 41 15 b7 ec 2f 15
       1.4643709e-25 6.117814e-27 3.9012515e-26 3.5527704e-26
000310 3f 4f 13 17 b8 f1 1a 00 84 0f dc 16 8c 8d 57 17
       4.7598284e-25 2.474435e-39 3.5552709e-25 6.9648904e-25
000320 f4 01 00 00 07 fe 15 17 f4 01 00 00 c8 4c 9c 16
       7e-43 4.8465124e-25 7e-43 2.5251615e-25
000330 12 ef 00 00 f4 01 00 00 c2 51 87 14 0d 69 8a 14
       8.5762e-41 7e-43 1.3663764e-26 1.3975874e-26
000340 8b 44 94 14 1b e5 a6 14 89 a7 c6 14 58 c2 fc 14
       1.4971216e-26 1.6852083e-26 2.0058972e-26 2.5522152e-26
000350 5f 1a 2f 15 ba a4 88 15 c3 d2 00 16 c8 dc aa 16
       3.5361772e-26 5.5189855e-26 1.0406262e-25 2.7604314e-25
000360 f4 01 00 00 f4 01 00 00 f4 01 00 00 f4 01 00 00
       7e-43 7e-43 7e-43 7e-43
000370 f4 01 00 00 f4 01 00 00 f4 01 00 00 f4 01 00 00
       7e-43 7e-43 7e-43 7e-43
000380 f4 01 00 00 f4 01 00 00 f4 01 00 00 f4 01 00 00
       7e-43 7e-43 7e-43 7e-43
000390 f4 01 00 00 f4 01 00 00 f4 01 00 00 f4 01 00 00
       7e-43 7e-43 7e-43 7e-43
0003a0 f4 01 00 00 f4 01 00 00 f4 01 00 00 f4 01 00 00
       7e-43 7e-43 7e-43 7e-43
0003b0 f4 01 00 00 f4 01 00 00 f4 01 00 00 f4 01 00 00
       7e-43 7e-43 7e-43 7e-43
0003c0 f4 01 00 00 f4 01 00 00 f4 01 00 00 f4 01 00 00
       7e-43 7e-43 7e-43 7e-43
0003d0 f4 01 00 00 f4 01 00 00 f4 01 00 00 f4 01 00 00
       7e-43 7e-43 7e-43 7e-43
0003e0 f4 01 00 00 f4 01 00 00 f4 01 00 00 f4 01 00 00
       7e-43 7e-43 7e-43 7e-43
0003f0 f4 01 00 00 f4 01 00 00 f4 01 00 00 f4 01 00 00
       7e-43 7e-43 7e-43 7e-43

exp_avg f4 [48]
000000 04 00 00 00 04 00 00 80 04 00 00 80 04 00 00 80
       6e-45 -6e-45 -6e-45 -6e-45
000010 04 00 00 80 04 00 00 80 04 00 00 00 56 dd 01 9b
       -6e-45 -6e-45 6e-45 -1.0742147e-22
000020 0f 49 00 99 04 00 00 80 04 00 00 80 04 00 00 80
       -6.632199e-24 -6e-45 -6e-45 -6e-45
000030 04 00 00 80 9c 24 bc 9a 50 a8 14 18 04 00 00 80
       -6e-45 -7.7814123e-23 1.9213528e-24 -6e-45
000040 29 28 c4 9a 04 00 00 80 04 00 00 80 2b 76 d5 9a
       -8.112858e-23 -6e-45 -6e-45 -8.8285646e-23
000050 9e 0e 34 18 04 00 00 80 04 00 00 80 04 00 00 80
       2.3271835e-24 -6e-45 -6e-45 -6e-45
000060 fa 81 f0 9a 04 00 00 80 d1 0b 38 9b 04 00 00 00
       -9.947166e-23 -6e-45 -1.5223941e-22 6e-45
000070 03 91 05 9b 34 cb a7 9a 45 c5 e0 9a 04 00 00 80
       -1.1048358e-22 -6.9397874e-23 -9.2962935e-23 -6e-45
000080 74 a4 d9 9a 2b 77 0d 9b c7 c8 7c 9a 04 00 00 80
       -9.0014785e-23 -1.1701752e-22 -5.2274565e-23 -6e-45
000090 04 00 00 00 04 00 00 80 04 00 00 00 a1 5f a1 99
       6e-45 -6e-45 6e-45 -1.6685634e-23
0000a0 22 cf d1 9a 04 00 00 80 a1 b9 cb 9a 04 00 00 80
       -8.6775015e-23 -6e-45 -8.425873e-23 -6e-45
0000b0 04 00 00 80 04 00 00 80 fa db 8c 9b f4 b5 16 9a
       -6e-45 -6e-45 -2.3303214e-22 -3.1166254e-23

exp_avg_sq f4 [48]
000000 f4 01 00 00 f4 01 00 00 f4 01 00 00 f4 01 00 00
       7e-43 7e-43 7e-43 7e-43
000010 f4 01 00 00 f4 01 00 00 f4 01 00 00 67 ae 5d 1b
       7e-43 7e-43 7e-43 1.8337044e-22
000020 92 8d 57 17 f4 01 00 00 f4 01 00 00 f4 01 00 00
       6.9648934e-25 7e-43 7e-43 7e-43
000030 f4 01 00 00 37 a4 e8 1a 7e ea 94 15 f4 01 00 00
       7e-43 9.6218254e-23 6.014669e-26 7e-43
000040 f2 d4 fc 1a f4 01 00 00 f4 01 00 00 87 be 15 1b
       1.0456879e-22 7e-43 7e-43 1.2386554e-22
000050 6d 2f d8 15 f4 01 00 00 f4 01 00 00 f4 01 00 00
       8.731653e-26 7e-43 7e-43 7e-43
000060 da 1b 3e 1b f4 01 00 00 a7 aa de 1b f4 01 00 00
       1.5725431e-22 7e-43 3.68371e-22 7e-43
000070 7a 86 6a 1b 79 09 b9 1a e4 03 26 1b f4 01 00 00
       1.9399478e-22 7.652951e-23 1.3732455e-22 7e-43
000080 58 aa 1b 1b 6c 8c 83 1b d2 ed 51 1a f4 01 00 00
       1.287634e-22 2.1762878e-22 4.3412297e-23 7e-43
000090 f4 01 00 00 f4 01 00 00 f4 01 00 00 c6 03 ab 18
       7e-43 7e-43 7e-43 4.4206274e-24
0000a0 b0 ae 10 1b f4 01 00 00 b2 6b 08 1b f4 01 00 00
       1.1967845e-22 7e-43 1.1284455e-22 7e-43
0000b0 f4 01 00 00 f4 01 00 00 0c 6e 82 1c 83 34 95 19
       7e-43 7e-43 8.631125e-22 1.5427448e-23

exp_avg f4 [48, 48]
000000 04 00 00 00 04 00 00 00 04 00 00 00 04 00 00 00
       6e-45 6e-45 6e-45 6e-45
000010 04 00 00 00 04 00 00 00 04 00 00 80 b1 71 9b 19
       6e-45 6e-45 -6e-45 1.6072544e-23
000020 18 2b 03 18 04 00 00 00 04 00 00 00 04 00 00 00
       1.695311e-24 6e-45 6e-45 6e-45
000030 04 00 00 00 91 13 37 19 6f 11 49 19 04 00 00 00
       6e-45 9.46483e-24 1.0394977e-23 6e-45
000040 2f 83 d2 19 04 00 00 00 04 00 00 00 1a 79 2e 19
       2.1766476e-23 6e-45 6e-45 9.0200454e-24
000050 24 2a c3 18 04 00 00 00 04 00 00 00 04 00 00 00
       5.044887e-24 6e-45 6e-45 6e-45
000060 42 a8 40 19 04 00 00 00 7e 77 41 19 04 00 00 00
       9.960147e-24 6e-45 1.0001997e-23 6e-45
000070 83 d6 be 16 a0 ee 0f 19 81 df 09 19 04 00 00 80
       3.0831531e-25 7.441117e-24 7.12787e-24 -6e-45
000080 f3 1e d0 18 ea 3c 8c 19 a4 66 d9 18 04 00 00 00
       5.379799e-24 1.4500264e-23 5.6196826e-24 6e-45
000090 04 00 00 80 04 00 00 00 04 00 00 00 f0 a4 36 18
       -6e-45 6e-45 6e-45 2.360622e-24
0000a0 dd 37 7f 18 04 00 00 00 88 b1 b1 17 04 00 00 00
       3.2986181e-24 6e-45 1.1483172e-24 6e-45
0000b0 04 00 00 00 04 00 00 00 5d 47 ee 19 f6 f5 f7 17
       6e-45 6e-45 2.4637447e-23 1.602409e-24
0000c0 04 00 00 80 04 00 00 80 04 00 00 80 04 00 00 80
       -6e-45 -6e-45 -6e-45 -6e-45
0000d0 04 00 00 80 04 00 00 80 04 00 00 80 48 01 03 99
       -6e-45 -6e-45 -6e-45 -6.7728e-24
0000e0 88 17 5d 97 04 00 00 80 04 00 00 80 04 00 00 80
       -7.143865e-25 -6e-45 -6e-45 -6e-45
0000f0 04 00 00 80 0d 4b 9a 98 be 74 a9 98 04 00 00 80
       -6e-45 -3.988385e-24 -4.3803356e-24 -6e-45
000100 5d 6a 31 99 04 00 00 80 04 00 00 80 d1 0a 93 98
       -9.1721654e-24 -6e-45 -6e-45 -3.800953e-24
000110 18 7b 24 98 04 00 00 80 04 00 00 80 04 00 00 80
       -2.125865e-24 -6e-45 -6e-45 -6e-45
000120 11 5e a2 98 04 00 00 80 be 0c a3 98 04 00 00 80
       -4.1971e-24 -6e-45 -4.214738e-24 -6e-45
000130 8d d5 20 96 12 9b 72 98 a8 64 68 98 04 00 00 80
       -1.2992082e-25 -3.1356057e-24 -3.0036116e-24 -6e-45
000140 57 66 2f 98 15 61 ec 98 92 38 37 98 04 00 00 80
       -2.2669888e-24 -6.1102598e-24 -2.3680756e-24 -6e-45
000150 04 00 00 80 04 00 00 80 04 00 00 80 d3 ed 99 97
       -6e-45 -6e-45 -6e-45 -9.947429e-25
000160 b7 17 d7 97 04 00 00 80 a1 c1 15 97 04 00 00 80
       -1.3900036e-24 -6e-45 -4.838889e-25 -6e-45
000170 04 00 00 80 04 00 00 80 fd d0 48 99 f0 f9 50 97
       -6e-45 -6e-45 -1.03819625e-23 -6.752389e-25
000180 04 00 00 80 04 00 00 80 04 00 00 80 04 00 00 80
       -6e-45 -6e-45 -6e-45 -6e-45
000190 04 00 00 80 04 00 00 80 00 00 00 00 e8 30 19 99
       -6e-45 -6e-45 0.0 -7.919791e-24
0001a0 67 44 81 97 04 00 00 80 04 00 00 80 04 00 00 80
       -8.353697e-25 -6e-45 -6e-45 -6e-45
0001b0 04 00 00 80 4f 6c b4 98 61 27 c6 98 04 00 00 80
       -6e-45 -4.6638273e-24 -5.1221563e-24 -6e-45
0001c0 12 76 4f 99 04 00 00 80 04 00 00 80 be f1 ab 98
       -1.0725493e-23 -6e-45 -6e-45 -4.444656e-24
0001d0 03 56 40 98 04 00 00 80 04 00 00 80 04 00 00 80
       -2.4858843e-24 -6e-45 -6e-45 -6e-45
0001e0 6f dd bd 98 04 00 00 80 9e a9 be 98 04 00 00 80
       -4.9078946e-24 -6e-45 -4.928512e-24 -6e-45
0001f0 64 12 3c 96 87 d8 8d 98 e9 df 87 98 04 00 00 80
       -1.5192322e-25 -3.6666282e-24 -3.5122774e-24 -6e-45
000200 ab 1a 4d 98 99 34 0a 99 fa 3f 56 98 04 00 00 80
       -2.6509093e-24 -7.145055e-24 -2.7691152e-24 -6e-45
000210 04 00 00 80 04 00 00 80 04 00 00 80 43 ff b3 97
       -6e-45 -6e-45 -6e-45 -1.1632041e-24
000220 de 84 fb 97 04 00 00 80 35 1e 2f 97 04 00 00 80
       -1.6254035e-24 -6e-45 -5.6583676e-25 -6e-45
000230 04 00 00 80 04 00 00 80 39 d3 6a 99 e5 5d 74 97
       -6e-45 -6e-45 -1.21401725e-23 -7.8959164e-25
000240 04 00 00 00 04 00 00 00 04 00 00 00 04 00 00 00
       6e-45 6e-45 6e-45 6e-45
000250 04 00 00 00 04 00 00 00 04 00 00 80 25 64 28 19
       6e-45 6e-45 -6e-45 8.7056205e-24
000260 ef 17 8e 17 04 00 00 00 04 00 00 00 04 00 00 00
       9.182577e-25 6e-45 6e-45 6e-45
000270 04 00 00 00 3b 53 c6 18 ad d0 d9 18 04 00 00 00
       6e-45 5.126584e-24 5.6303894e-24 6e-45
000280 c9 0b 64 19 04 00 00 00 04 00 00 00 4c 01 bd 18
       1.1789704e-23 6e-45 6e-45 4.8856664e-24
000290 8b 6b 53 18 04 00 00 00 04 00 00 00 04 00 00 00
       2.7325406e-24 6e-45 6e-45 6e-45
0002a0 39 b4 d0 18 04 00 00 00 b1 94 d1 18 04 00 00 00
       5.394872e-24 6e-45 5.4175374e-24 6e-45
0002b0 9f bb 4e 16 9a eb 9b 18 4e 5b 95 18 04 00 00 80
       1.669975e-25 4.0304458e-24 3.860779e-24 -6e-45
0002c0 95 74 61 18 25 eb 17 19 2f 82 6b 18 04 00 00 00
       2.9139427e-24 7.854004e-24 3.0438764e-24 6e-45
0002d0 04 00 00 80 04 00 00 00 04 00 00 00 68 db c5 17
       -6e-45 6e-45 6e-45 1.2786213e-24
0002e0 dc 3c 0a 18 04 00 00 00 64 7e 40 17 04 00 00 00
       1.7866808e-24 6e-45 6.2198073e-25 6e-45
0002f0 04 00 00 00 04 00 00 00 09 10 81 19 8c 4e 86 17
       6e-45 6e-45 1.3344764e-23 8.679375e-25
000300 04 00 00 00 04 00 00 00 04 00 00 00 04 00 00 00
       6e-45 6e-45 6e-45 6e-45
000310 04 00 00 00 04 00 00 00 04 00 00 80 93 0f 06 19
       6e-45 6e-45 -6e-45 6.930783e-24
000320 c7 3f 62 17 04 00 00 00 04 00 00 00 04 00 00 00
       7.3105037e-25 6e-45 6e-45 6e-45
000330 04 00 00 00 5f e4 9d 18 95 68 ad 18 04 00 00 00
       6e-45 4.0814145e-24 4.4825053e-24 6e-45
000340 c5 8d 35 19 04 00 00 00 04 00 00 00 e7 78 96 18
       9.386111e-24 6e-45 6e-45 3.889617e-24
000350 36 51 28 18 04 00 00 00 04 00 00 00 04 00 00 00
       2.1754492e-24 6e-45 6e-45 6e-45
000360 b2 27 a6 18 04 00 00 00 62 da a6 18 04 00 00 00
       4.2950076e-24 6e-45 4.3130505e-24 6e-45
000370 ff 95 24 16 c7 43 78 18 58 d0 6d 18 04 00 00 80
       1.3295145e-25 3.2087468e-24 3.0736719e-24 -6e-45
000380 c5 7d 33 18 a0 e4 f1 18 a2 7e 3b 18 04 00 00 00
       2.3198705e-24 6.2527892e-24 2.4233117e-24 6e-45
000390 04 00 00 80 04 00 00 00 04 00 00 00 fe 84 9d 17
       -6e-45 6e-45 6e-45 1.0179459e-24
0003a0 1a 1c dc 17 04 00 00 00 df 3f 19 17 04 00 00 00
       1.4224261e-24 6e-45 4.9517583e-25 6e-45
0003b0 04 00 00 00 04 00 00 00 26 80 4d 19 ca d9 55 17
       6e-45 6e-45 1.0624131e-23 6.90989e-25
0003c0 04 00 00 00 04 00 00 00 04 00 00 00 04 00 00 00
       6e-45 6e-45 6e-45 6e-45
0003d0 04 00 00 00 04 00 00 00 04 00 00 00 83 f0 2b 16
       6e-45 6e-45 6e-45 1.3889162e-25
0003e0 6e 16 91 14 04 00 00 00 04 00 00 00 04 00 00 00
       1.4650105e-26 6e-45 6e-45 6e-45
0003f0 04 00 00 00 15 81 ca 15 b3 67 de 15 04 00 00 00
       6e-45 8.1790806e-26 8.9828694e-26 6e-45

exp_avg_sq f4 [48, 48]
000000 f4 01 00 00 f4 01 00 00 f4 01 00 00 f4 01 00 00
       7e-43 7e-43 7e-43 7e-43
000010 f4 01 00 00 f4 01 00 00 f4 01 00 00 7d dc a0 18
       7e-43 7e-43 7e-43 4.1581667e-24
000020 14 42 4a 15 f4 01 00 00 f4 01 00 00 f4 01 00 00
       4.0845702e-26 7e-43 7e-43 7e-43
000030 f4 01 00 00 b5 60 dd 17 e3 5a 06 18 f4 01 00 00
       7e-43 1.4306203e-24 1.736498e-24 7e-43
000040 4a 43 13 19 f4 01 00 00 f4 01 00 00 66 24 ce 17
       7.613311e-24 7e-43 7e-43 1.3321626e-24
000050 91 99 f5 16 f4 01 00 00 f4 01 00 00 f4 01 00 00
       3.96788e-25 7e-43 7e-43 7e-43
000060 8f cc f8 17 f4 01 00 00 17 6b f6 17 f4 01 00 00
       1.6078262e-24 7e-43 1.5924411e-24 7e-43
000070 f1 c6 78 13 5a 5b 8d 17 62 e7 7c 17 f4 01 00 00
       3.1400086e-27 9.134972e-25 8.171764e-25 7e-43
000080 1f bd 0d 17 8a 40 81 18 1e 7c 20 17 f4 01 00 00
       4.579826e-25 3.3410886e-24 5.1855446e-25 7e-43
000090 f4 01 00 00 f4 01 00 00 f4 01 00 00 9c 12 d8 15
       7e-43 7e-43 7e-43 8.7271066e-26
0000a0 15 6c 47 16 f4 01 00 00 0a 98 e8 14 f4 01 00 00
       1.6109197e-25 7e-43 2.3485982e-26 7e-43
0000b0 f4 01 00 00 f4 01 00 00 52 d6 39 19 d2 c9 4e 15
       7e-43 7e-43 9.6075575e-24 4.1760577e-26
0000c0 f4 01 00 00 f4 01 00 00 f4 01 00 00 f4 01 00 00
       7e-43 7e-43 7e-43 7e-43
0000d0 f4 01 00 00 f4 01 00 00 f4 01 00 00 97 5b 64 17
       7e-43 7e-43 7e-43 7.3786376e-25
0000e0 96 90 0f 14 f4 01 00 00 f4 01 00 00 f4 01 00 00
       7.2481696e-27 7e-43 7e-43 7e-43
0000f0 f4 01 00 00 40 22 9d 16 bb ba be 16 f4 01 00 00
       7e-43 2.5386333e-25 3.0814e-25 7e-43
000100 ad 0d d1 17 f4 01 00 00 f4 01 00 00 8f 51 92 16
       1.3509761e-24 7e-43 7e-43 2.3639043e-25
000110 be 53 ae 15 f4 01 00 00 f4 01 00 00 f4 01 00 00
       7.041016e-26 7e-43 7e-43 7e-43
000120 d0 98 b0 16 f4 01 00 00 3f e8 ae 16 f4 01 00 00
       2.8530772e-25 7e-43 2.8257784e-25 7e-43
000130 06 91 30 12 36 ab 48 16 b0 82 33 16 f4 01 00 00
       5.5714563e-28 1.6209896e-25 1.4500743e-25 7e-43
000140 64 36 c9 15 51 7c 37 17 96 d2 e3 15 f4 01 00 00
       8.1269067e-26 5.92874e-25 9.2016816e-26 7e-43
000150 f4 01 00 00 f4 01 00 00 f4 01 00 00 56 5e 99 14
       7e-43 7e-43 7e-43 1.5486261e-26
000160 1e 8d 0d 15 f4 01 00 00 a0 17 a5 13 f4 01 00 00
       2.8586045e-26 7e-43 4.167515e-27 7e-43
000170 f4 01 00 00 f4 01 00 00 2a e8 03 18 09 c7 12 14
       7e-43 7e-43 1.7048566e-24 7.410369e-27
000180 f4 01 00 00 f4 01 00 00 f4 01 00 00 f4 01 00 00
       7e-43 7e-43 7e-43 7e-43
000190 f4 01 00 00 f4 01 00 00 00 00 00 00 e8 30 9c 17
       7e-43 7e-43 0.0 1.0093609e-24
0001a0 2a 63 44 14 f4 01 00 00 f4 01 00 00 f4 01 00 00
       9.915028e-27 7e-43 7e-43 7e-43
0001b0 f4 01 00 00 6a f3 d6 16 41 74 02 17 f4 01 00 00
       7e-43 3.472718e-25 4.2152e-25 7e-43
0001c0 c2 fc 0e 18 f4 01 00 00 f4 01 00 00 38 28 c8 16
       1.848068e-24 7e-43 7e-43 3.2337124e-25
0001d0 46 78 ee 15 f4 01 00 00 f4 01 00 00 f4 01 00 00
       9.631719e-26 7e-43 7e-43 7e-43
0001e0 7a 93 f1 16 f4 01 00 00 ab 43 ef 16 f4 01 00 00
       3.902872e-25 7e-43 3.8655237e-25 7e-43
0001f0 04 8c 71 12 b4 40 89 16 a0 8f 75 16 f4 01 00 00
       7.6218774e-28 2.2174377e-25 1.9836262e-25 7e-43
000200 be 9f 09 16 bd ff 7a 17 39 d3 1b 16 f4 01 00 00
       1.1117178e-25 8.1102144e-25 1.258745e-25 7e-43
000210 f4 01 00 00 f4 01 00 00 f4 01 00 00 bf cc d1 14
       7e-43 7e-43 7e-43 2.1184365e-26
000220 30 a2 41 15 f4 01 00 00 0d d7 e1 13 f4 01 00 00
       3.9103983e-26 7e-43 5.701004e-27 7e-43
000230 f4 01 00 00 f4 01 00 00 1e 71 34 18 da c8 48 14
       7e-43 7e-43 2.3321564e-24 1.01370306e-26
000240 f4 01 00 00 f4 01 00 00 f4 01 00 00 f4 01 00 00
       7e-43 7e-43 7e-43 7e-43
000250 f4 01 00 00 f4 01 00 00 f4 01 00 00 60 cd bc 17
       7e-43 7e-43 7e-43 1.2201059e-24
000260 76 63 6d 14 f4 01 00 00 f4 01 00 00 f4 01 00 00
       1.19850574e-26 7e-43 7e-43 7e-43
000270 f4 01 00 00 48 ea 01 17 16 b1 1d 17 f4 01 00 00
       7e-43 4.1977853e-25 5.095295e-25 7e-43
000280 7a d7 2c 18 f4 01 00 00 f4 01 00 00 d1 f2 f1 16
       2.2339267e-24 7e-43 7e-43 3.9088889e-25
000290 41 21 10 16 f4 01 00 00 f4 01 00 00 f4 01 00 00
       1.164272e-25 7e-43 7e-43 7e-43
0002a0 f9 01 12 17 f4 01 00 00 2a 9c 10 17 f4 01 00 00
       4.7177634e-25 7e-43 4.6726016e-25 7e-43
0002b0 58 ff 91 12 18 e9 a5 16 87 6a 94 16 f4 01 00 00
       9.213734e-28 2.680429e-25 2.3977918e-25 7e-43
0002c0 c1 5b 26 16 dc b3 97 17 5f 5c 3c 16 f4 01 00 00
       1.3438326e-25 9.803549e-25 1.5215666e-25 7e-43
0002d0 f4 01 00 00 f4 01 00 00 f4 01 00 00 71 9a fd 14
       7e-43 7e-43 7e-43 2.5607388e-26
0002e0 7c 0f 6a 15 f4 01 00 00 84 7f 08 14 f4 01 00 00
       4.726814e-26 7e-43 6.891393e-27 7e-43
0002f0 f4 01 00 00 f4 01 00 00 d0 1d 5a 18 02 b5 72 14
       7e-43 7e-43 2.8190891e-24 1.2253575e-26
000300 f4 01 00 00 f4 01 00 00 f4 01 00 00 f4 01 00 00
       7e-43 7e-43 7e-43 7e-43
000310 f4 01 00 00 f4 01 00 00 f4 01 00 00 59 58 6f 17
       7e-43 7e-43 7e-43 7.7336575e-25
000320 03 78 16 14 f4 01 00 00 f4 01 00 00 f4 01 00 00
       7.596733e-27 7e-43 7e-43 7e-43
000330 f4 01 00 00 9e b1 a4 16 02 e8 c7 16 f4 01 00 00
       7e-43 2.660772e-25 3.2296601e-25 7e-43
000340 a5 1c db 17 f4 01 00 00 f4 01 00 00 fe 5b 99 16
       1.4159774e-24 7e-43 7e-43 2.4776538e-25
000350 ae b6 b6 15 f4 01 00 00 f4 01 00 00 f4 01 00 00
       7.379743e-26 7e-43 7e-43 7e-43
000360 15 18 b9 16 f4 01 00 00 91 52 b7 16 f4 01 00 00
       2.990356e-25 7e-43 2.9617351e-25 7e-43
000370 25 15 39 12 29 53 52 16 bb 25 3c 16 f4 01 00 00
       5.840177e-28 1.6989906e-25 1.5198425e-25 7e-43
000380 7c e4 d2 15 4f 50 40 17 0c c9 ee 15 f4 01 00 00
       8.517881e-26 6.213991e-25 9.644463e-26 7e-43
000390 f4 01 00 00 f4 01 00 00 f4 01 00 00 2c bf a0 14
       7e-43 7e-43 7e-43 1.6231275e-26
0003a0 fc 5b 14 15 f4 01 00 00 fc 09 ad 13 f4 01 00 00
       2.9960925e-26 7e-43 4.3681185e-27 7e-43
0003b0 f4 01 00 00 f4 01 00 00 da 40 0a 18 1b d7 19 14
       7e-43 7e-43 1.7868824e-24 7.766948e-27
0003c0 f4 01 00 00 f4 01 00 00 f4 01 00 00 f4 01 00 00
       7e-43 7e-43 7e-43 7e-43
0003d0 f4 01 00 00 f4 01 00 00 f4 01 00 00 75 73 c5 11
       7e-43 7e-43 7e-43 3.1152276e-28
0003e0 a4 3d 78 0e f4 01 00 00 f4 01 00 00 f4 01 00 00
       3.0598039e-30 7e-43 7e-43 7e-43
0003f0 f4 01 00 00 86 dd 07 11 53 ea 24 11 f4 01 00 00
       7e-43 1.0717884e-28 1.3009526e-28 7e-43
