ModelPara/DDPG/Mario_targetPi_DDQN2021-10-08T10-47-31.pth (torch, 17375 bytes, 6 tensors)

Linear1.weight f4 [48, 24]
0	0x3d4106d0	0.047125638
1	0x3d20dbd4	0.039272144
2	0xbe4f74b4	-0.20259362
3	0x3e1a63a6	0.15077075
4	0xbe048550	-0.1294148
5	0x3d8fd4d0	0.07023013
6	0xbda82d48	-0.08211762
7	0xbdafcd27	-0.085840516
8	0x3a750500	0.00093467534
9	0x3e1ebc00	0.15501404
10	0xbd2c80dc	-0.042115077
11	0x3dd30194	0.103030354
12	0xbdb71312	-0.08939184
13	0xbd1ea38c	-0.03873019
14	0x3df30920	0.11866975
15	0x3de819e4	0.11333063
16	0xbd84f786	-0.06492524
17	0xbe22e8c4	-0.15909106
18	0xbe3864d5	-0.18007214
19	0x3e3e31b8	0.18573654
20	0x3e3f6304	0.18690115
21	0xbe2111e8	-0.15729487
22	0x3cca35a0	0.024683774
23	0x3d4a6018	0.04940805
24	0xbd2c4a7c	-0.04206322
25	0x3d62aa28	0.055338055
26	0xbe35fd82	-0.17772487
27	0x3d9abc08	0.07555395
28	0x3e4e6f62	0.20159677
29	0xbe4f5c08	-0.20249951
30	0x3d86d6a4	0.06583908
31	0x3e03a85a	0.1285719
32	0xbd558edc	-0.052138194
33	0xbe30e8ad	-0.17276259
34	0x3cad1128	0.021126345
35	0xbd2095b8	-0.039205283
36	0x3da01040	0.078155994
37	0x3e34f60c	0.17671984
38	0xbe28de26	-0.16490993
39	0x3d89b108	0.06723219
40	0x3d93ede8	0.072231114
41	0xbce593b8	-0.02802454
42	0xbd02ed30	-0.03196448
43	0x3d939a1c	0.072071284
44	0xbe48abdd	-0.1959681
45	0xbd1e8970	-0.03870529
46	0xbd8dea12	-0.06929411
47	0xbba334c0	-0.0049806535
48	0xbca1da18	-0.019757316
49	0x3e0d88f4	0.13821775
50	0x3d27c430	0.040958583
51	0xbdb502d0	-0.08838427
52	0x3e476450	0.1947186
53	0x3d23ffe8	0.040038973
54	0xbdfd8e10	-0.12380612
55	0xbdb0bfb4	-0.086303145
56	0x3d366cb8	0.044537276
57	0x3e4ace1a	0.19805184
58	0x3dc0c3e0	0.0941236
59	0xbdf6fc7a	-0.12059875
60	0x3e46e7b6	0.19424328
61	0x3e2bc154	0.16772968
62	0x3e1c7f18	0.15282857
63	0xbdbdaaa8	-0.09261066
64	0xbcf1cd40	-0.029516816
65	0xbd2ee554	-0.042699173
66	0x3d154dd8	0.03645119
67	0x3d9cd2d0	0.07657397
68	0x3d608938	0.054818362
69	0xbdc199ee	-0.09453188
70	0x3e39f848	0.18161118
71	0x3d0435c0	0.032277822
72	0xbcd9d988	-0.026592985
73	0x3cc02658	0.023455784
74	0xbdaa6b13	-0.08321204
75	0xbdb5c6bb	-0.088757955
76	0x3e0890ee	0.13336536
77	0xbdb3d562	-0.08780934
78	0xbd4267ec	-0.04746239
79	0x3c699d80	0.014258742
80	0xbc688850	-0.014192656
81	0x3e1eb436	0.15498433
82	0x3e091562	0.13387063
83	0x3d9e7dd4	0.077388436
84	0xbd70511c	-0.058671102
85	0x3e009336	0.12556157
86	0x3db1cda0	0.08681798
87	0x3dd7ec08	0.10543066
88	0xbe12f8a3	-0.1435266
89	0x3dff03a8	0.12451869
90	0xbd90bf72	-0.07067765
91	0x3c908430	0.017641157
92	0xbdf617b8	-0.12016243
93	0x3e2fb810	0.17160058
94	0xbe075016	-0.13214144
95	0xbdce47f0	-0.10072315
96	0x3d115db8	0.035489768
97	0x3e4ec66c	0.2019288
98	0xbdcdffb1	-0.10058535
99	0xbd5a38f4	-0.05327697
100	0xbdfddd8c	-0.12395772
101	0xbd8b2c5e	-0.06795572
102	0x3e13152c	0.14363545
103	0xbdad5853	-0.08464112
104	0xbe4b02a2	-0.19825223
105	0xbd4c08d8	-0.04981312
106	0xbe00701f	-0.12542771
107	0xbe0bcc84	-0.13652235
108	0xbd5d5558	-0.05403647
109	0xbca21dd8	-0.019789621
110	0x3c58c530	0.013230607
111	0x3dbc537c	0.09195611
112	0x3e0e9eba	0.13927737
113	0x3da824cc	0.082101434
114	0xbd575520	-0.052571416
115	0xbe06193c	-0.13095564
116	0x3cefa2a8	0.029252365
117	0x3d98749c	0.074441165
118	0x3e1ee0a4	0.15515381
119	0xbe3259b0	-0.17417026
120	0x3dd4c79c	0.10389635
121	0x3e2cb6b6	0.16866574
122	0x3d80f560	0.062968016
123	0xbd7fefa4	-0.0624844
124	0xbdee0ade	-0.116231665
125	0xbc903f20	-0.017608225
126	0xbd3a0a68	-0.04542008
127	0x3e096050	0.13415647
128	0xbcf82b30	-0.03029403
129	0xbdb2e6d3	-0.087354325
130	0x3cea97f8	0.028636917
131	0x3e0c8548	0.13722718
132	0xbce2b238	-0.027672872
133	0xbe0b722d	-0.13617773
134	0x3e4998b0	0.19687152
135	0x3e29e6c0	0.1659193
136	0xbe0a5930	-0.13510585
137	0xbe0644d0	-0.13112187
138	0x3e1ffd50	0.15623975
139	0xbd68c104	-0.0568247
140	0xbdc1ebf3	-0.09468832
141	0x3ce588b8	0.028019294
142	0x3dad6700	0.08466911
143	0xbdbee216	-0.09320466
144	0xbe4315aa	-0.19051233
145	0xbd82c1e0	-0.06384635
146	0x3e44adac	0.19206876
147	0x3d8236ac	0.06358084
148	0xbdf43bba	-0.119254544
149	0xbde0f312	-0.10983862
150	0xbe368c03	-0.17826848
151	0x3ce4d848	0.027935162
152	0xbe214b28	-0.15751326
153	0xbd2f910c	-0.042862937
154	0xbd5316a0	-0.05153525
155	0x3d844a4c	0.064594835
156	0x3a977b80	0.0011557192
157	0x3d978f00	0.07400322
158	0x3e30b788	0.17257512
159	0x3e1077f0	0.14108253
160	0xbddb94d5	-0.10721747
161	0xbd29cc24	-0.04145445
162	0x3daab7d4	0.08335844
163	0x3e0b2be6	0.13590965
164	0x3dbbe1e8	0.091739476
165	0xbe3f7f34	-0.18700868
166	0x3b606e00	0.0034245253
167	0x3c8340f8	0.01602219
168	0x3d8807c0	0.06642103
169	0xbe325de2	-0.17418626
170	0xbe348c89	-0.17631735
171	0x3dcc0014	0.099609524
172	0x3e501246	0.20319471
173	0xbe11df6e	-0.14245388
174	0xbe11c0a0	-0.14233637
175	0xbdfd4439	-0.12366528
176	0xbd2c0154	-0.041993454
177	0x3dddbe9c	0.108273715
178	0xbafcb800	-0.001928091
179	0xbcdebc30	-0.027189344
180	0x3da78340	0.08179331
181	0xbc7e8b40	-0.0155361295
182	0x3e0bc6cc	0.13650054
183	0xbdb1d352	-0.08682884
184	0xbe2373a4	-0.15962082
185	0xbcca7020	-0.024711668
186	0xbe276dcc	-0.16350478
187	0x3db4ecf0	0.08834255
188	0x3c027760	0.0079630315
189	0x3e39698e	0.18106672
190	0x3d419f40	0.047271013
191	0xbe2a9ed8	-0.16662157
192	0x3e40356e	0.18770382
193	0xbca961c8	-0.020676509
194	0x3e2cc1d6	0.16870818
195	0xbd3d58b4	-0.046227172
196	0xbd72b834	-0.0592577
197	0x3e44214a	0.19153324
198	0x3e24987c	0.16073793
199	0xbe0d5a0d	-0.13803883
200	0x3e50d8b6	0.20395169
201	0x3deba090	0.11505234
202	0xbcb79fd8	-0.022415087
203	0xbe45e631	-0.19326092
204	0x3e2adfb8	0.16686904
205	0x3e4bf53c	0.19917768
206	0x3e277d76	0.16356453
207	0xbdab79c1	-0.08372832
208	0x3e24e9c8	0.16104805
209	0xbe35b2bf	-0.17743967
210	0x3db2a568	0.08722955
211	0x3cc79880	0.02436471
212	0xbde2d836	-0.11076395
213	0x3d0d7824	0.034538403
214	0xbd4a292c	-0.04935567
215	0x3e089374	0.13337499
216	0xbe101854	-0.1407178
217	0xbe37453a	-0.17897502
218	0x3e1ef0a8	0.1552149
219	0x3dc751e4	0.09732416
220	0xbdcb0fd3	-0.099151276
221	0xbe4cff55	-0.20019276
222	0xbdc26cff	-0.094934456
223	0xbd9180b4	-0.07104626
224	0x3dc53290	0.09628785
225	0xbdbf1bda	-0.09331484
226	0x3e3cb9e8	0.18430293
227	0x3d23d868	0.040001303
228	0x3e0e60f4	0.13904172
229	0xbe02a5b8	-0.12758529
230	0x3c132220	0.008980304
231	0x3dadc674	0.084851176
232	0x3e171e82	0.14757732
233	0xbd4e534c	-0.050372407
234	0xbe486e17	-0.19573246
235	0x3e22b418	0.15889013
236	0x3e0d0018	0.13769567
237	0x3d38c1d8	0.04510674
238	0xbe40a1c3	-0.18811707
239	0xbd900622	-0.0703242
240	0x3dba19c4	0.09086946
241	0xbd7fb8c4	-0.062432066
242	0xbe41f3de	-0.18940684
243	0xbe1958e2	-0.14975312
244	0xbbedc360	-0.0072559565
245	0x3e408ac2	0.18802932
246	0x3b91fd40	0.0044552386
247	0x3d898b58	0.06716031
248	0x3c277860	0.010221571
249	0xbd7023a4	-0.05862774
250	0x3e2f9dd4	0.1715005
251	0xbe092d22	-0.13396123
252	0x3be12b40	0.006871611
253	0x3cf9df10	0.030501872
254	0x3cfea828	0.031086043
255	0xbcb5d288	-0.022195116

Linear1.bias f4 [48]
0	0x3d496da8	0.049176842
1	0xbb1368c0	-0.0022492856
2	0x3e315ec2	0.17321303
3	0x3d3d4a58	0.046213478
4	0xbd38ed58	-0.045148224
5	0x3d539ce8	0.05166331
6	0x3e2bbd30	0.16771388
7	0x3e39d432	0.18147352
8	0xbdb04674	-0.08607188
9	0x3c7873f0	0.01516436
10	0x3e016104	0.12634665
11	0xbe296ded	-0.1654584
12	0xbcad5658	-0.021159336
13	0xbd876eae	-0.06612907
14	0x3d324e6c	0.04353182
15	0x3dd87cc4	0.10570672
16	0x3e18933e	0.14899918
17	0x3e11f9d4	0.14255458
18	0xbe01b8e2	-0.12668183
19	0xbd6e2594	-0.058141306
20	0xbd025144	-0.031815782
21	0xbdd87312	-0.10568823
22	0xbda40065	-0.08007888
23	0xbd96bc6c	-0.07360157
24	0x3dcd4e84	0.10024741
25	0xbd50175c	-0.050803527
26	0x3dbbd014	0.09170547
27	0x3dad3ddc	0.08459064
28	0x3d4989b8	0.049203604
29	0xbe427e21	-0.18993427
30	0x3d440c28	0.047863156
31	0x3da2d568	0.0795086
32	0xbe295a03	-0.16538243
33	0x3df48068	0.11938554
34	0xbda1d266	-0.079014584
35	0xbe2dc701	-0.16970445
36	0x3e1fa536	0.15590367
37	0xbdae9b59	-0.08525724
38	0xbc7a66c0	-0.015283287
39	0x3c4d95f0	0.012547955
40	0xbe3075a2	-0.17232373
41	0x3be2c8c0	0.006920904
42	0x3d643410	0.055713713
43	0x3c429950	0.011877373
44	0xbdd2f21e	-0.103000864
45	0x3da21908	0.079149306
46	0xbd12c8c8	-0.03583601
47	0x3dc3bd74	0.0955762

Linear2.weight f4 [48, 48]
0	0xbd288e50	-0.041151345
1	0xbcbbcbac	-0.022924267
2	0x3d8db6bc	0.069196194
3	0xbba1df20	-0.0049399287
4	0x3dc7f618	0.097637355
5	0x3c5e7430	0.013577506
6	0x3d3f1908	0.04665473
7	0xbd0569dc	-0.03257166
8	0xbcdf4df0	-0.027258843
9	0x3d1019a8	0.035180718
10	0xbb475280	-0.0030414164
11	0xbdb7f013	-0.089813374
12	0x3e0b10a4	0.13580567
13	0xbe132aac	-0.14371747
14	0xbe05f7c0	-0.1308279
15	0x3d34a860	0.044105887
16	0xbcd9aaf4	-0.026570775
17	0x3db1bc1a	0.08678456
18	0xbdaa522e	-0.08316456
19	0x3da0f250	0.078587174
20	0x3e124b3a	0.14286509
21	0x3d54e724	0.051978245
22	0x3d9c063e	0.07618378
23	0xbd1f38c8	-0.03887251
24	0x3df7efe8	0.12106305
25	0x3c671e20	0.014106303
26	0xbddf321e	-0.10898231
27	0xbd96dae3	-0.07365968
28	0xbd7d1c58	-0.06179461
29	0x3db140aa	0.08654912
30	0xbdcf7c8c	-0.10131177
31	0xbc3e37a0	-0.011609942
32	0xbdd13866	-0.10215835
33	0xbd3d8074	-0.04626508
34	0x3c2a5980	0.010397315
35	0xbe09f4fe	-0.13472363
36	0xbdc395a6	-0.095500275
37	0x3d1fdf48	0.039031297
38	0xbc274080	-0.010208249
39	0xbd6bb706	-0.05754759
40	0xbe0802b8	-0.13282287
41	0xbc8f31a0	-0.017479718
42	0xbd434d04	-0.04768087
43	0x3db14306	0.08655362
44	0x3e04dd24	0.12974983
45	0xbc44c030	-0.012008712
46	0x3dd97ca0	0.106194735
47	0xbd41cf80	-0.047317028
48	0x3da55b60	0.08074069
49	0x3d9a8248	0.075443804
50	0x3be59600	0.007006407
51	0x3b937660	0.0045001954
52	0xbdc3a42c	-0.09552798
53	0xbdb315ac	-0.08744368
54	0x3bf7aa40	0.007558137
55	0xbd0ccbf6	-0.0343742
56	0x3e08300e	0.13299581
57	0xbdb97c00	-0.09056854
58	0x3dc33daa	0.09533246
59	0xbe096dc9	-0.13420786
60	0xbdbe0058	-0.09277409
61	0xbc8cab90	-0.017171651
62	0xbd5b6aee	-0.053568773
63	0x3d447ed0	0.0479725
64	0xbe07e8f2	-0.13272455
65	0xbcfc4368	-0.03079386
66	0x3d776c9c	0.060406312
67	0x3e06308c	0.13104457
68	0xbda834f5	-0.08213226
69	0x3dce61b6	0.10077231
70	0x3e0960ec	0.13415879
71	0x3d9f06ca	0.07764967
72	0xbd4decc6	-0.050274633
73	0x3d68a608	0.056798965
74	0x3db85aec	0.09001717
75	0x3db54ec2	0.088529125
76	0xbc8ad600	-0.016947746
77	0x3cbc1a90	0.022961885
78	0xbda1c55c	-0.078989714
79	0x3ae19580	0.0017210692
80	0xbd81087b	-0.06300446
81	0xbc562790	-0.013070956
82	0xbcde1b30	-0.027112573
83	0x3d5c6188	0.05380395
84	0x3d0f71b4	0.035020545
85	0xbe0f6510	-0.14003396
86	0xbdefdcb8	-0.11712021
87	0xbc8c9de0	-0.017165124
88	0xbdc4fea9	-0.09618885
89	0x3d7dccc0	0.061962843
90	0x3d114f80	0.035476208
91	0xbe0eb628	-0.13936675
92	0xbe0c7534	-0.13716584
93	0xbbb1e680	-0.005429089
94	0x3d8945ec	0.0670279
95	0xbce77a8c	-0.028256677
96	0xbe0142f4	-0.12623197
97	0x3e12fca0	0.14354181
98	0xbc8562e0	-0.016282499
99	0xbc440550	-0.011964157
100	0x3da63a22	0.08116557
101	0xbcb2b23c	-0.021813504
102	0xbc839fc8	-0.0160674
103	0x3df437b8	0.1192469
104	0x3cbd2ea8	0.023093536
105	0xbdf1c2d0	-0.11804736
106	0x3d9d69c0	0.07686186
107	0xbd9a6227	-0.07538252
108	0x3def2ca8	0.116784394
109	0xbda4cd54	-0.08046976
110	0x3c87a0e8	0.016556218
111	0xbd268d10	-0.04066187
112	0x3d542380	0.051791668
113	0xbcf09dc8	-0.029372111
114	0xbd863aff	-0.06554221
115	0xbc0535d0	-0.008130506
116	0x3d8c6d42	0.06856777
117	0x3c26b090	0.010173932
118	0xbca838e0	-0.020534933
119	0x3d91864a	0.07105692
120	0xbd212060	-0.039337516
121	0xbdacadff	-0.084316246
122	0xbd802989	-0.06257922
123	0x3d025eb4	0.031828597
124	0xbdca99e8	-0.098926365
125	0xbe07f0bd	-0.13275428
126	0xbcd94fec	-0.026527368
127	0xbd66e772	-0.056373067
128	0xbd82da42	-0.063892856
129	0x3e0aac00	0.13542175
130	0xbdb5417a	-0.08850379
131	0x3ba1a780	0.0049332976
132	0xbdd81ea3	-0.105527185
133	0xbdade7d2	-0.08491482
134	0x3df62890	0.120194554
135	0xbd2c8950	-0.04212314
136	0x3e023bf2	0.1271818
137	0xbce8d61c	-0.028422408
138	0xbd3742c8	-0.044741422
139	0x3d43d5f0	0.04781145
140	0x3e013f50	0.12621808
141	0x3c5c49b0	0.013445303
142	0x3d8a42a2	0.067509905
143	0xbe0ef394	-0.13960105
144	0x3d069c64	0.03286399
145	0xbcf1a9f0	-0.029499978
146	0x3dd2cd68	0.102930844
147	0xbd0ec06a	-0.03485147
148	0x3d26e01c	0.04074107
149	0xbdc666c8	-0.09687573
150	0x3d7dc440	0.061954737
151	0x3de9cea8	0.1141637
152	0x3d407078	0.04698226
153	0x3d13cf08	0.036086112
154	0xbc5df910	-0.013548151
155	0xbd94ab74	-0.072592646
156	0x3caaa0a0	0.020828545
157	0x3e11cf5a	0.14239255
158	0xbd946dbb	-0.07247492
159	0xbc8e2730	-0.01735267
160	0xbdeb2b12	-0.114828244
161	0xbd8ef7cb	-0.069808565
162	0xbd15e3ac	-0.036594078
163	0xbd887dfa	-0.06664653
164	0xbc3f65f0	-0.011682019
165	0xbdb94b2c	-0.09047541
166	0xbe0a1c80	-0.13487434
167	0xbca04c24	-0.019567557
168	0xbd865325	-0.06558827
169	0x3c8e8358	0.017396614
170	0x3df56574	0.11982241
171	0x3e03d72e	0.12875053
172	0x3dd3261a	0.10310002
173	0xbd061eb2	-0.032744117
174	0x3e06686e	0.13125774
175	0x3dbe33f6	0.092872545
176	0x3e0852d6	0.1331285
177	0xbcf40b40	-0.02979052
178	0xbd2e5072	-0.042557187
179	0x3e0a8b8a	0.13529792
180	0x3d7bda14	0.061487272
181	0xbd3fcbac	-0.046825096
182	0x3d3216c0	0.043478727
183	0x3e05cf86	0.13067445
184	0x3e0bdb6a	0.13657919
185	0x3c17d920	0.009268075
186	0x3d60a56c	0.05484526
187	0xbd948366	-0.07251625
188	0xbcfff994	-0.031246938
189	0x3dc96758	0.098341644
190	0x3d9061da	0.07049914
191	0x3d876bc4	0.066123515
192	0x3e0410a2	0.1289697
193	0xbdc80331	-0.09766234
194	0xbd79d03e	-0.06098961
195	0x3db96d88	0.090540946
196	0xbdac4402	-0.08411409
197	0xbda590ca	-0.08084257
198	0xbd8b7817	-0.06810015
199	0xbd642964	-0.055703536
200	0xbb9ac920	-0.004723683
201	0xbdd6fd54	-0.10497537
202	0x3c85db98	0.016340062
203	0x3d1bfabc	0.038080916
204	0x3d6ee3e4	0.058322802
205	0xbd63880a	-0.05554966
206	0xbdebb5c8	-0.115092814
207	0x3da41768	0.08012277
208	0xbdaf90d2	-0.08572544
209	0x3e0b0606	0.13576517
210	0xbc8cd528	-0.017191485
211	0xbe107e4f	-0.14110683
212	0xbdca648a	-0.098824576
213	0xbdead300	-0.11466026
214	0xbd827b1b	-0.06371137
215	0xbdb4f2fa	-0.088354066
216	0x3b143f40	0.0022620708
217	0x3e128f9a	0.14312592
218	0xbd9af95d	-0.075670935
219	0xbdbb94b4	-0.09159222
220	0xbde7aa24	-0.113117486
221	0xbdcfcb87	-0.10146242
222	0x3d8dea32	0.06929435
223	0x3e0dffdc	0.13867134
224	0x3df7e008	0.121032774
225	0x3c8a3cb8	0.016874656
226	0x3e0cfa80	0.13767433
227	0xbe047661	-0.12935783
228	0x3bbce1c0	0.005764216
229	0xbdcdf2fe	-0.10056113
230	0x3e107fee	0.14111301
231	0x3dbef548	0.093241274
232	0x3e085dfe	0.13317105
233	0xbd2936ee	-0.04131215
234	0xbcaeb0e8	-0.02132459
235	0xbd786fea	-0.060653605
236	0xbd2de460	-0.042454123
237	0x3dde1044	0.10842946
238	0xbdb8cac4	-0.090230495
239	0xbd91f1b3	-0.071261786
240	0x3d9d4b7c	0.07680413
241	0xbd484da6	-0.048902176
242	0x3dd19154	0.10232797
243	0xbde0fb51	-0.10985435
244	0x3df474e0	0.11936355
245	0xbe0b1022	-0.13580373
246	0xbc0e3e70	-0.008681878
247	0xbdfbc22e	-0.12292896
248	0xbe0399bf	-0.12851618
249	0xbc9b4ea8	-0.018958405
250	0xbde258c0	-0.11052084
251	0xbd44143e	-0.047870867
252	0xbe05a4a0	-0.1305108
253	0x3d28f51c	0.04124938
254	0xbcbc0c68	-0.022955135
255	0xbb96eea0	-0.004606083

Linear2.bias f4 [48]
0	0xbe0e1c4f	-0.13877986
1	0xbd81ee67	-0.063443
2	0xbdc490fc	-0.09597966
3	0x3ce44500	0.027864933
4	0x3e040462	0.12892297
5	0xbda2e3a3	-0.079535745
6	0x3d90fc1a	0.070793346
7	0x3b9e1d00	0.0048252344
8	0x3d5826b4	0.052771285
9	0x3e10c502	0.14137653
10	0x3dcc37b8	0.09971565
11	0xbdc8d683	-0.0980654
12	0xbd2bb22e	-0.041917972
13	0x3c9adef8	0.018905148
14	0x3d540cc0	0.05176997
15	0x3e060fc2	0.13091949
16	0xbd8e3a5a	-0.069447234
17	0xbc1938b0	-0.009351894
18	0x3dff4848	0.124649584
19	0x3c90d270	0.01767847
20	0x3d909752	0.07060112
21	0x3dbd4090	0.0924083
22	0xbc749750	-0.014928654
23	0xbd8fe886	-0.07026772
24	0x3d4ca4c4	0.04996182
25	0xbcdaa104	-0.026688106
26	0xbd7c063a	-0.061529376
27	0xbdb8ca0f	-0.090229146
28	0x3dc8f196	0.09811704
29	0x3d9977fc	0.07493588
30	0x3dea7938	0.11448902
31	0xbc5cc6c0	-0.01347512
32	0xbdb463ce	-0.08808099
33	0x3b6429c0	0.0034814924
34	0xbde17744	-0.11009076
35	0xbcfdd608	-0.030985847
36	0x3dc40464	0.0957115
37	0x3d2f7bf4	0.04284282
38	0xbddbdd52	-0.10735573
39	0x3dd82026	0.10553007
40	0xbbdc5940	-0.0067245066
41	0xbc980878	-0.018558726
42	0x3d60309c	0.054733858
43	0xbd466312	-0.048434325
44	0xbd057e60	-0.032591224
45	0xbd4b6ff0	-0.0496673
46	0x3d8330f2	0.0640582
47	0xbc48d5b0	-0.012257978

Linear3.weight f4 [4, 48]
0	0xbdca60fa	-0.09881778
1	0xbc9185a0	-0.017763913
2	0xbd42d14e	-0.04756289
3	0x3d6cf3d4	0.05784972
4	0x3d4c7928	0.04992023
5	0x3c28a5b0	0.010293409
6	0xbc0a2fa0	-0.008434206
7	0x3d905e30	0.07049215
8	0xbd6f7cc0	-0.05846858
9	0xbd4776f4	-0.048697427
10	0xbd4eaaf8	-0.050456017
11	0x3cb83fd8	0.02249138
12	0x3d76c2ec	0.060244486
13	0xbde56e66	-0.112026975
14	0x3c8584b8	0.016298637
15	0xbd3e3c12	-0.046444006
16	0xbc32c150	-0.010910347
17	0xbbe14920	-0.0068751723
18	0xbe0ee564	-0.13954693
19	0xbded8bff	-0.11598968
20	0x3dd10468	0.102059186
21	0xbdcefb18	-0.10106486
22	0x3dbbad4e	0.091639146
23	0xbd8c6be2	-0.068565145
24	0x3e048b7a	0.12943831
25	0xbe0b7970	-0.13620543
26	0xbdcb5658	-0.09928578
27	0x3e05f9ee	0.13083622
28	0xbd8d4ce8	-0.06899434
29	0x3dbab290	0.09116089
30	0xbdfe719a	-0.124240115
31	0x3dca30b0	0.09872568
32	0x3dc25978	0.09489721
33	0x3d9aead2	0.0756432
34	0x3d8afcb0	0.067864776
35	0x3d88aad6	0.06673209
36	0x3da0e8dc	0.078569144
37	0xbe0689f7	-0.13138567
38	0xbd45c5aa	-0.04828421
39	0x3dfb8be4	0.122825414
40	0xbd3345d8	-0.04376778
41	0xbdb9dcda	-0.09075327
42	0xbda2ff7a	-0.079588845
43	0xbdde52bd	-0.10855625
44	0xbd802a1d	-0.062580325
45	0x3da93f18	0.08263987
46	0xbc15f1d0	-0.009151891
47	0x3d15f41c	0.036609754
48	0x3b638b00	0.0034720302
49	0x3e075518	0.13216054
50	0x3dbff4fe	0.093729004
51	0xbc0f1ff0	-0.008735642
52	0xbcff7c14	-0.031187095
53	0xbd653bb0	-0.055965126
54	0x3bd56c00	0.0065131187
55	0x3d45d630	0.04829997
56	0xbc146ac0	-0.009058654
57	0x3ddb3bd4	0.10704771
58	0xbdf47c83	-0.11937811
59	0xbd78d6ee	-0.060751848
60	0xbc49d6c0	-0.012319267
61	0xbdafbf0e	-0.08581363
62	0x3e027962	0.12741616
63	0xbe0b72f7	-0.13618074
64	0xbdca8606	-0.09888844
65	0xbdd0d89c	-0.10197565
66	0xbdf5e0ac	-0.120057434
67	0x3d5372a4	0.051623
68	0xbdc23e14	-0.09484497
69	0x3d435240	0.04768586
70	0xbd0e8eba	-0.034804083
71	0x3da1d736	0.07902376
72	0xbd09c092	-0.033630915
73	0xbd386a38	-0.045023173
74	0xbd8bc03b	-0.068237744
75	0x3b365f80	0.0027827919
76	0xbd5ba40e	-0.05362325
77	0xbd827de0	-0.06371665
78	0xbddb45b1	-0.10706652
79	0xbd7a4a42	-0.061105974
80	0x3da8430a	0.08215912
81	0xbdc93012	-0.09823622
82	0x3d11616c	0.0354933
83	0xba364000	-0.0006952286
84	0xbd83bcff	-0.064325325
85	0x3caa57e8	0.02079387
86	0xbcb7a9b4	-0.022419788
87	0x3c7b2460	0.015328497
88	0xbdd53df7	-0.104122095
89	0xbccf4324	-0.02530057
90	0xbd411f7e	-0.047149174
91	0xbddf7772	-0.10911454
92	0x3dde78a0	0.10862851
93	0xbdbac718	-0.09120005
94	0x3da26880	0.07930088
95	0x3d6b4220	0.05743611
96	0xbde89dd4	-0.11358228
97	0x3da8c8aa	0.08241399
98	0xbcbc790c	-0.023006938
99	0x3e07c7d6	0.13259825
100	0x3de4c0c0	0.11169577
101	0x3e0048b6	0.12527737
102	0xbdb90356	-0.090338394
103	0xbc26e0c0	-0.0101854205
104	0x3ae8b700	0.0017754734
105	0xbbb68380	-0.0055698752
106	0x3ccc10f0	0.02491042
107	0xbcbb78c0	-0.022884727
108	0xbdc73aba	-0.09727998
109	0x3cbde140	0.023178697
110	0x3da81f82	0.08209135
111	0x3bfee220	0.007778421
112	0x3cd8fd88	0.02648808
113	0xbdbf4bb2	-0.093406096
114	0xbceabb44	-0.028653748
115	0xbe12d41e	-0.14338729
116	0xbc554fc0	-0.013019502
117	0xbd15fa2c	-0.036615536
118	0x3d8a7cbc	0.067620724
119	0x3e06bc70	0.1315782
120	0xbd501afe	-0.05080699
121	0xbd9da224	-0.076969415
122	0x3dd68de8	0.10476285
123	0x3cb3f4f0	0.021967381
124	0xbc8a6ff8	-0.016899094
125	0xbd7719b4	-0.060327247
126	0x3c74fe90	0.014953271
127	0x3d81aaa8	0.06331378
128	0xbd9491ce	-0.072543725
129	0x3de0c2b4	0.10974637
130	0x3db0f30e	0.08640109
131	0x3db64cb4	0.08901349
132	0xbdb1398e	-0.08653556
133	0xbdb41950	-0.087938905
134	0x3d45034c	0.048098847
135	0x3af9eb80	0.0019067377
136	0xbe06f0c8	-0.13177788
137	0xbdf8211a	-0.121156886
138	0xbd896828	-0.06709319
139	0xbdd0bb23	-0.101919435
140	0xbdb91796	-0.09037702
141	0x3cf0ec88	0.029409662
142	0x3de8c0b0	0.11364877
143	0x3d0ffba0	0.035152078
144	0xbcd6035c	-0.026124649
145	0x3d705c90	0.058682024
146	0xbdc65b31	-0.09685362
147	0x3e061f18	0.13097799
148	0xbdb26850	-0.08711302
149	0xbd7c3f8c	-0.06158404
150	0xbc88c400	-0.016695023
151	0x3ce25ca0	0.027632058
152	0x3dbf02c8	0.09326702
153	0xbdffb013	-0.12484755
154	0xbd187aa2	-0.037226327
155	0xbdbea2fa	-0.09308429
156	0xbda1a170	-0.0789212
157	0xbd32a2fe	-0.043612473
158	0x3de6352c	0.112406105
159	0x3db2e11c	0.087343425
160	0xbd2ea40a	-0.04263691
161	0x3de8db88	0.11369997
162	0xbdc6ae01	-0.09701157
163	0x3ca6a070	0.020340174
164	0x3d9441b8	0.07239097
165	0x3d7d9c00	0.06191635
166	0x3e0df6b6	0.13863644
167	0xbe04bab1	-0.12961842
168	0x3dfcc338	0.123419225
169	0xbd8eacaf	-0.069665305
170	0xbd8698b9	-0.06572098
171	0xbe00d144	-0.12579829
172	0xbd40b14c	-0.047044083
173	0xbc3460d0	-0.01100941
174	0xbd871aed	-0.065969326
175	0x3db78d5e	0.089625105
176	0x3d9ab1de	0.07553457
177	0x3d4e83f8	0.050418824
178	0xbdb4b428	-0.088234246
179	0x3d6bb0c0	0.05754161
180	0xbcf5c7bc	-0.030002467
181	0xbdc63e45	-0.09679846
182	0xbdd9e23c	-0.10638854
183	0x3de971ec	0.11398682
184	0xbcecb420	-0.028894484
185	0x3d1e00dc	0.03857504
186	0xbd1c04ba	-0.038090445
187	0x3e064adc	0.13114494
188	0xbe0ef304	-0.1395989
189	0xbe05bea0	-0.13060999
190	0x3c9ce2c0	0.019151092
191	0xbcd0dc44	-0.025495656

Linear3.bias f4 [4]
0	0x3dcf84ea	0.10132773
1	0x3e03daf8	0.12876499
2	0x3d99b214	0.07504669
3	0xbd177bce	-0.036983304
