ModelPara/DDPG/Mario_localPi_DDPG2021-10-08T11-48-38.pth (torch, 51007 bytes, 18 tensors)

Linear1.weight f4 [48, 24]
00000000: 5c0a cb3d 17b7 203e 9e09 aa3d a6c2 63be
00000010: f287 c3bd 1392 09be e8a0 80be a7e2 973d
00000020: e19b 2cbd dfb2 7a3d 4b2c 7ebd fced 273e
00000030: 82e3 0e3e ec87 123e 75e1 5b3d 2bbd 0dbe
00000040: 94d5 23be f2cc fbbc b9e6 eb3d 4b3b 55bd
00000050: 74c0 4c3e 6fb9 37be d8be 8cbd d03e cb3d
00000060: d268 8dba 90d1 e8bd 7c74 883c 677d 6cbc
00000070: a4cc 9d3e 3de4 39bd 4d05 9e3d 35af 90bd
00000080: 8f15 4a3d e29d 093d 0035 4b3e 3010 bd3e
00000090: 0e87 3c3e e688 3abd ddaa 5f3e fa90 543e
000000a0: a524 233d bf81 2e3e eba1 583e 0b79 3c3e
000000b0: 5532 35be 4247 1bbe 28f4 d1bc 2835 a3bd
000000c0: f75b 8fbe 6cdd 50be b778 693d 1ed4 50be
000000d0: a934 5f3e e189 b13d a5e7 bb3d cd0f 193e
000000e0: e631 a83c ba46 6e3e db35 543e 90c4 1a3e
000000f0: e48c b83c 587d 28bd 55f4 69bd 3f7d 673d
00000100: cbbf e5bd aca9 203e e8c2 223e 6ee9 b4bd
00000110: 29b3 343e 9e05 3cbe d602 323d f48d 4cbd
00000120: 3641 233e a18c b63d fe2d 9abe 923c bcbe
00000130: 7262 013e bca2 8ebc 896e 9e3d 068e ec3d
00000140: c272 c53d 0b32 7e3e d2bc 073e 07dc 463e
00000150: 99b3 4e3e 2c1f 82bc aaa6 c63c 5e3b c8bd
00000160: 48e5 063e 45cb cfb8 05f0 94bc 27b1 cc3c
00000170: 33f0 39bd 7bb1 1bbc 5025 15be 139f 62bd
00000180: c9bf 99bd 7a2a 66bc e1c0 113e 78a0 37be
00000190: 4a6e d83d 90a0 5d3e aa37 6f3d 3b5b e33d
000001a0: 45ec 74bd 8f31 d73e 31db 533d 8844 be3e
000001b0: 57d9 0fbd 5e1a 3c3e ccbd 21bb e645 253d
000001c0: 7835 323e f756 063e 42f1 98bd 3d75 643c
000001d0: 5875 633d f900 1fbc 8fee 373e 357d 143e
000001e0: 7388 3cbc 8040 123e 5b3d 5fbe 66f9 fb3d
000001f0: 0c19 c23c f90f 6f3e 178a 883d cd65 543c
00000200: ab7c 52be 9d9f db3d cd37 c03d 06b7 823e
00000210: 6fac 643e 2fd2 1c3e e299 a3bd b4a6 293e
00000220: ca30 c4bd 5bbd 15be 90d2 363e 09b2 553d
00000230: 9867 8cbd 9898 0f3c f087 c5bb 277a 053e
00000240: 671e 9dbb 87f5 28be 2a5c 233e 0ae0 8c3d
00000250: bc23 99bc f105 babc 4131 193d 1be0 0f3e
00000260: 60e8 4ebe 1add 273d a4e0 a2bd 3848 e5bc
00000270: 666e 013d 3954 c5bd 7b53 d4bd c450 b63d
00000280: 2372 9e3d 7abb 74bd 4fb2 bdbd 94db 16be
00000290: 6bf4 ac3d 005d 05be 36fc 77bd 7792 073e
000002a0: a800 bf3e bc16 f4bc dc82 863e 0575 32be
000002b0: 47b6 8d3c d5ed 043e 190c 63be 07b5 1dbc
000002c0: b85f 27bd 21e7 81be 0db9 1fbe 71e0 32be
000002d0: 8021 0a3e 523a 2d3e b091 ff3c 9586 7c3d
000002e0: 805a 413d 07c0 c33b 7e5e 823e e78a 543e
000002f0: 06a9 883e 1236 b93c f92a 023e bd74 8b3c
00000300: 8b6e 253d 0ab1 b3bd 5ca4 a1be c9ca 34be
00000310: 3148 063e 2dad b13e 94fc cdbe 6ded aa3d
00000320: 8948 963e 8465 873e c7b7 373e 7858 b73e
00000330: a689 4e3e c44f 8c3e 8a0b 8dbb 7a2d aa3e
00000340: d0fe b23d eb9d 7a3d f923 0f3b 8b10 3b3e
00000350: 373f 3e3e aa18 573e 5d12 f23d 5423 9e3e
00000360: d1ca eabd ee2a 903d aa70 f83d 4be9 dbbd
00000370: 8f00 883d 0d06 31bb 9cc5 a93d a8e4 783e
00000380: 9c44 4e3d 144a 983e 5939 ee3d e66b 9d3d
00000390: e4ea 4e3e cf45 b7bc 05d6 cabd 467d f9bd
000003a0: 0e00 d8bc 65d7 63be 0d6d c03b c7f6 b23d
000003b0: 602c ec3d a137 0c3e e682 033e e7b1 1dbd
000003c0: 1783 43bd d1ab 3d3e d880 1c3e 92fa b3bd
000003d0: 70df d63c c50d 03be 9758 02be 21cf 943d
000003e0: db7d c23d a8de 17bd 0206 f6bd 8b18 7c3d
000003f0: a370 393c 40b5 9c3d e6d7 c93c 0452 41be
0.09914085 0.15694843 0.083026156 -0.22242221 -0.09547414 -0.13434629 -0.25122762 0.074162774
-0.042140845 0.06120574 -0.06205396 0.16399378 0.13953975 0.14309663 0.05368181 -0.13841693
-0.15999442 -0.030737374 0.11518616 -0.0520585 0.1999529 -0.17941831 -0.06872338 0.0992409
-0.0010788685 -0.11368096 0.016657107 -0.014434195 0.3082019 -0.04538368 0.07715855 -0.07064668
0.049336966 0.033597834 0.19844437 0.36926413 0.18410894 -0.045540713 0.21842523 0.20758429
0.03982987 0.17041682 0.21155517 0.18405549 -0.17694981 -0.15163901 -0.025629118 -0.07969123
-0.2799985 -0.20396966 0.05699989 -0.20393416 0.21797432 0.086688764 0.09175042 0.14947434
0.020531606 0.23269168 0.20723669 0.15114045 0.02252812 -0.041135162 -0.05711778 0.05651593
-0.11218222 0.15689725 0.15894663 -0.08833586 0.17646469 -0.18361518 0.043459736 -0.049940065
0.15942845 0.089135416 -0.30113214 -0.3676496 0.1263521 -0.017411582 0.07735927 0.11550526
0.09641029 0.24823777 0.13255623 0.19419871 0.20185699 -0.015884005 0.024249393 -0.097769484
0.13173401 -9.908391e-05 -0.018180856 0.024986817 -0.045395087 -0.009502764 -0.14565015 -0.055327486
-0.07507283 -0.014048213 0.14233734 -0.17932308 0.10567911 0.21643281 0.058402695 0.11101385
-0.059795637 0.42029998 0.05172271 0.3716166 -0.03511938 0.18369433 -0.0024679778 0.040349863
0.17403209 0.13119112 -0.07467891 0.013943967 0.05553183 -0.009704822 0.17962097 0.14500888
-0.011507141 0.14282417 -0.21800749 0.12303428 0.023693584 0.23345937 0.066669635 0.012963724
-0.2055537 0.10723803 0.09385643 0.2553026 0.22331403 0.15314554 -0.07988335 0.16567498
-0.09579618 -0.14623015 0.1785376 0.05217174 -0.068556964 0.0087644085 -0.006028168 0.13034879
-0.004794884 -0.16499911 0.15953127 0.068786696 -0.018693797 -0.022707911 0.037400488 0.14050333
-0.20205832 0.040982343 -0.07953003 -0.027988538 0.031599425 -0.09635205 -0.10367485 0.089021236
0.077366136 -0.059749104 -0.09262525 -0.147322 0.084450565 -0.13023758 -0.06054326 0.13239466
0.37305188 -0.029795997 0.26271713 -0.17427452 0.01729883 0.1298135 -0.22172584 -0.00962568
-0.04086277 -0.2537165 -0.15597935 -0.1746843 0.13489342 0.16916779 0.031197399 0.061651785
0.04720545 0.005973819 0.25462717 0.20756112 0.26691455 0.02260879 0.12711705 0.017023439
0.040388625 -0.08774002 -0.3157071 -0.17655481 0.13113476 0.34702435 -0.40231764 0.083460666
0.29352215 0.26444638 0.17941199 0.35809684 0.20169696 0.27404606 -0.004304354 0.3323782
0.08740008 0.06118576 0.002184151 0.1826803 0.18578802 0.21005502 0.11819909 0.30886328
-0.114644654 0.07039438 0.12130864 -0.107378565 0.066407315 -0.0027011663 0.08289644 0.24305975
0.0503584 0.29744017 0.11632032 0.076865956 0.20206791 -0.022372155 -0.09904102 -0.12182097
-0.026367214 -0.22250135 0.005872375 0.08738475 0.11531901 0.13693096 0.12842903 -0.03849974
-0.04773244 0.18522574 0.15283525 -0.08788027 0.02622959 -0.12798221 -0.12729107 0.07266069
0.09496661 -0.037077576 -0.12012865 0.061546843 0.011318359 0.07651758 0.024639081 -0.18878943

Linear1.bias f4 [48]
00000000: 3af3 fbbd b784 2bbe c907 2e3e 42e0 5b3d
00000010: f68b ed3c 7cc6 54be 5973 2cbe e15e f73d
00000020: 867c b03c caee d53d 7d91 7abe 9130 e23d
00000030: 71fc 0e3d bbb9 3e3e d5b1 f63c e26c 2ebe
00000040: 8125 f03d a390 2a3d abef 583c c5cd 853e
00000050: 4e10 ce3e 4739 153e 25cf 03be 5d9e 6fbd
00000060: 5f85 5c3e 8eb7 81bd b1a6 03bd 69cf d3bd
00000070: 6938 d13d ad21 9abb e07a 693e 145f 223e
00000080: ac74 813e 5111 75bc fbe3 783d aea9 dfbd
00000090: ce5c 2abc 945a 6b3c 8a3c 90be c17e 82bc
000000a0: 548f d13b 0d96 11bd 3444 92bd 3ab4 e0bd
000000b0: 7057 413d 7d21 73be c2c9 3c3e 2f54 333d
-0.12302251 -0.16749845 0.16995157 0.053680666 0.028997403 -0.20778841 -0.16840877 0.120786436
0.021543752 0.10445936 -0.24469562 0.110444196 0.034908716 0.18625538 0.030114094 -0.17033723
0.11725903 0.041641843 0.013240735 0.26133552 0.40246814 0.14572631 -0.12871988 -0.058500636
0.21535252 -0.063338384 -0.03214139 -0.10342295 0.102158375 -0.0047037215 0.2280078 0.15856582
0.25284326 -0.014957742 0.060764294 -0.10921036 -0.010398103 0.014364857 -0.28171188 -0.015929582
0.00639526 -0.03554349 -0.07141915 -0.109718755 0.047202528 -0.23743244 0.1843634 0.043781456

Linear2.weight f4 [48, 48]
00000000: 0259 6bbc 3e34 adbd 3209 38bd ce8d 193c
00000010: 04bc 1c3d 2ddb 18bd 9cc1 de3d 51a7 313d
00000020: 47b8 353d aea5 bfbd dcc5 b3bc 15a3 c03d
00000030: cd21 68b7 c0d5 083e ae3a b73e 3751 3cbc
00000040: 30b3 fd3b ff5c 95bc 4ca1 6a3d e867 d93d
00000050: 6a22 f83d 3412 e63c 56b2 78bb c9d1 e43d
00000060: a590 883c ea14 1b3e 6909 f3bb 1f8c 7dbc
00000070: d4a0 283c 820a ec3c 375b 073d 30cd a43d
00000080: 08ee 8f3d f057 d4bd dfef 8b3e 28a4 a03d
00000090: fa12 93bc 58c8 ba3d 0937 43bb 0d9b 103e
000000a0: 7c76 0cbc 5314 96bd 7d7b edbc 16c0 f3bc
000000b0: a0de b4bd 3af7 fcbd 6e4e 153e 45f9 7e3d
000000c0: 987e 543d 6876 b43e fe05 2c3e 182b 453e
000000d0: aac0 ee3d 56fe 6f3e a48a 06bd bffc 073e
000000e0: d5d7 aa3e 72bb 1b3d be2b fc3d 2584 623e
000000f0: 0e6b 2c3e 8a22 1d3d e45e c43e ee8f 1fbd
00000100: bb77 8e3e daa9 463e fde3 403e c891 063e
00000110: d9cf af3e edf7 1c3d 5b31 47bd f6b4 663d
00000120: 8d66 753e 7199 043e 0a02 d13d a107 1e3c
00000130: db69 253e afde 913e 489f c63d bb08 dbbb
00000140: ea58 013e 0ac8 673e b526 b63e 73bc 3d3e
00000150: 08ce 013d 92bb 863d c712 bb3c 458e e53d
00000160: 44a6 e13d b419 4f3e 4d5c 1cbb 11d1 383e
00000170: 8d63 703e 9fae abbc 2813 7d3e 22fc 543e
00000180: ec11 913c a3fd 87bd c578 3cbd 2583 b23d
00000190: 24ae b8bc e72b c53d 222e 7ebd c41c 003e
000001a0: cf29 cf39 94d3 67bd c750 a43a f795 9dbd
000001b0: 7516 2abd 0acc d83d db2f d13d d9a2 41bc
000001c0: 0406 d73d 7cbd f0bc dacb 203d fd8f c6bc
000001d0: d011 04bd 8505 913d 669d 0a3e eb26 86bb
000001e0: 18f8 293d a395 0bbd 6e78 39bd a2b5 8ebd
000001f0: b74a a6bd 1025 a1bc 08c0 963d 5dfc c53d
00000200: 874a 35bc 2a2d 3fbd c490 0dbe 3641 a23c
00000210: 5d72 1bbe 54db a33d d840 123e aeb8 babd
00000220: 8d3e 27bd 7569 943b 2422 e03d 7007 013e
00000230: 9d18 273d 238c 91bd fca6 273e 03fa 313e
00000240: 55e4 263e 82a6 a73d ddac fc3d ca89 483d
00000250: d81e 133d eca8 06be 4d00 4ebd 5ea7 2b3e
00000260: 8b7b a0bc 3da2 cdbd 17cf 62bb 70c1 873c
00000270: cfed c33d 9e4f e13d 3354 793e 6dd0 ab3d
00000280: d07e 2d3e 4ec9 0f3e afe8 ccbc d662 943d
00000290: a2df 193e 17d8 143e 2e79 0f3d 0fb5 eebd
000002a0: f2c7 4ebd 4634 d0bc 083c aebc 1642 79bd
000002b0: cd49 1d3d d93f c53d c6a2 7a3d a25a 223e
000002c0: f416 273e 6135 273d 9bfe dc3e 984d 383e
000002d0: 2b4e 0a3d ebd1 bf3d a9d6 1a3e 662f 06bd
000002e0: 7e0e 2b3d 6b04 46bd 8462 be3d ada3 203e
000002f0: c679 0f3d 2788 0cbe edd6 ad3d d049 5a3e
00000300: fb18 f9bc 7d58 6dbd 300f 443d f41b 213e
00000310: ba0e cc3a 21b6 1a3e 74c6 83bc 1a40 693e
00000320: 15ae 53bc 8635 123e 8d9d 1b3e 6535 353e
00000330: 2366 cc3c b578 653e d471 793e 661b a9bd
00000340: 3e51 293e aef3 063e 0324 093e 3441 82bd
00000350: f43a c8bc e4d1 3a3e 0bdf 3b3e 41ff 913d
00000360: 8076 c83d a485 52bd 70fe c53d 7880 553b
00000370: 1426 c73d 6587 963e 639a 203e 18fd 963d
00000380: 0b43 863d e497 753e 555c b83e b2bf e1bc
00000390: 96e2 7a3e c034 47bd 3383 dd3d a3c9 0bbd
000003a0: f776 2ebc d33a f03d 1528 ea3d 7f12 243e
000003b0: 2649 f23c 3f41 17bd 8716 3bbe 7193 1e3e
000003c0: 1bb5 913e 84d9 1d3e 45e6 6d3c 8a1a ed3d
000003d0: 5bfc 31bc 0323 0e3e 65a4 033c 6778 323d
000003e0: 55b1 a93e 3871 e8bd 2f58 213e 9c5a 043e
000003f0: 211c bc3d 78c8 f33d 83ec af3e f04a 09be
-0.014364483 -0.0845723 -0.044930644 0.009372188 0.038265243 -0.037318397 0.10876772 0.043372456
0.044365194 -0.09357773 -0.021944933 0.094061054 -1.3836147e-05 0.13362789 0.35786957 -0.0114939725
0.007742308 -0.01823282 0.05728273 0.10615522 0.12115939 0.028084852 -0.0037948093 0.11172826
0.016670534 0.15144697 -0.0074168933 -0.015475302 0.010292251 0.028813604 0.033045974 0.08046949
0.07027823 -0.10368335 0.27331445 0.0784381 -0.017953385 0.09120244 -0.0029787442 0.14121647
-0.008573171 -0.07328095 -0.028989548 -0.02975468 -0.08831525 -0.12351842 0.145807 0.06224944
0.05187854 0.35246587 0.16799161 0.1925472 0.116578415 0.23436865 -0.03284706 0.13280009
0.33367792 0.03802056 0.12313031 0.22120722 0.16837713 0.038363017 0.38353646 -0.03895562
0.27825722 0.1940073 0.1883697 0.13141549 0.34338263 0.038322378 -0.048631053 0.05632492
0.23964901 0.12949158 0.10205467 0.009645374 0.16153662 0.28490207 0.09698349 -0.0066843904
0.12631574 0.22634903 0.35576406 0.18528919 0.031690627 0.06578745 0.022836102 0.112087764
0.11018041 0.20224649 -0.0023858726 0.18048503 0.23475476 -0.02095729 0.24714339 0.20799306
0.017708741 -0.06640174 -0.046013612 0.0871642 -0.022543974 0.09627514 -0.062055714 0.12510973
0.00039513267 -0.05659826 0.001253628 -0.07694619 -0.041525323 0.10585792 0.10214206 -0.011818611
0.10499194 -0.029387228 0.039256908 -0.02423858 -0.03224355 0.07081131 0.13536605 -0.004093995
0.041496366 -0.03407825 -0.045280866 -0.069682375 -0.081197195 -0.019670993 0.07360846 0.09667275
-0.011065132 -0.04667393 -0.13824755 0.019806486 -0.15180345 0.08000818 0.14282548 -0.09117256
-0.040831137 0.004529173 0.10944012 0.12600493 0.040794957 -0.07106807 0.16372293 0.17380528
0.1629804 0.08186056 0.123376586 0.04895953 0.035918087 -0.13150376 -0.050293256 0.16763064
-0.01959016 -0.1004071 -0.0034608298 0.01657173 0.09566843 0.11001514 0.24348526 0.083893634
0.16942906 0.14041635 -0.025013296 0.07245414 0.15026715 0.14535557 0.035027675 -0.11655628
-0.05048365 -0.02541555 -0.02126886 -0.06085404 0.03840046 0.096313186 0.06119039 0.15854886
0.1631735 0.04082239 0.43163 0.1799835 0.033765953 0.093662106 0.15120949 -0.032760046
0.041761868 -0.048344057 0.09296134 0.15687437 0.03502824 -0.13723813 0.084882595 0.2131722
-0.03040742 -0.057945717 0.047866046 0.1573332 0.0015568354 0.15108539 -0.01608584 0.22778359
-0.012919922 0.1427823 0.1519682 0.1769615 0.024951046 0.22409327 0.24359828 -0.08257179
0.16534898 0.13178894 0.13392644 -0.06360093 -0.024442174 0.1824413 0.18346803 0.07128764
0.09788227 -0.05139698 0.09667671 0.0032577794 0.0972406 0.29400173 0.15683894 0.073724926
0.06555756 0.23983723 0.36007944 -0.027557228 0.24500498 -0.04863429 0.1081604 -0.034127843
-0.010648481 0.1172997 0.11433426 0.1602268 0.029575896 -0.036927458 -0.18270312 0.15485932
0.28458485 0.15415007 0.014520233 0.115773275 -0.010863389 0.13880543 0.0080348 0.043571856
0.33143106 -0.1134972 0.15756296 0.1292519 0.09185053 0.11903471 0.34360132 -0.13407493

Linear2.bias f4 [48]
00000000: 1bc0 f63a 0c7a 2bba 35c9 2b3e 017e 093c
00000010: 5347 9cbc 3094 823d 8f29 f13b f9bb 083e
00000020: 1252 7c3d f383 05bc bdab b33d c795 a23e
00000030: 4c6d e0bd 65c4 1f3e a4a9 3b3d 80ea 023e
00000040: 5448 3b3d 0869 0e3e 5a6a ef3d c982 f1bd
00000050: 5e47 cc3d 0d05 d73e da79 0a3e efbb 0b3d
00000060: 3c3d 673e f925 093e c2bf 873d a190 01bd
00000070: 2dde 5f3c 5cd3 1b3e 63f5 bdbc d772 153e
00000080: ea11 573e 5a9e a23e 97d4 3a3d 7749 89bc
00000090: 2451 443e 363b 813e 05a6 123d bb97 f03c
000000a0: 87dc 5f3e 0aa9 173f b24d f03d cf42 d13d
000000b0: 28cb 9f3e 08f9 373d c843 1f3e 73c0 9f3d
0.0018825562 -0.0006541319 0.16775973 0.008391858 -0.019076979 0.06375921 0.0073596905 0.13352956
0.061601706 -0.008149135 0.08772991 0.31754896 -0.10958347 0.15602262 0.04581608 0.12784767
0.045723274 0.13907254 0.11690207 -0.117925234 0.0997455 0.4199604 0.13523045 0.034114774
0.22581953 0.13393392 0.06628372 -0.03163207 0.013663811 0.15217346 -0.023188299 0.14594589
0.21002927 0.31761438 0.045612898 -0.016758664 0.19171578 0.25240487 0.03580286 0.029369226
0.21861468 0.5924231 0.11733569 0.10217821 0.31209683 0.04491523 0.155532 0.07800379

Linear3.weight f4 [4, 48]
00000000: a400 62be 7025 9ebd 81ff aebd 3296 28be
00000010: 5918 19be 16b6 3e3a f495 23be f1c9 49be
00000020: cb12 3bbd 804e eb3c 2c9f 4ebe 3839 343f
00000030: 0032 d03a 485d 8f3d cb5f 5d3c 069d eebd
00000040: 8490 113e 4044 793d 1661 0fbf 340a 1b3d
00000050: 8d3b 873d cc14 1fbe 812b e5bd 32db 383b
00000060: 1c68 97bd 8961 28be ae2c 8c3d ffb4 b43d
00000070: 84b2 fdbc c4af 0abe a93d 33be 07c4 553d
00000080: 0d7a bd3e d6e5 a93d a053 59bc 1f45 94be
00000090: dcc5 43be 7f57 4a3e d093 bdbd ea8d ed3c
000000a0: 5282 1fbf e02e 89bf 328d 973d d7ef c6bd
000000b0: a901 0ebe 82f3 153e b63b cb3c 2e04 85bc
000000c0: ab1c 303e 8601 83bd baf6 9cbd 9707 c43d
000000d0: efad 9d3d 2e52 263b ae8f f5bd 16c8 5a3d
000000e0: 3524 afbd 4dff 5abe 10d4 acbd 8834 21bf
000000f0: 611e 09be 2705 8cbd 456a c83d d77f 74be
00000100: f05b a73d 6abb d6bb eb4c 873e 65e2 2cbd
00000110: e33f 43be 7fa1 3cbf 2c77 88bd 9ddc e43d
00000120: f738 4cbe b22d 14be de80 17bd 17b2 bbbe
00000130: 9cd9 2abe 4f8d cd3e 7d8f 34be 9e26 44bd
00000140: 992d c8bd a018 143e 8bac 27bd a4aa 86be
00000150: 4a94 913d bf8a cbbd fb59 d83c c241 2c3d
00000160: 00f2 80be f043 c1be 2221 6e3d e272 443d
00000170: 45b3 373e 457a 7bbc bdc5 08be dad6 4b3c
00000180: c829 5abe 8100 3dbe ae21 91bc 5325 84be
00000190: 0386 b8be 6726 ee3d 2061 8fbd 0e68 87be
000001a0: 4425 0dbe 2cbd b0bd 345f a0be 49ca babe
000001b0: 53f5 0b3e 99e5 e9bd f4c7 793d 7bcc f9bc
000001c0: 6494 7b3d 9f25 47be dc99 4a3e 40f8 62bb
000001d0: 5567 fabd f348 80bc c5cb a5bd 4dad 93bd
000001e0: 7982 45be db68 a53d b521 4d3b f1a9 93be
000001f0: fdb0 b7bc c150 8abe d8fb 4f3d 4ca2 81be
00000200: 6119 bdbe 9f0d 1ebf 8075 2dbb 8b29 873d
00000210: 7cee a9be ae1a 9dbe f437 a4bd 31a9 b53d
00000220: 4dc5 d7b9 1f64 8c3d e008 053d ce6f a23c
00000230: f23c 30bf ea4a 46bd 6560 a0be 6a8e 743d
00000240: 9f5d 7dbe df01 3bbe 4c68 d63d 4813 bebd
00000250: 5986 a2be e4bb 353d 9abc a2bd f8f3 87be
00000260: 513e 8e3d 4a60 83bd cfb8 7cbe 7057 bfbe
00000270: 6b61 dc3b cb46 f1bd 2425 c63d c55a 6f3d
00000280: 5fc7 323d bb9d f4bd b966 923e 691e 2d3e
00000290: 5641 33be 69f8 b7bd f392 57be a657 da3c
000002a0: e091 80be df79 dd3b b8f2 e7bd 666e 4bbe
000002b0: 6f2c b6bd b345 2abe dca8 d73d 8167 89bd
000002c0: 8470 4dbe 0cd3 3abf 84fd 063d 1dcc 37bd
000002d0: 0f99 6ebe 8363 c2be 505f 933d fe2b 8ebd
000002e0: 00c3 68bd aac0 d93c 8358 563c fb68 83be
000002f0: e3e8 1fbf 498a ac3c 2a5f a5be ea00 e83d
-0.22070557 -0.077219844 -0.08544827 -0.16463545 -0.14950694 0.0007275058 -0.15975171 -0.19705941
-0.04567222 0.028723955 -0.20177907 0.7039981 0.0015884042 0.07000214 0.013511608 -0.116510436
0.14215285 0.060856104 -0.56007516 0.037851527 0.06603155 -0.15535277 -0.11189938 0.0028206822
-0.07392904 -0.16443457 0.068444595 0.08823585 -0.030968912 -0.13543612 -0.1750399 0.0521889
0.3700718 0.08295791 -0.013264567 -0.28958985 -0.19118446 0.1975994 -0.092567086 0.028998334
-0.6230823 -1.071743 0.07399978 -0.097137146 -0.13867821 0.14643672 0.024808746 -0.016237345
0.17198436 -0.06396775 -0.07664247 0.0957176 0.07699191 0.0025378573 -0.11990295 0.053413473
-0.08551828 -0.21386452 -0.08438885 -0.6297078 -0.13390495 -0.0683692 0.09785894 -0.23876892
0.081718326 -0.006553103 0.2642587 -0.042208094 -0.1906734 -0.73683923 -0.06663355 0.11174891
-0.19943605 -0.14470556 -0.03698813 -0.3665931 -0.16684574 0.40146872 -0.17632861 -0.04788839
-0.09774322 0.14462519 -0.040936034 -0.26302063 0.07108362 -0.09938573 0.026410094 0.0420549
-0.2518463 -0.37747145 0.058137067 0.047961123 0.1793948 -0.015348976 -0.13356681 0.012441361
-0.21305001 -0.18457223 -0.017716255 -0.25809726 -0.36039743 0.116284184 -0.07000947 -0.26446575
-0.13783747 -0.08629832 -0.31322634 -0.36482456 0.13667803 -0.114207454 0.060981706 -0.030493012
0.061420813 -0.19447945 0.19785255 -0.0034632832 -0.1222674 -0.015659785 -0.080955066 -0.07210789
-0.19288053 0.0807664 0.0031300609 -0.28840593 -0.022423262 -0.27014735 0.050777286 -0.25319135
-0.36933425 -0.61739534 -0.002646774 0.065997206 -0.33189762 -0.30684417 -0.08018485 0.08870161
-0.00041154996 0.06855034 0.032479167 0.019828703 -0.68842995 -0.048411287 -0.31323543 0.05970613
-0.24742745 -0.18262433 0.10469112 -0.09281021 -0.31743124 0.04436864 -0.07946129 -0.2655332
0.0694548 -0.0641485 -0.24679874 -0.37371397 0.0067254803 -0.11781081 0.09675053 0.058436174
0.043647166 -0.11944147 0.28593996 0.16906132 -0.17505392 -0.08982927 -0.2105215 0.026653122
-0.25111294 0.006758913 -0.11325592 -0.19866332 -0.08895194 -0.1662815 0.10530254 -0.06709195
-0.20062453 -0.7297828 0.032956615 -0.044872392 -0.23300575 -0.37966546 0.07195914 -0.069419846
-0.05682659 0.026581127 0.013082626 -0.2566603 -0.6246473 0.021062033 -0.32299167 0.11328299

Linear3.bias f4 [4]
00000000: ace7 d53d f147 47be c06f c8bd 85bc 65be
0.104445785 -0.19461037 -0.097869396 -0.22435196

exp_avg f4 [48, 24]
00000000: 8080 b02f 2fcc 67ad 5588 af2e 1568 d0ad
00000010: f181 cfaf 961d 42ae 1468 9eaf 68b9 75ac
00000020: 6462 292b eacc d4af 30dc 3aac 4639 a1af
00000030: 7ae1 902c 42ec 192e d0ad 0f2f 854f 112f
00000040: 6a65 162f 6390 1f2f e215 2e2f bf5d 442f
00000050: d923 672f 5e61 902f 8c32 c62f b186 ff2f
00000060: ab4e 52ac 2311 a429 3cf2 a5aa 22a7 9f29
00000070: 4fee 1cad 7733 ca27 b2c7 07ac 3c8d 0c2d
00000080: 7723 fca0 5302 e92c b7f6 80a5 4c4b b12c
00000090: 6762 49a9 3a8b 0cad 3888 13ac 2335 15ac
000000a0: f36d 1aac dcd7 23ac 0bc1 32ac dfa1 49ac
000000b0: b656 6dac 9840 94ac 8c92 cbac 3a8b 0cad
000000c0: 32b8 1c2d 78f4 e02b 9ad7 aeac a75c 032d
000000d0: 7c38 8f2d f8e6 afa4 a4d2 a1ad 47fe d2a3
000000e0: 5f5c 95ab 32bc 912d 7ef6 fa25 c33f 532d
000000f0: ae99 69a7 0400 0080 49f7 60ac 5485 63ac
00000100: c77b 6bac 8ed6 79ac 9e49 88ac 0bbb 99ac
00000110: 4cf4 b4ac 6f10 e2ac ba35 1bad 4c09 82ad
00000120: 0400 0080 0400 0080 0400 0000 0400 0000
00000130: 0400 0080 0400 0000 0400 0000 0400 0000
00000140: 0400 0080 0400 0000 0400 0080 0400 0000
00000150: 0400 0080 0400 0080 0400 0080 0400 0080
00000160: 0400 0080 0400 0080 0400 0080 0400 0080
00000170: 0400 0080 0400 0080 0400 0080 0400 0080
00000180: 9ba4 adad f933 f3aa 589e 022c 08e6 972a
00000190: 3619 0fae fb08 ed27 cc7e 4b2d beb1 fe2c
000001a0: 0400 0080 466e d42d 5cda a3a5 b359 a12d
000001b0: 99bb 7ca9 66f8 fead f50d 09ad 6a9c 0aad
000001c0: 4a76 0fad 0d35 18ad 250f 26ad 0650 3bad
000001d0: b07b 5cad 3db9 89ad 6d1d bdad 66f8 fead
000001e0: 0400 0080 0400 0080 0400 0000 0400 0000
000001f0: 0400 0080 0400 0080 0400 0000 0400 0080
00000200: 0400 0080 0400 0000 0400 0080 0400 0000
00000210: 0400 0080 0400 0080 0400 0080 0400 0080
00000220: 0400 0080 0400 0080 0400 0080 0400 0080
00000230: 0400 0080 0400 0080 0400 0080 0400 0080
00000240: 0400 0000 0400 0000 0400 0000 0400 0000
00000250: 0400 0080 0400 0080 0400 0000 0400 0000
00000260: 0000 0000 0400 0080 0400 0080 0400 0080
00000270: 0400 0080 0000 0000 0400 0000 0400 0000
00000280: 0400 0000 0400 0000 0400 0000 0400 0000
00000290: 0400 0000 0400 0000 0400 0000 0400 0000
000002a0: 3262 ceb0 4950 222f b2aa 18b0 dde4 7f2f
000002b0: 8c5e 0b30 9fa2 5b2e 3f3c 1d31 15c0 0f2f
000002c0: d294 15b0 6d22 6531 2992 362c b6a5 2b31
000002d0: 4638 9eac b38a b1ae 1982 88b0 f60e 8ab0
000002e0: e1e3 8eb0 b999 97b0 ae65 a5b0 df90 bab0
000002f0: b19a dbb0 b12c 09b1 4f5a 3cb1 e4ca 83b1
00000300: 0391 21ae c90f 2bac 9ac8 002d 5390 99ac
00000310: dafe b7ae f7d1 b02a cfc2 aa2d 2fd5 882b
00000320: a334 8dad 2fd2 e22d c9dc 9b28 7b21 b12d
00000330: eb93 34a9 98c3 f3aa 1e18 3aad 2535 3cad
00000340: 5fcb 42ad 30ab 4ead 1d7a 61ad cd55 7ead
00000350: f1af 95ad ad00 bbad 5b63 00ae 7612 19ae
00000360: 0d82 4a2b b991 122a 4a5f efaa 6bf5 262b
00000370: dd34 b62b b2e2 c422 4a07 c7ab 9d04 3022
00000380: d1e8 daab 17f7 b52b 628f 2da0 aac7 832b
00000390: 1491 39a1 0400 0080 5e3a 7daa 480d 80aa
000003a0: 8d88 84aa c59c 8caa bc68 99aa 230b adaa
000003b0: ebaf cbaa d276 feaa 63b5 2eab b648 90ab
000003c0: 0400 0080 0400 0080 0400 0000 0400 0000
000003d0: 0400 0000 0400 0000 0400 0000 0400 0080
000003e0: 0400 0080 0400 0080 0400 0000 0400 0080
000003f0: 0400 0000 0400 0080 0400 0080 0400 0080
3.2105518e-10 -1.3176168e-11 7.982296e-11 -2.3693084e-11 -3.774541e-10 -4.413677e-11 -2.8813985e-10 -3.4919515e-12
6.0177406e-13 -3.8708176e-10 -2.6554418e-12 -2.9326425e-10 4.117759e-12 3.499801e-11 1.3067525e-10 1.3215924e-10
1.367845e-10 1.4512262e-10 1.5832982e-10 1.7859401e-10 2.1022063e-10 2.626263e-10 3.6051906e-10 4.6479934e-10
-2.9886464e-12 7.286036e-14 -2.9477972e-13 7.0900114e-14 -8.9204885e-12 5.612206e-15 -1.9295507e-12 7.989439e-12
-4.271393e-19 6.6225163e-12 -2.237164e-16 5.039002e-12 -4.4716316e-14 -7.988993e-12 -2.0965573e-12 -2.120367e-12
-2.194575e-12 -2.328352e-12 -2.5402482e-12 -2.8653674e-12 -3.372786e-12 -4.2135843e-12 -5.785877e-12 -7.988993e-12
8.908473e-12 1.5984011e-12 -4.969314e-12 7.467061e-12 1.6282302e-11 -7.628543e-17 -1.8397124e-11 -2.2875936e-17
-1.0612725e-12 1.6568167e-11 4.3535117e-16 1.2008119e-11 -3.2418556e-15 -6e-45 -3.1969585e-12 -3.2332652e-12
-3.3464219e-12 -3.550413e-12 -3.8735256e-12 -4.3692875e-12 -5.14303e-12 -6.425131e-12 -8.82266e-12 -1.4783418e-11
-6e-45 -6e-45 6e-45 6e-45 -6e-45 6e-45 6e-45 6e-45
-6e-45 6e-45 -6e-45 6e-45 -6e-45 -6e-45 -6e-45 -6e-45
-6e-45 -6e-45 -6e-45 -6e-45 -6e-45 -6e-45 -6e-45 -6e-45
-1.9740922e-11 -4.3201534e-13 1.856201e-12 2.6982605e-13 -3.2536827e-11 6.579045e-15 1.1567369e-11 7.2388475e-12
-6e-45 2.415058e-11 -2.842396e-16 1.8343415e-11 -5.6117955e-14 -2.8986768e-11 -7.7906475e-12 -7.879123e-12
-8.154874e-12 -8.651979e-12 -9.43937e-12 -1.0647488e-11 -1.2533016e-11 -1.5657359e-11 -2.149988e-11 -2.8986768e-11
-6e-45 -6e-45 6e-45 6e-45 -6e-45 -6e-45 6e-45 -6e-45
-6e-45 6e-45 -6e-45 6e-45 -6e-45 -6e-45 -6e-45 -6e-45
-6e-45 -6e-45 -6e-45 -6e-45 -6e-45 -6e-45 -6e-45 -6e-45
6e-45 6e-45 6e-45 6e-45 -6e-45 -6e-45 6e-45 6e-45
0.0 -6e-45 -6e-45 -6e-45 -6e-45 0.0 6e-45 6e-45
6e-45 6e-45 6e-45 6e-45 6e-45 6e-45 6e-45 6e-45
-1.5016381e-09 1.4762337e-10 -5.553985e-10 2.3273423e-10 5.0702265e-10 4.993927e-11 2.2880753e-09 1.3074015e-10
-5.441737e-10 3.3343455e-09 2.594489e-12 2.497797e-09 -4.4968777e-12 -8.073666e-11 -9.932278e-10 -1.0045074e-09
-1.0396627e-09 -1.1030387e-09 -1.2034229e-09 -1.3574456e-09 -1.5978313e-09 -1.9961528e-09 -2.7408935e-09 -3.835668e-09
-3.6735958e-11 -2.4309324e-12 7.3205e-12 -4.3645447e-12 -8.367147e-11 3.1409573e-13 1.9413275e-11 9.722552e-13
-1.605322e-11 2.5786566e-11 1.7304207e-14 2.0137439e-11 -4.0096327e-14 -4.3301192e-13 -1.0578231e-11 -1.0698363e-11
-1.1072781e-11 -1.17477555e-11 -1.2816884e-11 -1.445728e-11 -1.7017473e-11 -2.1259739e-11 -2.9192076e-11 -3.480457e-11
7.19453e-13 1.3017963e-13 -4.2521049e-13 5.9315633e-13 1.294655e-12 5.336593e-18 -1.4141824e-12 2.385489e-18
-1.5554451e-12 1.2929405e-12 -1.4701111e-19 9.363528e-13 -6.2872447e-19 -6e-45 -2.2491164e-13 -2.2746583e-13
-2.3542661e-13 -2.4977776e-13 -2.7250934e-13 -3.07387e-13 -3.6182111e-13 -4.5201912e-13 -6.206894e-13 -1.0251997e-12
-6e-45 -6e-45 6e-45 6e-45 6e-45 6e-45 6e-45 -6e-45
-6e-45 -6e-45 6e-45 -6e-45 6e-45 -6e-45 -6e-45 -6e-45

exp_avg_sq f4 [48, 24]
00000000: bb38 1d29 91f9 8826 9bb8 0429 eb16 6928
00000010: 6024 a42d 1654 2f27 d165 c32c 73e5 ee28
00000020: 7fff 4e2d db66 db2c 6687 3727 a2cd 882c
00000030: 76f7 5c29 46d9 632d c04d 0c2c 0a82 0f2c
00000040: 9aba 192c ca0a 2d2c eef8 4d2c d308 832c
00000050: 9c8d b52c 4fad 0d2d f8a1 822d d945 ab2d
00000060: 6c30 1a29 20d5 8724 0f55 7927 7982 fd26
00000070: 79b2 942b b7b9 6727 1555 802a 4c2b f426
00000080: 5db7 e92a e5e7 8f2b 8e64 a427 d119 2a2b
00000090: c0b2 b427 b39b db2a d723 012a ef16 042a
000000a0: 3c7f 0d2a 1a46 1f2a 1395 3d2a 7f37 712a
000000b0: 6a1b a72a 5667 022b 270e 692b ad9d 812b
000000c0: 2092 3628 54fd e423 0709 3f26 3e58 ef25
000000d0: 37f9 482a b6a4 8326 531b 3429 fdbf cb25
000000e0: 9d11 af29 76a6 5e2a a882 7e26 3b0e e929
000000f0: 6f64 2d26 e3f0 ab29 1507 cf28 bbc1 d328
00000100: 56d6 e228 c755 ff28 69f6 1729 dc59 4129
00000110: 50f2 8529 820d d129 63a7 392a 01af 542a
00000120: 3713 c827 4d97 3e23 cb69 be24 2040 0a25
00000130: f0ea 0929 9e74 9324 e117 ac28 4e9c 8924
00000140: 8035 2129 c34b 9029 45a4 1b25 d050 5929
00000150: 85dd da24 54d1 2a29 ad62 0e28 3aa3 1128
00000160: 8702 1c28 5d9c 2f28 2c07 5128 befa 8428
00000170: 2b3f b828 7cc7 0f29 16bf 7329 d191 9529
00000180: 4e04 8f29 441a 4525 12c6 4e27 f9f4 0a27
00000190: 6f7d 6c2b 2e2c a127 1232 772a d1e0 0427
000001a0: 902f e82a 5cdb 862b 3a8c 8b27 2b49 122b
000001b0: b8bc 8b27 fef3 e12a 8b4c 0d2a d686 102a
000001c0: d8d1 1a2a 1845 2e2a ec6e 4f2a e1f6 832a
000001d0: 1fd7 b62a abae 0e2b ac38 772b bce4 8c2b
000001e0: 4af9 b326 bcf8 9722 5cf8 3b24 1430 3524
000001f0: a41c 3128 d796 8f24 2e0d ab27 bf6b 4124
00000200: b92d e227 9858 8328 c5cc b124 9efc 2e28
00000210: 9505 d124 af96 ef27 0285 e326 5cb7 e826
00000220: 774a f926 1b4e 0c27 3501 2727 387d 5427
00000230: b434 9327 23bf e527 1e1c 4928 7320 7428
00000240: f401 0000 f401 0000 f401 0000 f401 0000
00000250: f401 0000 f401 0000 f401 0000 f401 0000
00000260: 0000 0000 f401 0000 f401 0000 f401 0000
00000270: f401 0000 0000 0000 f401 0000 f401 0000
00000280: f401 0000 f401 0000 f401 0000 f401 0000
00000290: f401 0000 f401 0000 f401 0000 f401 0000
000002a0: d8ce 3428 0e6b a525 28da d127 5711 d227
000002b0: 3b70 622a e0fe 6a28 af06 9f2a a872 5427
000002c0: ee6d 6b2a 1f39 ea29 0e0e 8d28 c2cf 8a29
000002d0: 1508 ec27 ee69 a529 06e1 8f29 642a 9329
000002e0: 80a5 9d29 1874 b129 a738 d329 ae5f 062a
000002f0: 6a2e 3a2a 8d49 912a 2cc9 e32a 2bf9 122b
00000300: ff3e 142a abf1 6027 e18d a028 2341 1d29
00000310: b543 2a2c 9fc6 1929 d6fe ed2b 95a7 6f28
00000320: 92b0 2f2c 1763 e32a 6a1b 3929 5169 7e2a
00000330: 2048 fc28 4b21 d62b 03a5 2e2b 4da2 322b
00000340: 325b 3f2b 8d65 572b 4531 802b 571b a32b
00000350: 96fd e12b 7e5a 302c d264 922c c890 bc2c
00000360: 791a 3c2a bb97 0c26 0e30 f227 6707 aa27
00000370: 410c 082c 3c38 c927 2a84 112b dbc2 aa27
00000380: 1319 8a2b 8f33 232c 9bae 0128 6aba b92b
00000390: 12bd 0728 bbdd 8a2b 4dc2 992a 7445 9d2a
000003a0: fe78 a82a 65a3 bd2a a3b9 e12a 039a 0f2b
000003b0: d6f6 462b 9643 9b2b b14a 092c b5f8 1d2c
000003c0: 342c ea1b ce24 2017 6798 0519 934c 3919
000003d0: 4a74 e51a d98d 9b11 dd57 111a 585a ff11
000003e0: 60a6 ba11 b650 ec1a e43d 9f07 f260 a11a
000003f0: 9211 d40e 17a2 b81a 5953 4318 7cc9 4718
3.491021e-14 9.504541e-16 2.9470008e-14 1.2939068e-14 1.8660795e-11 2.4331712e-15 5.5535372e-12 2.6522816e-14
1.1766476e-11 6.2357736e-12 2.5469751e-15 3.8881823e-12 4.906445e-14 1.29517005e-11 1.9938357e-12 2.0393708e-12
2.1846192e-12 2.4590768e-12 2.9270436e-12 3.7242236e-12 5.160051e-12 8.053404e-12 1.4851217e-11 1.9471468e-11
3.423687e-14 5.8907965e-17 3.4601802e-15 1.7590766e-15 1.0565569e-12 3.2158366e-15 2.2796405e-13 1.6942637e-15
4.1516348e-13 1.0225125e-12 4.5628166e-15 6.043196e-13 5.0153837e-15 3.9010253e-13 1.1469936e-13 1.1731912e-13
1.2567459e-13 1.4146358e-13 1.6838293e-13 2.1424354e-13 2.9684182e-13 4.6328685e-13 8.279787e-13 9.209765e-13
1.0134715e-14 2.4827098e-17 6.627867e-16 4.1519686e-16 1.7850032e-13 9.134596e-16 3.999173e-14 3.5344983e-16
7.7746166e-14 1.9775314e-13 8.8301025e-16 1.0349747e-13 6.0157545e-16 7.635713e-14 2.2984688e-14 2.3509723e-14
2.5183994e-14 2.8347887e-14 3.3742462e-14 4.293255e-14 5.948421e-14 9.283808e-14 1.6489375e-13 1.8890099e-13
5.5531984e-15 1.033196e-17 8.2578585e-17 1.1991318e-16 3.0623887e-14 6.3948645e-17 1.9106192e-14 5.967907e-17
3.5795585e-14 6.408027e-14 1.3499764e-16 4.8253773e-14 9.49177e-17 3.7929146e-14 7.90398e-15 8.084511e-15
8.660288e-15 9.748357e-15 1.1603386e-14 1.4763686e-14 2.0455498e-14 3.1925404e-14 5.412258e-14 6.6422243e-14
6.3512224e-14 1.7095925e-16 2.8695617e-15 1.9284147e-15 8.4018117e-13 4.4734376e-15 2.1955379e-13 1.8440553e-15
4.1244482e-13 9.582157e-13 3.8732284e-15 5.197116e-13 3.878486e-15 4.0137332e-13 1.2549872e-13 1.283655e-13
1.3750752e-13 1.5478276e-13 1.8423777e-13 2.344158e-13 3.2478965e-13 5.0690935e-13 8.7830676e-13 1.0011085e-12
1.248819e-15 4.119199e-18 4.075953e-17 3.9288842e-17 9.831684e-15 6.22719e-17 4.7476324e-15 4.194147e-17
6.2777173e-15 1.4582343e-14 7.710841e-17 9.713718e-15 9.064876e-17 6.6499197e-15 1.5787341e-15 1.6147934e-15
1.729803e-15 1.9471244e-15 2.317656e-15 2.9488791e-15 4.0857837e-15 6.37675e-15 1.1163838e-14 1.3551757e-14
7e-43 7e-43 7e-43 7e-43 7e-43 7e-43 7e-43 7e-43
0.0 7e-43 7e-43 7e-43 7e-43 0.0 7e-43 7e-43
7e-43 7e-43 7e-43 7e-43 7e-43 7e-43 7e-43 7e-43
1.0036859e-14 2.869548e-16 5.824568e-15 5.830551e-15 2.011177e-13 1.3044877e-14 2.8248711e-13 2.9483065e-15
2.0910332e-13 1.04015964e-13 1.566024e-14 6.164471e-14 6.551192e-15 7.345848e-14 6.389511e-14 6.535465e-14
7.00091e-14 7.880518e-14 9.38011e-14 1.1934786e-13 1.6536222e-13 2.580821e-13 4.046289e-13 5.221541e-13
1.3166897e-13 3.1217253e-15 1.7825099e-14 3.49175e-14 2.4196038e-12 3.41451e-14 1.6910594e-12 1.3303504e-14
2.4967012e-12 4.0392058e-13 4.110203e-14 2.2596271e-13 2.80089e-14 1.5214855e-12 6.204622e-13 6.346354e-13
6.798339e-13 7.6524274e-13 9.108622e-13 1.1589435e-12 1.6057596e-12 2.5061338e-12 4.160763e-12 5.3593553e-12
1.6706939e-13 4.877789e-16 6.7220594e-15 4.7192504e-15 1.9333565e-12 5.5849676e-15 5.1697763e-13 4.739574e-15
9.812449e-13 2.3192314e-12 7.1988e-15 1.3196781e-12 7.5350035e-15 9.867032e-13 2.7313083e-13 2.7936995e-13
2.992675e-13 3.3686522e-13 4.009684e-13 5.101754e-13 7.0686285e-13 1.1032171e-12 1.9510333e-12 2.2449102e-12
3.8740618e-22 5.174524e-25 6.906716e-24 9.57974e-24 9.4900055e-23 2.4542108e-28 3.0056273e-23 4.0287585e-28
2.9448162e-28 9.773771e-23 2.3960037e-34 6.674466e-23 5.2278955e-30 7.6362487e-23 2.524524e-24 2.582187e-24

exp_avg f4 [48]
00000000: af86 ff2f 3a8b 0cad b354 afad 0400 0080
00000010: 66f8 fead 0400 0080 0400 0000 b452 89b1
00000020: 73da 07ae d3e8 daab 0400 0080 e337 f9b0
00000030: 1053 28b1 3205 50b1 c1ee 5630 9099 d2b0
00000040: c383 49b1 0400 0080 1acd 0ab0 bded 6ab1
00000050: 6ae2 802f 863e 19aa 0400 0080 0400 0080
00000060: 7df9 81b1 c623 a9b0 401f d2b1 0400 0000
00000070: 04d5 89b1 8c2e 82b0 e8dd 6db1 26cb 5dae
00000080: d524 72b1 a781 94b1 99b8 9bb0 e186 aeaf
00000090: e6dd ed2c 5806 a1b1 0400 0000 cd13 61ad
000000a0: ba4a 16b1 e363 49ad 6a11 8daf 6db1 dcb0
000000b0: 0400 0080 0400 0080 3bd3 1fb2 92de 72b0
4.6479928e-10 -7.988993e-12 -1.993281e-11 -6e-45 -2.8986768e-11 -6e-45 6e-45 -3.996627e-09
-3.0889468e-11 -1.5554453e-12 -6e-45 -1.8133018e-09 -2.4494433e-09 -3.0270937e-09 7.8192036e-10 -1.5323156e-09
-2.9324247e-09 -6e-45 -5.0495574e-10 -3.418662e-09 2.344394e-10 -1.3610822e-13 -6e-45 -6e-45
-3.7827577e-09 -1.2306536e-09 -6.115357e-09 6e-45 -4.011442e-09 -9.471974e-10 -3.4614178e-09 -5.0430014e-11
-3.5236571e-09 -4.3221067e-09 -1.13302e-09 -3.1746253e-10 6.760581e-12 -4.686438e-09 6e-45 -1.2794166e-11
-2.187035e-09 -1.14477065e-11 -2.5660124e-10 -1.6057534e-09 -6e-45 -6e-45 -9.303046e-09 -8.835538e-10

exp_avg_sq f4 [48]
00000000: c85b ac2d dec5 822b 7b02 572a ddaf 9729
00000010: d728 8e2b 46ea 7728 f401 0000 6758 172b
00000020: 8c72 bf2c e39e 1f2c 17a2 b81a b4e1 482c
00000030: cebf df2a 4b85 e12b b98c 632e 60f1 c42b
00000040: 18b3 182c 74ba a829 aee7 a62c 41a9 222b
00000050: ae65 3e2d 93cf eb29 5c29 9823 288c 672b
00000060: 202e 702c 1503 4e2c 5894 ba2d edd5 472b
00000070: 64d7 662c 51c1 2628 dd17 112b 9649 c52a
00000080: 18a2 ae2b 861e 8729 03c4 552b 81cd cb2b
00000090: 0b76 3123 22df 9f2d be5a 2723 3615 812c
000000a0: 4fe5 f72b c3c1 9e2b 1f69 232c f137 d52a
000000b0: f7ed bb28 4e5c c315 11db 6a2e ecd6 be2c
1.9594895e-11 9.291975e-13 1.9096697e-13 6.7362545e-14 1.0101042e-12 1.3762054e-14 7e-43 5.376866e-13
5.4412638e-12 2.2683459e-12 7.6362487e-23 2.8547e-12 3.974585e-13 1.6024208e-12 5.173881e-11 1.3993633e-12
2.1699916e-12 7.493043e-14 4.7437254e-12 5.778885e-13 1.0822827e-11 1.0472105e-13 1.649739e-17 8.226219e-13
3.4131656e-12 2.9276072e-12 2.121163e-11 7.0995884e-13 3.2804532e-12 9.25677e-15 5.1547465e-13 3.504529e-13
1.2408434e-12 6.000499e-14 7.594482e-13 1.4481056e-12 9.620186e-18 1.8175298e-11 9.0723035e-18 3.6687554e-12
1.7614051e-12 1.1280355e-12 2.3222047e-12 3.7875218e-13 2.0864371e-14 7.8905504e-26 5.340001e-11 5.423986e-12

exp_avg f4 [48, 48]
00000000: 7883 bf2c 96af 1529 286b 73a9 0400 0000
00000010: 9e79 eb29 0400 0000 0400 0080 fcc8 9630
00000020: 242c 1630 2a2c 9228 0400 0000 b379 7c2f
00000030: 62d0 692f 93be f72f 8d84 4430 1e81 9b2f
00000040: 93e7 7030 0400 0000 d3d6 332f 633a eb2f
00000050: 7651 4930 64c6 9326 0400 0000 0400 0000
00000060: 55cf dc2f 59a3 902e 6805 ff2f 0400 0000
00000070: 053d 1b2f 0409 482e 9a8d 3f30 20c3 532a
00000080: e239 4c2f ae1c 5c30 4cc6 8d2f 5a01 aa2d
00000090: 1f34 9da9 d4f9 902e 0400 0000 f302 952c
000000a0: efe7 182e 4a69 4e28 789b 292b ed2e 442f
000000b0: 0400 0000 0400 0000 9816 9b30 033a fa2f
000000c0: 1576 0eac c9b1 5ea8 e143 24aa 0400 0080
000000d0: bb29 2fa9 0400 0080 0400 0080 7428 e2af
000000e0: ef6b 5faf 7077 d9a7 0400 0080 26cf bbae
000000f0: 4a33 b0ae 01e6 3faf 920c 96af b859 e7ae
00000100: 1129 b5af 0400 0080 f4c6 85ae 0e12 31af
00000110: 39c2 95af 3ed7 dba5 0400 0080 0400 0080
00000120: a361 28af 2c2f d7ad d3b7 41af 0400 0080
00000130: 6720 81ae c35a b8ad 356a 90af 5979 edab
00000140: 127e a2ae af3d a4af ce75 e8ae a1ec fcac
00000150: b55c e4a9 d6fc f4ad 0400 0080 7315 deab
00000160: 83f5 79ad 1199 1ea9 4819 82aa 61ef 91ae
00000170: 0400 0080 0400 0080 95cd edaf b123 3aaf
00000180: 68ae 2aac ce67 85a8 5982 3caa 0400 0080
00000190: 87dc 51a9 0400 0080 0000 0000 7270 07b0
000001a0: 19d7 85af 8745 02a8 0400 0080 5d03 e1ae
000001b0: e900 d3ae 7493 65af 2b9a b3af 0597 0aaf
000001c0: 32f6 d8af 0400 0080 1247 a0ae 300e 54af
000001d0: dc6c b3af cbab 03a6 0400 0080 0400 0080
000001e0: 118e 49af dfe7 00ae 63ea 67af 0400 0080
000001f0: 9d19 9aae 314d dbad 0cf0 acaf b534 09ac
00000200: 9836 c2ae 27c1 c4af ffc6 0aaf a783 17ad
00000210: f76e 02aa d71b 12ae 0400 0080 a50c 05ac
00000220: b53d 95ad f6d3 37a9 5db9 9baa 07d8 aeae
00000230: 0400 0080 0400 0080 924c 0eb0 4103 5faf
00000240: 772c 552c 7f9d a628 0ad2 a5a9 0400 0000
00000250: b90d 8329 0400 0000 0400 0080 5699 2730
00000260: 0828 a72f 63b4 2228 0400 0000 de83 0c2f
00000270: b9d4 012f 49e2 882f ceba d92f 8217 2d2f
00000280: 8cd1 0530 0400 0000 cb2d c82e 4fa4 822f
00000290: 1316 e02f 7a7d 2426 0400 0000 0400 0000
000002a0: 55b3 742f 1dff 202e bb67 8d2f 0400 0000
000002b0: d636 a92e 9954 d52d 7cb6 d42f c2fc b3aa
000002c0: a38c e02e b9df f42f dafb 1a2f 933b 3d2d
000002d0: 4cc1 a2a9 4487 1d2e 0400 0000 bbd0 252c
000002e0: 5740 a72d 6f83 fba6 e2c2 bb2a 1d5f da2e
000002f0: 0400 0000 0400 0000 74b3 2b30 6043 8b2f
00000300: 4678 2b2c 0805 8628 c574 ada9 0400 0000
00000310: 8dd4 5229 0400 0000 0400 0080 9ab6 0630
00000320: 7674 862f ccdf 0228 0400 0000 200d e22e
00000330: a09e d02e 0c65 5b2f 77b8 ae2f b23a 0b2f
00000340: b611 d72f 0400 0000 6504 a12e bef1 512f
00000350: 4e3f b42f ae4f 0426 0400 0000 0400 0000
00000360: 1e63 442f 0e80 012e b60d 632f 0400 0000
00000370: 9aa5 862e 96c9 a72d a3e4 aa2f d964 f2aa
00000380: ad7c b32e 27ea c42f fe04 f72e 6236 182d
00000390: a4aa a1a9 9a47 fa2d 0400 0000 305e 052c
000003a0: 0c54 852d fd24 aaa7 4ca0 962a 98a6 af2e
000003b0: 0400 0000 0400 0000 60bb 0930 8209 602f
000003c0: a8e2 b429 0060 0d26 0400 0000 0400 0000
000003d0: ec67 de26 0400 0000 0400 0000 fa52 8e2d
000003e0: fed5 0d2d 0400 0000 0400 0000 2976 6e2c
000003f0: 718b 5c2c 8876 e92c e24f 392d 77df 922c
5.4431425e-12 3.3236943e-14 -5.4049782e-14 6e-45 1.04571937e-13 6e-45 -6e-45 1.097106e-09
5.463241e-10 1.622841e-14 6e-45 2.2962503e-10 2.1265259e-10 4.506445e-10 7.149275e-10 2.828608e-10
8.764058e-10 6e-45 1.6356276e-10 4.2787737e-10 7.3239137e-10 1.0253948e-15 6e-45 6e-45
4.0165085e-10 6.577378e-11 4.638807e-10 6e-45 1.4118846e-10 4.5482743e-11 6.9686623e-10 1.8808262e-13
1.8574256e-10 8.007629e-10 2.578865e-10 1.9327363e-11 -6.981242e-14 6.59274e-11 6e-45 4.235162e-12
3.4766797e-11 1.1458128e-14 6.025662e-13 1.7842768e-10 6e-45 6e-45 1.1284156e-09 4.5515955e-10
-2.0244962e-12 -1.2362027e-14 -1.4589676e-13 -6e-45 -3.8894e-14 -6e-45 -6e-45 -4.1137904e-10
-2.0320078e-10 -6.0359093e-15 -6e-45 -8.5405724e-11 -8.012664e-11 -1.7453063e-10 -2.7293773e-10 -1.0520601e-10
-3.2952888e-10 -6e-45 -6.083481e-11 -1.610447e-10 -2.7240946e-10 -3.8136298e-16 -6e-45 -6e-45
-1.5314199e-10 -2.4463619e-11 -1.7618555e-10 -6e-45 -5.8719966e-11 -2.0958684e-11 -2.6268912e-10 -1.6873544e-12
-7.389302e-11 -2.9875255e-10 -1.0571065e-10 -7.188542e-12 -1.0141316e-13 -2.785187e-11 -6e-45 -1.5780002e-12
-1.4208526e-11 -3.521581e-14 -2.311018e-13 -6.636359e-11 -6e-45 -6e-45 -4.3256124e-10 -1.6929282e-10
-2.4255268e-12 -1.4810984e-14 -1.6742978e-13 -6e-45 -4.65986e-14 -6e-45 0.0 -4.927251e-10
-2.4345395e-10 -7.231526e-15 -6e-45 -1.0232413e-10 -9.595331e-11 -2.0879815e-10 -3.2669453e-10 -1.260468e-10
-3.9465103e-10 -6e-45 -7.288582e-11 -1.9286328e-10 -3.263726e-10 -4.568258e-16 -6e-45 -6e-45
-1.8331316e-10 -2.9309773e-11 -2.1092599e-10 -6e-45 -7.007659e-11 -2.4931697e-11 -3.145718e-10 -1.949813e-12
-8.8317964e-11 -3.5789435e-10 -1.2621724e-10 -8.612589e-12 -1.1584818e-13 -3.3221283e-11 -6e-45 -1.8907456e-12
-1.6966742e-11 -4.081801e-14 -2.7662153e-13 -7.950978e-11 -6e-45 -6e-45 -5.176811e-10 -2.0282888e-10
3.0293803e-12 1.8498005e-14 -7.363908e-14 6e-45 5.819949e-14 6e-45 -6e-45 6.097215e-10
3.0405567e-10 9.031922e-15 6e-45 1.2779774e-10 1.1808056e-10 2.489904e-10 3.9604803e-10 1.574261e-10
4.86829e-10 6e-45 9.1030815e-11 2.376361e-10 4.0761047e-10 5.706898e-16 6e-45 6e-45
2.2255382e-10 3.6606374e-11 2.5721456e-10 6e-45 7.694971e-11 2.4252865e-11 3.8692238e-10 -3.1972173e-13
1.0211323e-10 4.4542306e-10 1.4095694e-10 1.0756634e-11 -7.227777e-14 3.5817807e-11 6e-45 2.356378e-12
1.9014275e-11 -1.7452249e-15 3.33531e-13 9.930388e-11 6e-45 6e-45 6.2464456e-10 2.5331826e-10
2.4367327e-12 1.487917e-14 -7.7029996e-14 6e-45 4.6813725e-14 6e-45 -6e-45 4.900841e-10
2.4457208e-10 7.264978e-15 6e-45 1.02796216e-10 9.4869224e-11 1.9953833e-10 3.1781486e-10 1.2662829e-10
3.9120857e-10 6e-45 7.322213e-11 1.9094323e-10 3.278679e-10 4.5904686e-16 6e-45 6e-45
1.786131e-10 2.944494e-11 2.0650401e-10 6e-45 6.123031e-11 1.9075224e-11 3.1085276e-10 -4.3057813e-13
8.1621244e-11 3.5818568e-10 1.12331464e-10 8.652275e-12 -7.179438e-14 2.8453507e-11 6e-45 1.8952721e-12
1.5157674e-11 -4.722458e-15 2.675658e-13 7.9876716e-11 6e-45 6e-45 5.0106586e-10 2.0376059e-10
8.0329244e-14 4.9049306e-16 6e-45 6e-45 1.5432513e-15 6e-45 6e-45 1.618038e-11
8.062438e-12 6e-45 6e-45 3.3887426e-12 3.1341286e-12 6.635418e-12 1.053377e-11 4.174379e-12

exp_avg_sq f4 [48, 48]
00000000: 1cf9 a829 d6cc 132a 187c d22a 0219 ac2a
00000010: 39fe db2b cb53 1829 f401 0000 d98b 112c
00000020: 78db 5f2d 3278 942a 1401 1617 26cd 122c
00000030: 3919 f92a 88d5 802c d253 c52c f216 c02b
00000040: 6722 102c 12cc 692a b0df 372c 4c3f ba2b
00000050: fa5d 632d befa 8f27 e4a7 4c23 734d 9228
00000060: 38bc 112c 950f bd2b 8dd2 9b2b dd6b 9d28
00000070: 77ef d52b 5e4c 8127 e342 9b2c dc43 372b
00000080: fbc0 ce2b 1f3b 8229 a0b6 532c 5db6 372b
00000090: 445b 1520 2e58 fd2b 219c 4e20 2ea6 302a
000000a0: 85e2 fe28 af21 9528 355e 2229 6a1a 4a2a
000000b0: b3e2 452a eef6 e513 0ee0 ab2c c5a6 782c
000000c0: 6744 8327 1e6d f027 9c96 a328 cecc 8428
000000d0: 2c52 aa29 bf5f d526 f401 0000 8c84 dd29
000000e0: b7de 342b 3a4e 6828 22ef 3914 8979 f529
000000f0: 4133 b028 0362 272a 712d 7d2a de74 a429
00000100: 14d6 e129 b723 3d28 f96a 182a d4c3 9629
00000110: e6ae 362b ad4b 8125 bc74 ed20 6e72 6526
00000120: 6813 dc29 53d8 9629 25f1 6729 742b 6826
00000130: 331d 7729 f483 c924 4b45 6c2a e432 0529
00000140: 664b 8329 2233 7f27 4226 ca29 11fb 1529
00000150: da81 a31d 5c87 9f29 c31b ca1d bebe 0928
00000160: d0ee 8326 0b15 6626 6df6 f726 b93d 3b28
00000170: a2d9 1028 dfa9 8110 afcd 4a2a 709f 402a
00000180: a276 7322 3fc3 1822 cba5 b223 7a95 2623
00000190: 2712 c324 66a5 2121 0000 0000 cf1d 4629
000001a0: c753 a129 addf a323 e2b7 380d cc98 5b28
000001b0: 3b09 1027 02f4 6328 c5b9 6829 c206 9b28
000001c0: 6f0e 2a29 7402 c422 4404 8028 95e0 6827
000001d0: 3b91 b329 838d 8221 3991 9512 4609 f420
000001e0: bd60 7a27 613d 6626 9507 5828 b1f7 ac20
000001f0: 3068 c327 572a 0823 b46e 0029 f637 2524
00000200: 300c 5b27 ebcc 2d27 4372 ac28 a63a e426
00000210: 68ca ac16 0ebd 9b27 5b0d 390d 86d1 8523
00000220: dbe3 2b25 5e98 1622 4a61 2222 8c74 e527
00000230: ae5c 5922 735c 8409 7603 9c29 ee57 8c28
00000240: 40dc f628 68b5 5629 5bd0 192a 65b6 fb29
00000250: 64d0 202b 8675 6128 f401 0000 2ce7 552b
00000260: 24e1 a22c 69cd d829 1809 6f16 55a7 542b
00000270: 0351 382a 3179 c02b 84b4 132c 68c5 0a2b
00000280: 1cfb 522b 81f9 a929 e452 852b 0a78 072b
00000290: e992 a52c 97a4 ce26 f353 9a22 5d6f d527
000002a0: 75d7 552b 13b3 092b 2158 e52a aa8f e727
000002b0: bbba 212b 4b76 ca26 84c9 e32b a808 872a
000002c0: 70c4 1a2b bb3d b928 68d5 a22b de67 852a
000002d0: e886 621f 08cc 3d2b c296 9e1f 9ffa 8029
000002e0: 81a7 4228 7657 da27 fbd1 6d28 d996 9029
000002f0: 19a8 9129 ea91 3f13 30d5 012c 16e8 b52b
00000300: 801b ae28 e501 1729 3903 d929 f7a1 b129
00000310: 16ec e22a 5208 2028 f401 0000 6853 172b
00000320: fc50 652c c1df 9829 9da0 2f16 345b 152b
00000330: 06d3 022a 643d 892b 1fda d22b e4af c22a
00000340: 7ef6 142b b633 6f29 5b61 3b2b b7b1 be2a
00000350: a935 692c a676 9026 3a31 5d22 0b6d 9627
00000360: 0d26 172b fef4 c12a 9d5b a22a 3ade a327
00000370: 6cf3 e72a 3992 9326 f4ff a02b c949 3f2a
00000380: 73ed dc2a c8f1 8028 826c 6b2b 7fa1 3b2a
00000390: 4500 341f ac84 072b 9cc8 691f cbe4 3529
000003a0: 6a40 0c28 e729 9a27 42f2 2728 21de 4929
000003b0: 663b 4e29 b19a 0f13 2426 ba2b b165 802b
000003c0: 4f62 a026 f55e 0327 1692 c927 cc02 a627
000003d0: 5a20 d328 c3a5 2726 f401 0000 f23f 1829
000003e0: 79f6 4c2a afb3 8c27 b25b 9d14 a40a fe28
000003f0: 5f05 0a28 aef2 9c29 b47d f629 c400 a228
7.503912e-14 1.312729e-13 3.73896e-13 3.057069e-13 1.5631447e-12 3.382346e-14 7e-43 2.068337e-12
1.2724814e-11 2.6373483e-13 4.8468975e-25 2.0861728e-12 4.4248787e-13 3.6616855e-12 5.6083827e-12 1.3648789e-12
2.0482728e-12 2.0765358e-13 2.6130036e-12 1.3233663e-12 1.2924323e-11 3.996233e-15 1.1094414e-17 1.6242844e-14
2.0710222e-12 1.3433583e-12 1.1071852e-12 1.747728e-14 1.5201025e-12 3.588749e-15 4.412791e-12 6.5108834e-13
1.4690743e-12 5.7834156e-14 3.008628e-12 6.526774e-13 1.2650988e-19 1.8001206e-12 1.7500537e-19 1.5689595e-13
2.8297902e-14 1.6556931e-14 3.6052938e-14 1.7950368e-13 1.7575767e-13 5.805122e-27 4.8849874e-12 3.5335495e-12
3.6433966e-15 6.6731687e-15 1.8161952e-14 1.4743764e-14 7.563771e-14 1.4805796e-15 7e-43 9.837365e-14
6.4257925e-13 1.289555e-14 9.387274e-27 1.09012686e-13 1.9562153e-14 1.4866584e-13 2.248668e-13 7.303336e-14
1.0029144e-13 1.0499352e-14 1.3537426e-13 6.695309e-14 6.490211e-13 2.2429213e-16 4.022661e-19 7.9605416e-16
9.773329e-14 6.6988644e-14 5.1501463e-14 8.055006e-16 5.4870344e-14 8.739339e-17 2.0985052e-13 2.9576073e-14
5.830648e-14 3.5416078e-15 8.977239e-14 3.330241e-14 4.3280004e-21 7.0844995e-14 5.349766e-21 7.646388e-15
9.154681e-16 7.98258e-16 1.7205862e-15 1.0393969e-14 8.040797e-15 5.1143256e-29 1.8012565e-13 1.7108342e-13
3.2995445e-18 2.0703204e-18 1.9369015e-17 9.030531e-18 8.459852e-17 5.4767825e-19 0.0 4.3990687e-14
7.164369e-14 1.7767226e-17 5.692072e-31 1.2190075e-14 1.9989018e-15 1.2653942e-14 5.1675478e-14 1.7211388e-14
3.7760102e-14 5.3128504e-18 1.4212705e-14 3.2318214e-15 7.97439e-14 8.8466e-19 9.439022e-28 4.1341344e-19
3.4746911e-15 7.9880464e-16 1.1992053e-14 2.9301842e-19 5.4236333e-15 7.3815406e-18 2.851773e-14 3.5826072e-17
3.0398962e-15 2.411966e-15 1.9145389e-14 1.5836575e-15 2.7915835e-25 4.3226116e-15 5.7023602e-31 1.4508626e-17
1.4909086e-16 2.0409453e-18 2.2006598e-18 6.368663e-15 2.9458048e-18 3.1864783e-33 6.928392e-14 1.5581256e-14
2.7407005e-14 4.767489e-14 1.3661418e-13 1.11782796e-13 5.713262e-13 1.2515493e-14 7e-43 7.5993617e-13
4.6293126e-12 9.62796e-14 1.9309136e-25 7.554975e-13 1.637059e-13 1.3676058e-12 2.0990163e-12 4.9301405e-13
7.495547e-13 7.54839e-14 9.473225e-13 4.812822e-13 4.7058924e-12 1.4338734e-15 4.183067e-18 5.9240116e-15
7.597181e-13 4.8920693e-13 4.0739723e-13 6.427114e-15 5.745783e-13 1.4048629e-15 1.6185252e-12 2.3986824e-13
5.49844e-13 2.0565897e-14 1.1570024e-12 2.3697618e-13 4.7968953e-20 6.742944e-13 6.716501e-20 5.727818e-14
1.0805485e-14 6.060198e-15 1.3201675e-14 6.4210525e-14 6.468454e-14 2.417953e-27 1.8450345e-12 1.292524e-12
1.9329807e-14 3.353038e-14 9.637295e-14 7.8884754e-14 4.0309482e-13 8.883588e-15 7e-43 5.3761726e-13
3.2587813e-12 6.788971e-14 1.4187068e-25 5.3062004e-13 1.1619533e-13 9.751475e-13 1.4981938e-12 3.458337e-13
5.292224e-13 5.3113513e-14 6.6570854e-13 3.3874094e-13 3.3141079e-12 1.0024167e-15 2.9977145e-18 4.175159e-15
5.369878e-13 3.4453684e-13 2.884055e-13 4.5482527e-15 4.120275e-13 1.0239808e-15 1.1439725e-12 1.6989807e-13
3.9244614e-13 1.431571e-14 8.3639356e-13 1.6664967e-13 3.8116706e-20 4.8145754e-13 4.950561e-20 4.038852e-14
7.785529e-15 4.2789017e-15 9.3228935e-15 4.4823632e-14 4.579271e-14 1.8125406e-27 1.3226681e-12 9.123172e-13
1.1128877e-15 1.8231378e-15 5.5947094e-15 4.607729e-15 2.3439736e-14 5.8164413e-16 7e-43 3.3806244e-14
1.8204352e-13 3.905262e-15 1.5889116e-26 2.820428e-14 7.6617035e-15 6.96989e-14 1.09464006e-13 1.7985945e-14

exp_avg f4 [48]
00000000: 1fdf 7f30 a1b8 c2af db19 e9af 78d4 0d30
00000010: 76b2 e32f ef70 712d 13b4 36b0 5a65 9b2f
00000020: 745e 01b0 e8f0 b4af 61d1 01b0 0d92 6ab1
00000030: 0400 0000 b7ea cbaf bb76 1130 a286 b4b0
00000040: 64f7 8f2b e96a 10ae 0d0e c330 0400 0000
00000050: e48e 5fb0 b1e2 8ab1 feb3 cbaf 0400 0000
00000060: 7697 96b0 561b 5cb0 38ff 09af f8a6 09b1
00000070: 3594 7bb0 1aa1 1631 ebed 85b0 95be 8eaf
00000080: e50b 0eb0 03de 5a30 0400 0000 e4f8 c7b0
00000090: 9ac2 d02f 16e5 12b0 0400 0000 0400 0000
000000a0: 6cdb c1b0 bdc0 11b1 e314 b12f dcba 8d2f
000000b0: 4914 8630 33bc 8ba5 3dbb 48b0 f20c 942e
9.3085534e-10 -3.541958e-10 -4.2400825e-10 5.159744e-10 4.1417864e-10 1.372434e-11 -6.6467115e-10 2.826635e-10
-4.706415e-10 -3.2912983e-10 -4.722747e-10 -3.4134502e-09 6e-45 -3.709226e-10 5.291942e-10 -1.3134989e-09
1.0229426e-12 -3.2836765e-11 1.4192111e-09 6e-45 -8.1329987e-10 -4.0421004e-09 -3.7053377e-10 6e-45
-1.0956984e-09 -8.007438e-10 -1.255075e-10 -2.0031035e-09 -9.1523883e-10 2.1919448e-09 -9.744644e-10 -2.5965066e-10
-5.16762e-10 7.9623436e-10 6e-45 -1.4549895e-09 3.7973252e-10 -5.344004e-10 6e-45 6e-45
-1.4104962e-09 -2.1209836e-09 3.2210953e-10 2.5780522e-10 9.755549e-10 -2.4240185e-16 -7.302566e-10 6.73256e-11

exp_avg_sq f4 [48]
00000000: 037b b12c 696b 812a 7a13 6629 22f2 022c
00000010: d0a1 b92b 2bfd bf29 72af ad2b cbd2 5a2b
00000020: c13c 0d2b 7611 3d28 29cf 0f2b 8ce4 5c2e
00000030: f401 0000 e0cc 552a 335c 012c a899 d92c
00000040: eb26 8317 0ae9 2229 7f07 462d c240 1812
00000050: 901a 8528 768a e126 7896 932a 9dbe 622a
00000060: 7cae 6e27 3836 092c 2f7b 2327 fb51 312a
00000070: e4b5 b528 73eb d62d 8d1c 592c c1f9 b529
00000080: c50c 8c2a dc77 842c f46d 150f 0093 082d
00000090: ed68 a42b 4d7c 622b 9350 7204 5429 d710
000000a0: df7c f82c fab1 952d e0c7 7a2b 0fd3 3b2b
000000b0: effa c12c 0f5c da1f 2c6a ee2b 6950 422a
5.0442996e-12 2.2989534e-13 5.1087152e-14 1.8608522e-12 1.3189953e-12 8.5260216e-14 1.2341085e-12 7.774169e-13
5.0177576e-13 1.0495394e-14 5.10913e-13 5.02252e-11 7e-43 1.898928e-13 1.8383183e-12 6.1845702e-12
8.475501e-25 3.6173355e-14 1.1256661e-11 4.8042563e-28 1.4777486e-14 1.5650041e-15 2.6216854e-13 2.0138965e-13
3.3123723e-15 1.9498968e-12 2.2687572e-15 1.5749201e-13 2.017392e-14 2.4433544e-11 3.0853404e-12 8.08134e-14
2.4877856e-13 3.7649727e-12 7.3674434e-30 7.7633455e-12 1.1682024e-12 8.046383e-13 2.8483961e-36 8.4866223e-29
7.0624474e-12 1.7018376e-11 8.9095224e-13 6.672865e-13 5.513249e-12 9.247889e-20 1.6940386e-12 1.7258559e-13
