ModelPara/DDPG/Mario_localPi_DDPG2021-10-08T10-21-30.pth (torch, 17567 bytes, 6 tensors)

Linear1.weight f4 [48, 24]
0	0x3e2b58dc	0.16733116
1	0x3e197e08	0.14989483
2	0xbd938a5a	-0.07204123
3	0xbda7c83a	-0.08192487
4	0x3e122686	0.14272508
5	0x3e22bec0	0.15893078
6	0x3da3b370	0.07993209
7	0x3e3be81c	0.18350261
8	0xbe0a624a	-0.13514057
9	0x3db8f564	0.090311795
10	0x3dbbade8	0.09164029
11	0xbdebf6e5	-0.11521701
12	0x3d19dfb4	0.037566856
13	0x3dd0dae8	0.10198003
14	0xba707900	-0.0009173304
15	0x3e05abf2	0.13053873
16	0xbdd902b3	-0.10596218
17	0xbdbc4281	-0.09192372
18	0x3dea6aa4	0.11446121
19	0x3e27f0aa	0.164004
20	0xbe3d9776	-0.18514809
21	0x3c98deb8	0.018660888
22	0x3d37c8bc	0.04486917
23	0xbbfcba00	-0.0077126026
24	0xbbce53a0	-0.00629659
25	0xbdeef987	-0.11668687
26	0xbda4c631	-0.080456145
27	0x3e317a26	0.17331752
28	0x3dfb3ecc	0.12267837
29	0x3d3e00e0	0.046387553
30	0x3d8f7f8c	0.070067495
31	0x3e381532	0.17976835
32	0xbe224d64	-0.15849835
33	0xbde8bb49	-0.11363847
34	0x3e3cecac	0.18449658
35	0x3e405f92	0.18786457
36	0x3be67f60	0.0070342273
37	0x3e35eda8	0.1776644
38	0xbe1e0340	-0.15430927
39	0xbe4a73db	-0.19770758
40	0x3d1394b4	0.036030486
41	0xbdc6b467	-0.09702378
42	0xbba122a0	-0.0049174577
43	0x3e2ef8c8	0.1708709
44	0x3dc20b40	0.09474802
45	0x3e357d70	0.17723632
46	0x3e39dca0	0.18150568
47	0xbdd6e84f	-0.10493528
48	0x3d2abaf8	0.041682214
49	0x3ca64150	0.020294815
50	0x3e2e4688	0.17019093
51	0x3e172642	0.14760688
52	0xbda02856	-0.078201935
53	0xbd2d9804	-0.0423813
54	0xbd7643f8	-0.060123414
55	0xbd3ec818	-0.046577543
56	0xbe40765e	-0.18795153
57	0x3e253c12	0.16136196
58	0x3b5ff6c0	0.0034174174
59	0x3db30ebc	0.08743045
60	0x3e06656c	0.13124627
61	0x3e46e42a	0.19422975
62	0x3b1d0f40	0.0023965389
63	0x3e435724	0.1907621
64	0xbe07889a	-0.13235703
65	0xbe15d9c2	-0.1463385
66	0xbe2229e6	-0.15836295
67	0x3e4b5fa4	0.19860703
68	0xba0d2a00	-0.00053849816
69	0x3de58340	0.112066746
70	0x3dad45c8	0.08460575
71	0x3d63c4d0	0.055607617
72	0xbe164427	-0.14674436
73	0xbe2a4069	-0.16626133
74	0x3e01df4a	0.12682834
75	0xbe4a398f	-0.1974852
76	0xbe0105d4	-0.1259988
77	0xbe16c6d3	-0.14724283
78	0x39af4400	0.00033429265
79	0x3e119240	0.14215946
80	0xbda9023b	-0.082523786
81	0xbd3ce288	-0.046114475
82	0x3dcb1444	0.09915975
83	0xbe128f07	-0.14312373
84	0x3d4514d8	0.04811558
85	0xbc0785e0	-0.008271664
86	0xbd0f0310	-0.03491503
87	0x3d8d9ae0	0.06914306
88	0x3db5beb0	0.088742614
89	0x3db8567c	0.090008706
90	0x3d7ce850	0.061744988
91	0x3be957c0	0.0071210563
92	0x3db7dd14	0.08977714
93	0xbd18fbf8	-0.03734967
94	0x3df8c180	0.12146282
95	0x3e28eeb4	0.16497308
96	0xbe0d114e	-0.13776132
97	0x3c75c240	0.014999926
98	0xbe39b211	-0.18134333
99	0xbe0a571d	-0.13509794
100	0x3d3c7850	0.046013176
101	0xbd28faf4	-0.041254953
102	0x3d954b70	0.07289779
103	0x3d6e6d68	0.058209807
104	0xbcd98238	-0.026551351
105	0x3c380120	0.011230737
106	0x3e10a40e	0.14125082
107	0xbdf2da0b	-0.11857995
108	0x3c887288	0.016656175
109	0x3d87dd34	0.06633988
110	0x3da16e30	0.07882345
111	0x3d0f5140	0.034989595
112	0xbdd30b6d	-0.10304914
113	0x3dd3a83c	0.103348225
114	0xbddc547e	-0.10758303
115	0xbe3da3e3	-0.18519549
116	0xbe4d0f9f	-0.2002549
117	0xbe2daa4c	-0.16959494
118	0x3dfed904	0.12443736
119	0xbe20537e	-0.1565685
120	0x3dcccba0	0.09999776
121	0x3e28c942	0.16483024
122	0xbd810830	-0.0630039
123	0x3dad8098	0.08471793
124	0xbe1eaf40	-0.1549654
125	0x3d95e3e4	0.07318857
126	0xbba4be20	-0.0050275475
127	0x3da05adc	0.0782983
128	0x3db93ce8	0.0904482
129	0x3e295a14	0.16538268
130	0x3ca682b0	0.020325989
131	0x3db8ab70	0.09017074
132	0x3db0bea4	0.08630112
133	0xbe45fab2	-0.19333914
134	0xbd19d504	-0.037556663
135	0xbe196215	-0.14978822
136	0x3d1d30e0	0.03837669
137	0xbe0622af	-0.13099168
138	0x3e161b78	0.14658916
139	0x3c38e120	0.011284143
140	0xbc622eb0	-0.0138050765
141	0x3e0ce758	0.13760126
142	0x3dc7b190	0.09750664
143	0x3e0e2b6c	0.13883752
144	0x3dfdb9b0	0.12388933
145	0x3e061cc8	0.13096917
146	0x3e06cbc6	0.13163671
147	0xbdfdd44f	-0.1239401
148	0x3cac6388	0.021043554
149	0x3d383518	0.04497251
150	0xbbecd360	-0.0072273463
151	0x3dcb7054	0.09933534
152	0xbe4b3040	-0.19842625
153	0x3d0e693c	0.034768328
154	0xbd59b954	-0.05315526
155	0xbe38bdb6	-0.18041119
156	0x3e00762a	0.12545076
157	0xbe11a4c3	-0.14223008
158	0xbd3449ec	-0.04401581
159	0x3d8ebca4	0.06969574
160	0x3d8e8918	0.06959742
161	0x3d779d28	0.06045261
162	0xbd5d8c34	-0.054088786
163	0x3d028458	0.031864494
164	0x3e01b94a	0.12668338
165	0x3c03ddf0	0.0080485195
166	0x3de9069c	0.11378214
167	0x3da3e430	0.08002508
168	0x3e3765b8	0.17909896
169	0x3e093870	0.13400435
170	0xbe1ee79e	-0.15518042
171	0x3e3f707a	0.1869525
172	0xbe0310c1	-0.1279936
173	0x3ce328c8	0.027729407
174	0xbe0a0c98	-0.13481367
175	0x3dd5fd90	0.10448754
176	0x3e2949b4	0.16532022
177	0x3e1e9226	0.15485439
178	0xbdc9a0a5	-0.09845094
179	0x3e0b893a	0.13626567
180	0x3cef2cc8	0.029196158
181	0xbda384b6	-0.07984297
182	0x3e118254	0.14209872
183	0xbd795988	-0.0608764
184	0x3d886764	0.06660345
185	0x3e32b65c	0.17452377
186	0xbe3799b6	-0.1792973
187	0x3d8f647c	0.07001588
188	0xbb389b40	-0.0028168708
189	0x3dc7e630	0.09760702
190	0x3d94837c	0.07251641
191	0xbd805196	-0.06265561
192	0xbb7ca600	-0.0038551092
193	0xbdc1e30f	-0.09467136
194	0x3d503890	0.050835192
195	0x3cf848b0	0.030308098
196	0xbe2a7667	-0.1664673
197	0x3e0bc308	0.13648617
198	0xbe0ec244	-0.13941294
199	0x3db4740c	0.08811197
200	0xbd788d94	-0.060681894
201	0x3e3c3e4e	0.18383142
202	0xbe122c2c	-0.14274663
203	0x3e073f76	0.13207802
204	0xbd7ee43c	-0.06222938
205	0xbc6798e0	-0.014135569
206	0xbdbe8719	-0.093031116
207	0x3d8f9e5c	0.070126265
208	0xbe3d105d	-0.18463273
209	0x3ddd9e0c	0.10821161
210	0x3da80c9c	0.0820553
211	0xbe296caf	-0.16545366
212	0xbe1790e4	-0.14801365
213	0x3e11be16	0.14232668
214	0x3daa1cbc	0.08306262
215	0xbe122964	-0.14273602
216	0xbe457f19	-0.19286765
217	0xbc1d5750	-0.009603336
218	0xbdad230c	-0.0845395
219	0x3e2a7cb2	0.1664913
220	0x3d1549f8	0.036447495
221	0xbddf4b70	-0.109030604
222	0x3e10e1ec	0.14148682
223	0xbda3ef57	-0.08004635
224	0xbe25bbd8	-0.16184938
225	0x3ccf9158	0.02533786
226	0x3d8c37a8	0.06846553
227	0x3e1d08e2	0.1533542
228	0x3dd963dc	0.1061475
229	0xbe284138	-0.16431129
230	0xbe39818b	-0.18115823
231	0x3d105de0	0.035245776
232	0x3cd57090	0.02605465
233	0xbe0f898e	-0.14017317
234	0xbe3a63ab	-0.18202083
235	0xbcc15180	-0.023598433
236	0x3d180a30	0.03711909
237	0x3e2ee76c	0.17080468
238	0xbdb802b0	-0.089848876
239	0x3ce6f3c8	0.028192416
240	0x3ddcdf14	0.10784736
241	0xbe116480	-0.14198494
242	0x3d2cc944	0.04218413
243	0x3e005864	0.12533718
244	0xbc429950	-0.011877373
245	0x3d71b650	0.059011757
246	0x3dd15250	0.10220778
247	0x3e001b14	0.1251033
248	0xbdf6b3ae	-0.1204599
249	0xbe2a37f0	-0.16622901
250	0xbe2ebf5f	-0.1706519
251	0xbe140493	-0.1445487
252	0xbdfc6f17	-0.12325876
253	0x3dd65500	0.10465431
254	0xbd832d6c	-0.06405148
255	0xbe25fbf8	-0.162094

Linear1.bias f4 [48]
0	0xbd5fd25c	-0.054643974
1	0x3dccfe28	0.10009414
2	0xbdcb763c	-0.09934661
3	0x3d37a740	0.044837236
4	0x3e13966e	0.14412853
5	0xbd955512	-0.072916165
6	0x3e506f3e	0.20354936
7	0xbd9012bc	-0.07034823
8	0x3e2239d4	0.15842372
9	0x3ab6b500	0.001393944
10	0x3da01128	0.07815772
11	0x3e2e252c	0.17006367
12	0x3c202c90	0.0097762495
13	0x3e131778	0.14364421
14	0xbd979604	-0.0740166
15	0x3dfde888	0.123978674
16	0x3b944c80	0.004525721
17	0x3d9f33a0	0.077735186
18	0x3d1b782c	0.0379564
19	0xbe1c6bc0	-0.15275478
20	0x3e1434f0	0.14473319
21	0x3e00bc5c	0.12571853
22	0xbe413191	-0.18866564
23	0x3e2fa3dc	0.17152351
24	0x3c2aa020	0.010414153
25	0x3d4dc560	0.05023706
26	0xbd93e098	-0.07220572
27	0x3ddf00f4	0.10888854
28	0xbe48c1e7	-0.19605218
29	0xbc576cd0	-0.0131485015
30	0xbe37b69b	-0.17940752
31	0x3e0af9c6	0.13571844
32	0xbd4a20f8	-0.049347848
33	0xbd7e27b0	-0.062049568
34	0x3d763ed8	0.060118526
35	0x3bdc31c0	0.006719798
36	0xbddec925	-0.10878209
37	0xbd1875ec	-0.037221834
38	0x3dffd678	0.124920785
39	0x3e264f6c	0.16241235
40	0x3e484ef0	0.19561362
41	0x3de6aa8c	0.11262998
42	0x3d0b6564	0.03403224
43	0xbc640820	-0.013917953
44	0x3cd2b858	0.025722668
45	0x3dd1ff30	0.10253751
46	0x3e3de682	0.18544963
47	0x3dfc5734	0.1232132

Linear2.weight f4 [48, 48]
0	0x3df084f4	0.11744109
1	0x3d1bb718	0.03801641
2	0xbb582d00	-0.0032985806
3	0x3da583aa	0.080817536
4	0xbd59ce8e	-0.0531755
5	0xbd93d1db	-0.07217761
6	0xbdc0b8c1	-0.09410239
7	0xbde3fd6a	-0.11132319
8	0xbde69fcb	-0.11260947
9	0x3dc37dfc	0.09545514
10	0xbe05fc88	-0.13084614
11	0x3d977f02	0.07397272
12	0xbdd6cf3c	-0.104887456
13	0xbdd9c88c	-0.106339544
14	0x3d3f0f84	0.046645656
15	0x3dc98458	0.09839696
16	0x3df66160	0.120302916
17	0xbe0b4fd4	-0.13604671
18	0xbd157c94	-0.03649576
19	0x3d6d7640	0.0579741
20	0xbde465d9	-0.111522384
21	0xbc148d70	-0.009066924
22	0x3d76c598	0.060247034
23	0x3ba504c0	0.0050359666
24	0xbe0b0bcf	-0.13578723
25	0x3ddfd340	0.109289646
26	0x3c96a3d8	0.018388674
27	0x3ca2dda0	0.01988107
28	0x3c4b0c80	0.012393117
29	0xbcc5f9a4	-0.02416689
30	0xbd2e3ec8	-0.04254034
31	0x3d66fd80	0.0563941
32	0x3e09060a	0.1338121
33	0xbd979787	-0.074019484
34	0xbe030774	-0.12795812
35	0xbc0b87c0	-0.008516252
36	0x3dbed77c	0.09318444
37	0xbd0461e2	-0.03231991
38	0x3e00a7a2	0.12563947
39	0xbdc30558	-0.095225036
40	0xbcc97244	-0.024590619
41	0x3d889bec	0.06670365
42	0x3d5b33d0	0.05351621
43	0xbd8fce73	-0.07021799
44	0xbdd416b6	-0.10355894
45	0xbd23c348	-0.039981157
46	0x3e0e6d9a	0.13908997
47	0xbd1f28ac	-0.038857147
48	0x3cf43b38	0.029813394
49	0xbd16a176	-0.036775075
50	0xbd5977ca	-0.053092755
51	0xbdf580fd	-0.11987493
52	0x3dbe3a4c	0.09288463
53	0x3d89cb30	0.06728208
54	0x3d4b4a28	0.049631268
55	0x3bfed9c0	0.0077774227
56	0xbdffe7df	-0.12495398
57	0x3bb5fbc0	0.0055536926
58	0x3ddcc0e8	0.107789814
59	0x3d3a53b8	0.045489997
60	0xbdccca26	-0.09999494
61	0x3c4e9e70	0.012611017
62	0x3e0d9cae	0.138293
63	0xbdff69e2	-0.124713674
64	0x3ca56860	0.020191371
65	0xbdd3eccd	-0.103479005
66	0xbcba3b90	-0.02273348
67	0x3da1f244	0.079075366
68	0x3d91f662	0.07127072
69	0x3d95b39a	0.07309647
70	0x3dc32f44	0.095304996
71	0xbd959b91	-0.073050626
72	0xbd1da11a	-0.038483717
73	0x3de1a8f8	0.11018556
74	0xbd28d328	-0.041217
75	0xbc883f08	-0.016631618
76	0xbd4486e6	-0.04798021
77	0x3db4042a	0.08789857
78	0xbc2d29d0	-0.010569051
79	0x3d6ab8cc	0.057305142
80	0xbda88b38	-0.08229679
81	0x3d1ad830	0.03780383
82	0xbd1de3ee	-0.03854745
83	0xbd759936	-0.059960566
84	0x3d236dec	0.03989975
85	0x3d8036e8	0.062604725
86	0xbdc4564a	-0.09586771
87	0xbe13bd4a	-0.14427677
88	0xbcf53498	-0.029932305
89	0xbc62b3a0	-0.013836771
90	0x3db86b1a	0.09004803
91	0x3dee2520	0.11628175
92	0xbcc499b8	-0.02399908
93	0xbd031984	-0.032006755
94	0x3dd0dc8a	0.101983145
95	0x3d9223b6	0.071357176
96	0x3ddab84c	0.10679683
97	0x3dd3eeca	0.1034828
98	0x3dfb3ea8	0.1226781
99	0x3ceb5070	0.028724879
100	0x3d4f849c	0.050663576
101	0xbe02d469	-0.1277634
102	0xbe0f3584	-0.13985258
103	0xbdea57ba	-0.11442514
104	0xbb5e5980	-0.0033927858
105	0x3bef59c0	0.0073044
106	0xbcc4240c	-0.02394297
107	0xbd142a90	-0.036173403
108	0x3c7f9cc0	0.015601337
109	0xbd54839c	-0.051883325
110	0xbd116eec	-0.035506174
111	0xbc9ec468	-0.019380763
112	0xb8f44800	-0.00011648238
113	0x3c196e80	0.009364724
114	0xbd261842	-0.040550478
115	0xbd1a2d66	-0.03764095
116	0xbd0e8b64	-0.034800902
117	0x3e03abfe	0.12858579
118	0xbde0afb1	-0.109710105
119	0x3e00ec78	0.12590206
120	0xbe1242d4	-0.14283305
121	0x3dcf8afe	0.101339325
122	0x3d387de8	0.04504195
123	0xbcc00650	-0.02344051
124	0x3c8cebf8	0.017202362
125	0xbd9d68ee	-0.076860294
126	0x3d658604	0.05603601
127	0x3d28f40c	0.041248366
128	0x3dfb5e0c	0.122737974
129	0xbdab612a	-0.08368142
130	0x3dcbb124	0.09945896
131	0x3d8bc6f8	0.0682506
132	0x3e126062	0.1429458
133	0x3dfd509c	0.12368891
134	0xbd33fa96	-0.04394015
135	0xbc82b440	-0.01595509
136	0x3d115c00	0.03548813
137	0x3d59483c	0.053047404
138	0x3da5670a	0.08076294
139	0x3b0e0300	0.0021669269
140	0x3e042b06	0.12907037
141	0xbd4e2056	-0.050323807
142	0x3cd42f58	0.025901482
143	0xbd7ac23e	-0.0612204
144	0x3d8c9452	0.06864227
145	0xbde1e306	-0.110296294
146	0xbdcb26d8	-0.09919518
147	0x3da3f336	0.08005373
148	0xbd35c81c	-0.044380292
149	0x3d0c5774	0.03426309
150	0xbdc5181a	-0.09623738
151	0xbcf2edb0	-0.029654354
152	0xbceff04c	-0.029289387
153	0x3c3960f0	0.011314616
154	0xbd321950	-0.04348117
155	0x3b57da00	0.0032936335
156	0x3d1eb570	0.03874725
157	0x3dc07b66	0.093985364
158	0x3c2e6dd0	0.0106462985
159	0x3de8f7f0	0.11375415
160	0xbe12baa4	-0.1432901
161	0xbcd587b4	-0.026065685
162	0xbde26afb	-0.11055561
163	0x3e0ce700	0.13759995
164	0x3dca0662	0.09864499
165	0x3d96a246	0.0735517
166	0xbd57a7e4	-0.052650347
167	0xbcf12134	-0.029434778
168	0xbd62252a	-0.055211224
169	0xbce32c88	-0.027731195
170	0xbd693c8e	-0.056942515
171	0xbd62203e	-0.05520653
172	0xbdb6f71e	-0.089338526
173	0xbd8d6ef8	-0.06905931
174	0xbdf09024	-0.11746243
175	0xbd8edb00	-0.06975365
176	0xbd94b90e	-0.07261859
177	0xba672900	-0.000881806
178	0x3cd2a9c8	0.025715724
179	0x3dc71410	0.097206235
180	0x3cfc8d90	0.030829221
181	0x3d335c84	0.0437894
182	0x3ddd62a0	0.10809827
183	0x3d97ad86	0.07406144
184	0x3e0946a4	0.13405854
185	0x3dbc3fb4	0.09191838
186	0xbda0be3c	-0.07848784
187	0xbd8a0382	-0.0673895
188	0x3d812b86	0.063071296
189	0xbddef507	-0.10886579
190	0xbdaeeda8	-0.08541423
191	0x3de2eae8	0.11079961
192	0xbcf027f8	-0.029315934
193	0xbd4b59fa	-0.049646355
194	0xbd9e8122	-0.07739474
195	0xbdd561d0	-0.10419047
196	0xbb9b3fc0	-0.004737824
197	0xbd14b3ca	-0.036304273
198	0x3ded4458	0.11585301
199	0x3ddd91c4	0.10818818
200	0x3e104950	0.14090466
201	0xbdaaa3f4	-0.08332053
202	0x3de27864	0.11058119
203	0xbc49e6c0	-0.0123230815
204	0x3dba82da	0.09106989
205	0xbdb4a088	-0.088196814
206	0xbd157bc4	-0.036494985
207	0x3d1ab730	0.037772357
208	0x3d0e50c0	0.034744978
209	0xbd1ce0a0	-0.038300157
210	0xbbb05800	-0.005381584
211	0xbd21882c	-0.039436504
212	0xbd8199e7	-0.06328183
213	0xbd8d1e91	-0.06890596
214	0xbd15b560	-0.036549926
215	0x3dcf1e14	0.10113159
216	0xbca0b4b0	-0.019617409
217	0x3bd3fa80	0.006469071
218	0x3e06251a	0.1310009
219	0x3d9ebf64	0.077513486
220	0xbdc34487	-0.09534555
221	0x3dc68a62	0.09694363
222	0x3ddfc410	0.10926068
223	0xbd2cbd10	-0.04217249
224	0xbcd5046c	-0.026003085
225	0xbde33977	-0.11094945
226	0xbd05fb0c	-0.03271012
227	0x3deb9998	0.11503905
228	0x3ca7bbc8	0.020475283
229	0xbd3383b0	-0.04382676
230	0xbc38cfd0	-0.011280015
231	0x3e0b6f9a	0.13616791
232	0x3cf2d590	0.02964285
233	0x3e0deaac	0.13859051
234	0x3d3a159c	0.045430765
235	0xbd6a0338	-0.057131976
236	0xbce08b98	-0.027410313
237	0xbe01ed69	-0.12688221
238	0x3df8bb90	0.1214515
239	0x3dee4f94	0.11636272
240	0xbbbb6a60	-0.005719468
241	0x3dfdc340	0.123907566
242	0xbdfad620	-0.12247872
243	0xbd84e26a	-0.064884976
244	0xbe0ba2c9	-0.13636316
245	0xbd95ad62	-0.07308461
246	0x3e00d1f4	0.12580091
247	0xbddcc828	-0.10780364
248	0x3c809e38	0.015700445
249	0xbad89880	-0.0016524941
250	0xbdfee239	-0.12445492
251	0x3d9c7b26	0.07640676
252	0xbd1ccf7c	-0.03828381
253	0xbe0d1e2a	-0.13781038
254	0x3d1f8b98	0.038951486
255	0x3dd2a00e	0.10284434

Linear2.bias f4 [48]
0	0x3d9489f0	0.07252872
1	0xbdb6f436	-0.08933298
2	0xbb810c80	-0.0039382577
3	0x3d9d1da6	0.076716706
4	0x3de59370	0.11209762
5	0x3daa5f44	0.08318952
6	0x3c9ad730	0.018901438
7	0xbc74ce90	-0.014941826
8	0xbe0fb981	-0.14035608
9	0xbd1855c6	-0.037191175
10	0x3db78762	0.08961369
11	0xbd676518	-0.056492895
12	0x3b8da120	0.004322186
13	0xbca48e38	-0.020087346
14	0xbe1335bf	-0.14375971
15	0xbd2ef232	-0.042711444
16	0x3da9d402	0.082923904
17	0x3e015bd8	0.12632692
18	0xbdc19c5b	-0.094536506
19	0x3d0142a0	0.03155768
20	0xbdc733f6	-0.09726708
21	0x3c989f00	0.018630505
22	0xbd87c9d3	-0.06630292
23	0x3ded05bc	0.11573359
24	0x375a8000	1.3023615e-05
25	0xbd072fac	-0.033004448
26	0x3dc409aa	0.09572156
27	0x3be90740	0.00711146
28	0x3d33e918	0.043923467
29	0x3cc36260	0.02385062
30	0xbc7c5ea0	-0.01540342
31	0xbd226248	-0.03964451
32	0xbda12cec	-0.07869896
33	0x3de08c9c	0.10964319
34	0xbdc709ea	-0.09718688
35	0x3d74b8ec	0.059746668
36	0xbd75e50e	-0.060032897
37	0xbc348d10	-0.01101996
38	0xbcf326f4	-0.02968166
39	0xbd9ff4cd	-0.07810364
40	0xbdbb2d1a	-0.09139462
41	0xbc8b3ef0	-0.016997784
42	0x3b5f41c0	0.003406629
43	0x3bbded00	0.005796075
44	0xbc80dba8	-0.01572974
45	0x3dd89aac	0.10576376
46	0xbde62f82	-0.1123953
47	0x3cac8580	0.021059752

Linear3.weight f4 [4, 48]
0	0xbc4a57a0	-0.012349993
1	0x3d438620	0.047735333
2	0x3d99ee28	0.07516128
3	0x3e104c30	0.14091563
4	0xbdbe87ce	-0.093032464
5	0x3d9c7a42	0.07640506
6	0x3b241d00	0.00250417
7	0x3da22746	0.07917647
8	0xbb1d50c0	-0.002400443
9	0xbe09e68e	-0.13466856
10	0xbc5944a0	-0.01326099
11	0x3d75a15c	0.059968337
12	0xbe00ca6b	-0.12577216
13	0x3d1c1aa4	0.038111344
14	0x3e105010	0.14093041
15	0xbd74725c	-0.059679374
16	0x3e0ed66c	0.13948983
17	0xbc9616b8	-0.01832138
18	0x3c6b0ca0	0.014346272
19	0x3e08dfde	0.13366649
20	0xbe0ea9af	-0.13931917
21	0xbdfdb37e	-0.12387751
22	0xbdb507dc	-0.0883939
23	0x3d5d1b0c	0.053980872
24	0x3bec9ee0	0.007221088
25	0x3def81fc	0.116947144
26	0x3df4f418	0.1196062
27	0x3c1cb8f0	0.009565577
28	0x3e055f40	0.13024616
29	0xbdbdb0ec	-0.09262261
30	0xbd6e68e8	-0.058205515
31	0x3d79e230	0.061006725
32	0x3d62d0dc	0.055374965
33	0xbd18285c	-0.037147865
34	0xbd8a37de	-0.06748937
35	0x3de6c3e4	0.11267832
36	0xbda187fe	-0.078872666
37	0x3cbdc0d8	0.023163244
38	0xbca27c80	-0.019834757
39	0x3dd37cd0	0.103265405
40	0xbdabb693	-0.08384433
41	0xbd8494ca	-0.06473692
42	0xbdfdd82a	-0.12394746
43	0xbe0a078e	-0.13479444
44	0x3d9a3d9c	0.07531282
45	0x3d44c518	0.048039526
46	0x3df78480	0.12085819
47	0xbe04ba3a	-0.12961665
48	0xbd6abb04	-0.05730726
49	0x3cc82278	0.024430498
50	0x3dba503c	0.09097335
51	0xbb92fbc0	-0.0044855773
52	0x3d265de4	0.040616885
53	0x3e0bcd30	0.13652492
54	0xbdffdbb6	-0.124930784
55	0x3db8007c	0.089844674
56	0xbcec1890	-0.028820306
57	0xbd46ccf4	-0.048535302
58	0xbd9e03ab	-0.07715543
59	0x3ddcdea8	0.10784656
60	0xbc4c4b90	-0.012469187
61	0xbda7c8d6	-0.08192603
62	0xbc9b1120	-0.018929064
63	0xbe093659	-0.13399638
64	0xbe05b7a2	-0.13058332
65	0x3e0e9852	0.13925293
66	0x3e025e52	0.12731293
67	0x3e0dd6ee	0.1385152
68	0xbd0c7b74	-0.03429742
69	0xbe018694	-0.12648994
70	0x3df27154	0.11838022
71	0xbdb69e35	-0.08916894
72	0xbdbfbaa6	-0.09361772
73	0x3e0d1510	0.13777566
74	0x3e086802	0.13320926
75	0x3c0f6380	0.00875175
76	0x3cf00470	0.029298991
77	0xbdb89c7a	-0.090142205
78	0x3d1406b4	0.036139205
79	0xbd85456e	-0.06507383
80	0x3be97140	0.007124096
81	0xbd7b5584	-0.06136085
82	0x3d390f60	0.04518068
83	0x3db005f6	0.08594887
84	0xbd826278	-0.06366438
85	0xbd9981fa	-0.07495494
86	0x3d980ee8	0.07424718
87	0xbdfa3bc8	-0.122184336
88	0xbde5c20c	-0.11218652
89	0xbdbc8f15	-0.09206978
90	0xbd8b9114	-0.06814781
91	0xbd0dff94	-0.034667566
92	0xbca72560	-0.020403564
93	0xbde3802e	-0.11108433
94	0xbdc66d8c	-0.09688863
95	0x3d298d70	0.04139465
96	0xbd025dd2	-0.031827755
97	0xba155700	-0.0005696863
98	0x3dd4f752	0.10398735
99	0xbdf24bf8	-0.11830896
100	0xbd2ceb24	-0.042216435
101	0x3d9625a4	0.07331398
102	0x3e0ad976	0.13559517
103	0x3d45206c	0.048126623
104	0x3d9afeb6	0.075681135
105	0x3d4441e4	0.0479144
106	0xbdd0a540	-0.10187769
107	0x3e11d4ee	0.14241382
108	0xbcf00e6c	-0.029303752
109	0x3d82fb72	0.06395616
110	0xbdea65d6	-0.11445205
111	0xbe0e0bd3	-0.13871698
112	0x3d87e786	0.066359565
113	0x3d7afa24	0.06127371
114	0xbd94ce70	-0.07265937
115	0x3a30bd00	0.00067420304
116	0x3dcc536e	0.099768505
117	0x3deb2de0	0.11483359
118	0x3e0adc38	0.1356057
119	0xbd8582a6	-0.0651906
120	0xbd430cca	-0.04761962
121	0xbd566626	-0.05234351
122	0xbd0266ae	-0.031836204
123	0xbd01650e	-0.031590514
124	0x3e0d0efc	0.13775247
125	0xbc9e8c70	-0.019354075
126	0x3dcf6fa6	0.10128717
127	0xbe04a3bd	-0.12953086
128	0xbd6eb854	-0.058281258
129	0xbc7497d0	-0.014928773
130	0x3da1ee5c	0.079067916
131	0x3d5ecb88	0.05439332
132	0x3ccb50a0	0.024818718
133	0xbd51ae46	-0.05119159
134	0x3e0a9d70	0.1353662
135	0x3da96586	0.08271317
136	0x3b90d740	0.004420191
137	0x3de26790	0.11054909
138	0xbda432c1	-0.08017493
139	0x3de75dc4	0.11297181
140	0xbd6f763e	-0.058462374
141	0x3dc4317a	0.095797494
142	0x3b7b6600	0.0038360357
143	0xbdae2f30	-0.08505094
144	0xbdcc50ec	-0.09976372
145	0x3d0bfcf4	0.03417678
146	0x3ca70918	0.020390078
147	0x3d2bf414	0.041980818
148	0x3ce30150	0.027710587
149	0x3db578da	0.08860941
150	0xbddc7e23	-0.10766246
151	0x3d9e22b8	0.07721466
152	0xbcb19500	-0.021677494
153	0xbe0e07f4	-0.13870221
154	0xbde30164	-0.110842496
155	0xbd0f31d4	-0.03495963
156	0xbd85292d	-0.06501994
157	0xbdac22b1	-0.08405054
158	0xbc0930d0	-0.008373454
159	0x3e0b0e6e	0.13579723
160	0x3df1f16c	0.11813626
161	0xbc85c238	-0.016327962
162	0xbdb63873	-0.088974856
163	0xbd6a6346	-0.05722358
164	0xbd4e33ee	-0.050342493
165	0x3dd5d12e	0.104402885
166	0x3c8b1b70	0.016980857
167	0xbe0a6741	-0.1351595
168	0xbdeb1e17	-0.114803486
169	0x3cba87b0	0.022769779
170	0xbd392c96	-0.045208536
171	0x3dcc1092	0.09964098
172	0x3b4ffe80	0.0031737387
173	0xbd398ff6	-0.045303307
174	0xbe0410e9	-0.12897076
175	0xbdb157b4	-0.08659306
176	0x3d4be6cc	0.049780652
177	0xbdefafbb	-0.1170344
178	0x3bdaf6a0	0.006682232
179	0x3d7d14ec	0.06178753
180	0xbdbc18ff	-0.09184455
181	0xbe0bb86b	-0.13644569
182	0x3d32beb8	0.043638915
183	0x3de26354	0.110541016
184	0x3dee51f8	0.11636728
185	0xbd865c80	-0.06560612
186	0xbab36900	-0.0013687909
187	0xbd9a2afd	-0.075277306
188	0xbd6d820a	-0.057985343
189	0xbc6e9810	-0.014562622
190	0x3dd150d6	0.10220496
191	0xbd88f2d9	-0.066869445

Linear3.bias f4 [4]
0	0x3d2e58b8	0.042565078
1	0xbc979b78	-0.01850675
2	0x3e0cab48	0.13737214
3	0x3cfbffa0	0.03076154
