ModelPara/DDPG/Mario_targetPi_DDQN2021-10-08T10-41-22.pth (torch, 17375 bytes, 6 tensors)

Linear1.weight f4 [48, 24]
000000 ac 2a 3f 3e d5 e9 1f be 64 ce aa 3d 9e a2 4e 3e
       0.18668622 -0.15616544 0.08340147 0.20179221
000010 90 f8 7e 3d 40 9a 33 bd 82 c6 34 3e 34 af 13 3e
       0.062248766 -0.043848276 0.1765385 0.14422303
000020 a3 65 34 be 78 1b b7 3c 78 a6 b8 3d db 68 f6 bd
       -0.17616896 0.022351965 0.090161264 -0.12031718
000030 90 a5 40 be a0 9d d9 3c 88 a9 44 be 83 fb 27 be
       -0.18813157 0.02656442 -0.19205296 -0.16404538
000040 70 b8 1f bc 04 44 32 3e a0 0c 61 bc db 0e cc bd
       -0.009748563 0.17408758 -0.01373592 -0.09963771
000050 47 4f d2 bd 74 52 12 be 04 ec 20 3e 4b 6b 4d be
       -0.10269027 -0.14289266 0.15715033 -0.2006046
000060 54 88 43 be a0 7e ba 3d e6 e2 4c be c2 0d 32 3e
       -0.19094974 0.09106183 -0.2000843 0.1738806
000070 e0 aa 62 3d 41 08 1d be 16 07 42 be 64 cc 2d be
       0.05533874 -0.1533518 -0.18948016 -0.169725
000080 0c cf 37 3e 40 11 72 3b 98 ed 1b 3e 87 97 be bd
       0.17950076 0.0036936551 0.15227354 -0.09306245
000090 1c ff c1 3d f8 e6 c6 bc 50 a4 33 3e 20 e2 7b 3d
       0.094724864 -0.024280056 0.17543149 0.061494946
0000a0 89 bc e4 bd 8a 7c 4d 3e 18 81 86 bc 80 01 41 3e
       -0.11168773 0.20067039 -0.016418979 0.18848228
0000b0 cc 82 eb bd 00 b2 13 bb a0 bb 7c 3c 18 a5 89 3c
       -0.11499557 -0.0022536516 0.015425593 0.016802356
0000c0 40 a2 fa 3c 4c 9e 03 3e c0 a5 d1 3c 14 66 2e 3e
       0.030594945 0.12853354 0.025591731 0.17031127
0000d0 98 19 2b 3d 4a f1 19 3e 00 ea 2a bc 15 da f1 bd
       0.041772455 0.1503345 -0.0104317665 -0.11809174
0000e0 be b6 06 3e 70 52 2e be 0c a3 2d bd 88 f4 4b bd
       0.13155648 -0.17023635 -0.04239182 -0.04979375
0000f0 1d 08 19 be 54 aa e4 bd 80 48 ca 3a 50 bc 57 3c
       -0.14944501 -0.111653 0.0015432984 0.013167456
000100 8c ba 09 3d fa 99 8c bd 00 09 85 3d f0 4b cc 3d
       0.03362517 -0.06865306 0.06495857 0.099754214
000110 1c 45 1a be 96 3a 47 3e 9c 4f dd 3d 28 ef d8 3d
       -0.15065426 0.19455943 0.108062 0.105924904
000120 5d 08 39 be 3b a1 1a be 30 e8 de 3d 6c 61 ab 3d
       -0.18069597 -0.15100567 0.1088413 0.08368191
000130 04 02 cb 3d 54 45 2a bd 98 22 ed 3d b8 86 9d 3d
       0.09912494 -0.041570023 0.11578864 0.07691711
000140 83 89 2d be 34 8f 4b 3e ac f2 64 bd 68 95 79 bd
       -0.16946988 0.19878846 -0.055895492 -0.0609335
000150 44 78 5f bd 4c b1 71 bd 40 43 a4 bc c0 8e 98 3d
       -0.054558054 -0.059006974 -0.020051599 0.074491024
000160 76 06 d4 bd a8 02 97 bc 4f a3 36 be 88 f3 92 bc
       -0.10352795 -0.018433884 -0.17835735 -0.01793839
000170 fa 2b 15 3e 38 0d cf 3d 7d 0d 15 be 00 58 af 38
       0.14567557 0.10109943 -0.14555927 8.3610415e-05
000180 54 8f 21 be 70 12 cb 3d 6c 96 14 3e 04 98 3c 3e
       -0.15777332 0.09915626 0.14510506 0.18417364
000190 5c f0 0b 3e 10 2b 7d 3d 74 b0 cb 3d 50 65 26 bc
       0.13665909 0.061808646 0.09945765 -0.010155991
0001a0 6a 6a 9f bd 80 3b e6 ba b0 9f 41 3e 40 a1 b9 3d
       -0.07783969 -0.001756534 0.18908572 0.09063959
0001b0 50 82 78 3d 58 4d c6 3d 74 01 49 bd b2 de 14 be
       0.06067115 0.09682721 -0.04907365 -0.14538077
0001c0 80 74 39 bb 38 fb 61 3d 13 f5 1c be b8 c5 2c be
       -0.00282982 0.05517122 -0.15327863 -0.16872299
0001d0 8e c6 01 3e 90 49 b5 bc 90 82 45 3c b8 bb 8d 3d
       0.12673399 -0.022129804 0.012055054 0.0692057
0001e0 50 29 2a be c8 41 df bc 00 78 99 ba 2a 07 1d be
       -0.16617322 -0.027253047 -0.0011708736 -0.15334764
0001f0 68 28 ed bd 85 4e 11 be 11 d9 19 be 94 a0 cc 3d
       -0.115799725 -0.14190109 -0.1502421 0.09991565
000200 90 75 1d 3d 1c ed 8e 3d 70 a4 30 3e 70 e8 81 3d
       0.038442194 0.06978819 0.17250228 0.06343162
000210 40 7e 5b bd 54 70 cb 3d d6 00 10 be 78 44 32 3d
       -0.0535872 0.09933534 -0.14062819 0.04352233
000220 5e b0 4c be 90 77 48 bc 34 71 bf bd 0e d1 43 3e
       -0.19989154 -0.012235537 -0.09347764 0.19122717
000230 b8 ca aa bd 50 ec 84 3d 9e 92 3a 3e 8c 51 1f 3e
       -0.08339447 0.064903855 0.18219993 0.15558451
000240 71 41 e1 bd 00 98 99 39 00 ad 28 ba 90 1e d9 3d
       -0.1099881 0.00029295683 -0.00064344704 0.106015325
000250 88 32 3e 3d c6 0c 48 be 98 07 70 3d cc d3 f4 bd
       0.04643491 -0.19536123 0.058600992 -0.119544595
000260 98 fe 72 3d a0 ec e0 bc b4 2d 93 3d 24 dd 0a 3e
       0.05932483 -0.027456582 0.071864516 0.13560921
000270 00 2e 3d 3e 50 7f c6 3d 00 20 c7 3d b7 08 c4 bd
       0.18474579 0.09692252 0.097229004 -0.09571975
000280 ad 8c c5 bd 84 af 1e 3e d8 3c 29 3d 2e b0 4a be
       -0.096459724 0.15496641 0.04131779 -0.1979377
000290 30 13 ad 3c 6c c1 48 3e e4 8b 38 be c0 86 4f 3e
       0.021127313 0.19605035 -0.18022114 0.20266247
0002a0 ee cc 38 3e a0 10 b2 bb 86 73 fa bd 80 d9 23 3c
       0.18046924 -0.0054341108 -0.122290656 0.0100005865
0002b0 28 e2 df bd b0 39 3f 3e d4 72 8d 3d b8 80 85 bc
       -0.10931808 0.1867435 0.06906667 -0.01629673
0002c0 5a d2 04 3e 80 27 97 3c ee 2e ab bd 10 22 8a bd
       0.12970868 0.018451452 -0.083585605 -0.06744778
0002d0 18 8e a5 bc 44 a7 0d 3e 18 79 2d 3e b0 04 62 3d
       -0.020209357 0.13833338 0.16940725 0.05518025
0002e0 c4 85 f8 3d ea af d3 bd 9b 4e 43 be 84 87 d8 3d
       0.12134889 -0.10336287 -0.19072954 0.105727226
0002f0 41 c6 fb bd f4 4e 24 3e 1b 6a 3d be a0 78 7f 3d
       -0.12293673 0.16045743 -0.18497507 0.062370896
000300 00 68 32 3a 38 ba cd 3c e8 6b e6 3d 26 24 c6 bd
       0.00068056583 0.02511321 0.1125105 -0.096748635
000310 8f da 00 be 54 e7 22 3e f0 f6 78 bc da 56 0f be
       -0.12583373 0.15908557 -0.015195593 -0.13997975
000320 f0 d5 ea 3d 04 0e df 3d 43 41 ab bd c4 9e 36 bd
       0.114665866 0.10891345 -0.08362057 -0.044585004
000330 10 16 7c 3c 44 d2 21 3e ac a1 23 3e b8 c6 75 3d
       0.0153861195 0.15802866 0.15979642 0.060003966
000340 ac 69 41 3e 8d 84 50 be 46 10 34 be 36 6f 85 bd
       0.18887967 -0.20363064 -0.17584333 -0.065153524
000350 13 07 02 be 0c 75 75 bd 58 3b 47 3d 64 27 78 bd
       -0.12698011 -0.059926078 0.04864058 -0.06058444
000360 18 01 9b 3d 70 5f 46 3d ee 17 2b be 84 d9 b2 3d
       0.07568568 0.04843086 -0.16708347 0.08732894
000370 3c 71 ee 3d 58 ce 3e 3d 00 46 09 3c da 3e 83 bd
       0.116426915 0.046583503 0.008378506 -0.06408472
000380 08 9b b2 3d 48 8c 36 3d 08 9f be 3d 24 98 46 3e
       0.08720976 0.044567376 0.093076766 0.19393975
000390 f2 5d 4d 3e 0c 69 0e 3e 00 c3 30 bd 00 c3 8a bc
       0.20055369 0.1390726 -0.043154716 -0.016938686
0003a0 ac 5f 0a be 6a c8 3e be 40 65 f6 bb f4 e0 17 bd
       -0.13513058 -0.1863114 -0.007519394 -0.037079766
0003b0 18 5a e2 bc 3f ec 15 be 70 1d 3b be 70 cb 0d be
       -0.02763085 -0.14640902 -0.18272948 -0.13847136
0003c0 14 be 0b be a8 74 45 3d 9a e3 19 3e 70 73 30 3c
       -0.13646728 0.048206955 0.1502823 0.01076971
0003d0 40 16 27 3b 8a 63 00 3e e0 63 a4 3c 10 74 25 3d
       0.002549544 0.12537971 0.020067155 0.04039389
0003e0 98 bf 81 bc ac 17 01 3e c8 2c b6 3d a4 ff cb 3d
       -0.01583843 0.12606686 0.0889526 0.09960869
0003f0 a4 4d 0c bd c6 51 1d be 46 13 43 be 6e 4b 2a 3e
       -0.03425373 -0.15363225 -0.19050321 0.16630337

Linear1.bias f4 [48]
000000 1c 8b a9 bd 20 fa d5 bb f7 9b 06 be 91 76 ef bd
       -0.08278486 -0.0065300614 -0.13145433 -0.116925366
000010 2d 70 f8 bd bc 29 07 be 58 23 9f 3d 30 44 02 be
       -0.12130771 -0.13199514 0.07770413 -0.12721324
000020 f6 12 33 3e 94 55 ac 3d 10 b1 28 3e 20 a2 dd 3d
       0.17487702 0.0841476 0.16473794 0.108219385
000030 0c 3a df 3d 68 b9 ac 3d 9e cb 4c 3e 74 8f 19 3e
       0.108997434 0.08433801 0.19999549 0.1499613
000040 f5 3d ab bd 88 8e 90 3d 16 9d ff bd 80 72 3f 3b
       -0.08361427 0.07058436 -0.12481134 0.0029212534
000050 7c 21 86 bd 2a f7 bd bd be a8 af bd a8 e5 50 be
       -0.065493554 -0.092756584 -0.08577107 -0.20400107
000060 78 b5 f0 bc 58 f2 1d 3e 60 20 3d 3e 34 50 73 bd
       -0.029383406 0.15424478 0.18469381 -0.05940266
000070 c5 eb 42 be f0 6c 8d bd 28 55 43 3e a8 11 1d be
       -0.19035251 -0.06905544 0.19075453 -0.15338767
000080 a3 0c ef bd 98 4a 88 3d e8 fd 49 bd 4c ef 1d bd
       -0.11672332 0.06654853 -0.04931441 -0.03855829
000090 28 42 20 be 80 52 bb 3b bd e8 2e be 88 99 3c be
       -0.15650237 0.005716622 -0.1708097 -0.18417943
0000a0 88 06 72 3d 0b 1d 46 be 4a 82 0c 3e 08 e1 7a 3d
       0.05908826 -0.19347017 0.13721576 0.061249763
0000b0 b0 fd 0d 3e 74 62 0a 3e 96 1c 4f 3e e8 4c b2 3c
       0.13866305 0.1351412 0.20225748 0.021765187

Linear2.weight f4 [48, 48]
000000 be 62 b9 bd a8 17 e2 3d 20 6d 9e bc 6c d8 f3 3d
       -0.09052037 0.11039668 -0.019339144 0.119065136
000010 72 6a dd bd ec 24 00 3e 40 41 e0 3c 34 3f 0f 3e
       -0.108113185 0.12514085 0.027374864 0.13988954
000020 1a c8 c8 3d b6 2d 44 bd 14 ea e7 bc 18 30 b4 bd
       0.09803791 -0.047895156 -0.02830986 -0.08798236
000030 08 f4 f9 3d 00 74 3a 3a 1c 57 d2 3d 3c 62 e1 3d
       0.122047484 0.0007112622 0.10270521 0.11005065
000040 f8 e6 38 3d 00 b4 6e ba 50 7c e7 3d 72 02 28 bd
       0.045142144 -0.00091058016 0.113030076 -0.041017957
000050 90 10 6e 3c 67 0c 89 bd b2 ca 07 3e 58 c4 3a bd
       0.014530316 -0.06691819 0.13260916 -0.045597404
000060 3e 68 09 be 40 a8 f6 3d 94 0d 10 3e 88 6f b8 bc
       -0.13418671 0.1204381 0.1406768 -0.02251412
000070 f0 fe ba 3c 4c bd 42 3d 74 22 90 bd 00 1d f3 ba
       0.022826642 0.04754381 -0.070378214 -0.0018548071
000080 02 84 ca bd 9c ab 57 bd 04 5c 42 3d 74 aa b0 3d
       -0.0988846 -0.052653894 0.047451034 0.08626261
000090 10 b5 24 3d 1c 7b 32 3d 93 53 e7 bd 80 42 0b bc
       0.040211737 0.043574437 -0.112952374 -0.008499742
0000a0 8c 64 1c 3d 72 f1 bd 3d 67 2d bd bd 50 62 5f 3d
       0.038181826 0.09274568 -0.092371754 0.054537117
0000b0 60 8b d7 bd 18 80 b3 3d 58 ba 53 bd 0a 7b 53 bd
       -0.105246305 0.08764666 -0.051691383 -0.05163101
0000c0 00 59 0c be dc cc 56 bd e4 29 12 3e 9a 77 ca bd
       -0.13705826 -0.052441463 0.14273793 -0.098860934
0000d0 58 ad c4 3c c0 a3 6d 3c 1f 2a c1 bd 82 cc b8 3d
       0.024008438 0.014504373 -0.09431862 0.09023382
0000e0 10 36 35 3d 6a 63 31 bd 3a 4a 0a be fb 6d e9 bd
       0.04424101 -0.0433077 -0.13504878 -0.1139793
0000f0 ae 12 af bd 6e 01 c1 3d 20 c7 47 3d 7e e1 e4 bd
       -0.08548485 0.09424101 0.048773885 -0.11175822
000100 11 55 a3 bd 64 29 4b 3d 18 60 b6 3d 8e 3f 0c 3e
       -0.079752095 0.04960002 0.08905047 0.13696119
000110 f4 fb 9b 3d 00 71 60 bb 74 e6 3c 3d f0 29 f0 bd
       0.076164156 -0.003424704 0.046118215 -0.11726749
000120 d2 c4 4c bd 76 ad 06 3e 00 9b 9e 3c 84 f6 af 3d
       -0.04999239 0.13152108 0.01936102 0.08591941
000130 9a 86 93 3d aa c0 bc 3d 88 e2 f8 3d fa d9 03 3e
       0.072034076 0.09216435 0.121525824 0.1287612
000140 c0 15 b2 3d 50 33 b3 3c 98 da de 3d cc f8 f5 bd
       0.08695555 0.021875054 0.10881537 -0.12010345
000150 88 63 df 3c 10 7f 57 bc 22 8c 01 3e 30 c3 a6 3d
       0.02726914 -0.013152853 0.12651113 0.08142698
000160 f0 2e 24 bd 7c e5 db 3d 88 0b 43 3d 50 62 42 3d
       -0.040083826 0.1073713 0.04761842 0.04745704
000170 d0 d1 cc 3d ba a3 87 3d 22 4c 83 3d 48 c0 4f bd
       0.10000956 0.06623025 0.064110056 -0.050720483
000180 c0 4d 43 3b e8 74 a6 bd 74 9c 0a be 80 1d 14 3c
       0.0029800981 -0.08127767 -0.13536245 0.0090402365
000190 74 c5 d4 bc 70 e1 c7 3d 01 6a ee bd 1a b9 08 3e
       -0.02597306 0.09759796 -0.116413124 0.1335186
0001a0 ec 42 ff bc 7e d2 f5 bd e8 46 83 3c 98 b2 aa bd
       -0.03115984 -0.12003039 0.016025022 -0.08334845
0001b0 ae 48 f8 bd 78 9d 49 bd c0 06 1c bd 74 3d 00 3d
       -0.121232376 -0.04922244 -0.038092375 0.031308606
0001c0 76 c7 a9 3d 60 62 c3 3d 6c e2 ad bc bb db aa bd
       0.08289997 0.09540248 -0.02122613 -0.083426915
0001d0 80 b6 d0 3a ec c2 c1 bd 52 78 c7 3d f8 09 a4 bc
       0.001592353 -0.094610065 0.09739746 -0.020024285
0001e0 d0 1c 08 3c 7a 4e 0a 3e 90 b8 9a 3d 50 bb 77 3d
       0.008307651 0.13506499 0.07554734 0.06048137
0001f0 8a 56 a2 bd 5e b6 09 3e 0e 47 ed bd 61 28 0a be
       -0.07926662 0.13448474 -0.11585818 -0.13491966
000200 0e 68 34 bd ae 4d 70 bd e4 61 92 3d 02 72 c7 3d
       -0.044044547 -0.05866783 0.071475774 0.09738542
000210 8a 68 49 bd 88 f6 8e bc 7e 6b 0d 3e 54 1c 11 3d
       -0.04917196 -0.01745154 0.13810536 0.035427406
000220 14 59 ce bd e8 79 d8 3d 30 68 bb bc 94 99 ab bc
       -0.10075584 0.10570127 -0.022876829 -0.020947255
000230 9e d3 8a bd 80 d9 aa 3a f0 ad 2b 3d c8 5f e9 bd
       -0.06778644 0.0013034791 0.041913927 -0.11395222
000240 f8 d7 02 3d ec a7 e7 3d 30 da 9d bc e6 dd bc bd
       0.031944245 0.113113254 -0.019269079 -0.09222011
000250 f0 d9 00 3d a8 39 3d 3d 6a ae c6 3d 54 2d e2 3d
       0.03145784 0.046197563 0.097012356 0.11043802
000260 54 dc 12 bd 40 dc 52 bd e0 2a ac 3b 34 b2 8e bd
       -0.035854653 -0.051479578 0.0052541345 -0.06967583
000270 a0 32 d8 3c c0 d4 78 bb 60 15 de 3c d8 18 9d bc
       0.026391327 -0.0037968606 0.027109802 -0.019176885
000280 e0 4c 14 3d cc c4 04 3e c0 f7 a7 3c 04 9e d8 bd
       0.036206126 0.12965697 0.020503879 -0.10577014
000290 80 ad 8b 3d b1 03 0e be b0 fd 18 3d 4c 74 30 bd
       0.06820202 -0.13868596 0.03735131 -0.04307966
0002a0 70 f2 84 3d e4 9c 70 3d b4 c4 e3 bd 8c ac b5 3d
       0.06491554 0.058743373 -0.111215025 0.08870801
0002b0 88 5f 88 bd 9b e8 b8 bd 7a 61 8d 3d b8 27 8f bc
       -0.06658846 -0.09028741 0.06903358 -0.017474994
0002c0 c0 44 87 3b e4 cf 2e 3d d2 62 51 bd 40 e3 9b bc
       0.0041280687 0.04267873 -0.051119633 -0.01902926
0002d0 f0 b8 1f 3d ec f8 87 3d 84 f4 50 3d d2 1e 3c bd
       0.03899473 0.06639275 0.05101444 -0.04592783
0002e0 50 23 4c 3d 7e 41 15 bd 50 fa b2 3d 08 37 2f 3d
       0.049838364 -0.03643941 0.087391496 0.04277709
0002f0 8c fa a2 bc 26 62 09 3e 3c 8f bf 3d 06 f5 95 3d
       -0.01989486 0.13416347 0.09353492 0.07322125
000300 c6 14 08 bd e0 19 cd bd cc e6 11 3e d4 33 72 bd
       -0.033222936 -0.10014701 0.14248198 -0.05913146
000310 26 46 b7 3d 68 7a 09 3d 4a 29 bb 3d 88 ed 8a 3d
       0.08948927 0.033564 0.09138735 0.06783587
000320 32 54 c9 bd 7c 7b ee 3d 1e 84 a6 3d 4c 85 da 3d
       -0.09830512 0.116446465 0.08130668 0.106699556
000330 18 8f 1f 3d e8 86 10 3e d8 0b 39 3d d8 b4 68 bd
       0.038954824 0.14113963 0.04517731 -0.05681309
000340 d4 31 b8 bd a8 8c f9 3d 94 da d0 3d 38 fc 4e 3d
       -0.08993879 0.12185031 0.101979405 0.050533503
000350 74 c5 0d be 84 66 df 3d 4a 39 9e 3d b8 0c cc 3d
       -0.13844854 0.10908225 0.07725771 0.099633634
000360 54 f9 58 3d 88 11 0b bd d6 bc 0e be 0a da 80 3d
       0.052972153 -0.033952266 -0.13939223 0.06291588
000370 00 4f d8 3a 9f 2e 80 bd 00 73 d1 ba c6 61 80 3d
       0.0016503036 -0.06258892 -0.0015979707 0.06268649
000380 1e 0c 58 bd 5c ee 67 bd fc c5 fa bd 68 32 ec 3d
       -0.05274593 -0.0566238 -0.12244794 0.11533052
000390 a0 87 2a 3c 00 eb b3 3d dc af bc bc 00 31 19 3d
       0.010408312 0.08785057 -0.023033075 0.037400246
0003a0 ac 3b a0 bd 74 8a d8 3d 82 ae 53 bd 2c 7a 02 3e
       -0.078238815 0.10573283 -0.051680095 0.12741917
0003b0 04 9f a7 3d a8 f7 be bd 70 73 2a bc 80 16 f1 ba
       0.08184627 -0.093245804 -0.010403499 -0.0018393546
0003c0 e0 3b ad 3c 4c 8c d0 3d 1a 62 a1 bd 20 43 1b bc
       0.021146715 0.101830095 -0.078800395 -0.009476453
0003d0 ea d6 dd bd 88 0b 3c 3d 89 05 c5 bd 04 db fc bd
       -0.10832007 0.045909435 -0.09620196 -0.123464614
0003e0 e4 f2 12 3e ce 28 57 bd 54 fa 53 3d 80 7f 64 bb
       0.14350468 -0.05252915 0.051752403 -0.0034866035
0003f0 65 fa 85 bd 4c 48 11 3e 8c 33 4e bd 10 45 66 bc
       -0.065418996 0.14187735 -0.050342128 -0.014054552

Linear2.bias f4 [48]
000000 5f 50 0e be 5e 45 9f bd a0 9b d8 3b ca 6a 88 3d
       -0.13897847 -0.077769026 0.006610349 0.066609934
000010 6c fd 63 bd 0a 2e 08 3e 38 88 b1 bd 28 cc fe 3d
       -0.055661604 0.13298813 -0.0866856 0.124412835
000020 00 26 be 3c 0b 01 0c be 10 fa 03 3e 00 39 92 ba
       0.02321148 -0.13672273 0.1288836 -0.0011155903
000030 00 e3 5a 3c ee 64 cd bd 06 6f 82 3d 94 04 8f bd
       0.013359785 -0.100290164 0.06368832 -0.06983295
000040 76 06 32 bd 81 8c 0b be 48 3b ee 3c 22 7a bc 3d
       -0.043463193 -0.13627817 0.029081002 0.092029825
000050 38 fe e7 bc 08 9a bc 3d 78 cd c2 bd 82 35 0c bd
       -0.028319463 0.09209067 -0.09511846 -0.034230717
000060 09 8a 91 bd 94 f8 ea 3d c0 73 ae bb 65 97 0a be
       -0.07106406 0.11473194 -0.005323857 -0.13534315
000070 64 6d f6 3d 78 4a 96 3d f0 00 fb bd fe fa a5 3d
       0.12032583 0.073384225 -0.12256038 0.081045136
000080 fa 26 02 3e 7c ed f2 3d 0c e8 c2 3d c1 49 a2 bd
       0.12710181 0.11861703 0.09516916 -0.07924224
000090 d0 53 a0 bd 20 3f 61 bc 32 f2 28 bd 7b 8d 9c bd
       -0.07828486 -0.01374796 -0.0412466 -0.07644173
0000a0 96 97 cc 3d ba a3 db bd 9a e6 91 bd c4 b3 c8 bc
       0.0998985 -0.10724588 -0.07124062 -0.024499781
0000b0 88 97 07 3d b0 c4 cd 3c ca 11 0e 3e 90 93 68 3c
       0.033103496 0.025118202 0.13873973 0.014195338

Linear3.weight f4 [4, 48]
000000 04 1e 18 3d 48 43 e0 bc 6b ca 9c bd 7c c2 a4 bd
       0.037138 -0.027375832 -0.07655796 -0.080449075
000010 90 4d 10 bc b8 f4 60 3d a9 ac 94 bd 42 96 d1 bd
       -0.008807555 0.054920882 -0.07259495 -0.102337375
000020 90 7c f3 3d 38 b9 e4 3d 86 74 05 3e a0 67 e7 3d
       0.11888993 0.1116814 0.13032731 0.11299062
000030 2c 90 59 3d 9a e2 8b bd 38 59 de 3d d8 e5 ea 3d
       0.05311601 -0.0683033 0.10856861 0.114696205
000040 88 68 b9 bd aa 98 80 bd a0 e9 c7 bb af 2a b7 bd
       -0.09053141 -0.06279118 -0.0061008483 -0.08943688
000050 44 71 07 be c0 cf 30 3c ca 8d 8f 3d 20 a8 14 3c
       -0.13226801 0.010791719 0.07009466 0.009073287
000060 44 73 30 3d ec bc cf bd f4 b3 cb bd 60 76 91 3b
       0.043078676 -0.10143456 -0.09946433 0.00443916
000070 7e 23 91 bd 20 e4 82 bc f0 dd 8a bc 64 20 c5 bd
       -0.07086848 -0.01597792 -0.016951531 -0.09625319
000080 70 2e 43 bd 2c c0 c8 bd 1c 4b 94 3d 02 89 cf 3d
       -0.047651708 -0.09802279 0.072408885 0.10133554
000090 3c 13 66 3d 98 27 8b bd 4c 8c 03 bd ba 31 84 bd
       0.056170687 -0.06794661 -0.03211622 -0.06454797
0000a0 72 20 0b bd 52 7c 84 3d 38 6f a2 bc ca e2 2a bd
       -0.03396649 0.06469025 -0.019828424 -0.04172019
0000b0 f4 ba d9 3d c0 f5 df bd 28 59 9a 3d 3c 1f f0 3d
       0.106313616 -0.10935545 0.075365365 0.117247075
0000c0 fa 46 ef bd 82 7f f8 bd 3e 60 04 bd 00 c1 70 3b
       -0.116834596 -0.12133695 -0.032318346 0.003673613
0000d0 00 7b 3f ba 98 1f e7 3d 00 8f a5 bc b8 d4 c2 3c
       -0.00073044 0.11285323 -0.02020979 0.023783073
0000e0 ba 80 46 bd 20 78 c8 3b c0 50 bd bd da de 59 bd
       -0.048462607 0.0061178356 -0.092439175 -0.053191043
0000f0 6c 7d 8f 3d ba 60 c0 bd fa 01 3a bd f2 4c 71 bd
       0.07006344 -0.09393449 -0.04541204 -0.05891127
000100 8c 87 bb bd 74 e5 9d 3d 54 d8 cb 3d 26 f8 9c 3d
       -0.09156713 0.0770978 0.09953371 0.07664518
000110 78 0a a8 bd b0 af a5 3d 90 31 40 bc fe 51 b1 bd
       -0.08205122 0.0809015 -0.011730567 -0.08658217
000120 52 bb 02 be 30 bd bb 3d 1c d3 1d 3d aa b7 40 bd
       -0.1276677 0.09166944 0.038531408 -0.047050156
000130 c0 03 fe bc 50 4b 4f bd 9c be 8d 3d 0f e0 99 bd
       -0.031007648 -0.050608933 0.069211215 -0.07513439
000140 12 22 d4 bd 88 7a 78 3d 16 47 07 3e 10 f2 45 3c
       -0.10358061 0.06066373 0.13210711 0.012081638
000150 68 57 10 be 30 a6 85 3d 24 49 c4 bc 40 99 f7 bb
       -0.14095843 0.065258384 -0.023960657 -0.0075561106
000160 30 d8 2c bc b4 f4 b5 3d d8 e1 f0 bc a0 a2 89 bc
       -0.01054959 0.08884564 -0.029404566 -0.016801178
000170 88 66 fe 3d 76 aa c3 3d 0e 35 2c bd 40 9b 82 3d
       0.124219 0.09553997 -0.042042784 0.06377268
000180 00 d6 7c bd b8 92 94 3d a5 cb 06 be e8 13 d3 bc
       -0.061727524 0.07254547 -0.13163622 -0.025766328
000190 60 ec ad 3c 3c 3c 9c 3d b7 0b ed bd f2 fb 12 3e
       0.021230876 0.07628676 -0.115745 0.14353922
0001a0 e8 4a a4 3c 34 65 3b bd 50 ea 01 3c 38 6f d8 3c
       0.02005525 -0.04575081 0.0079294 0.02642022
0001b0 64 f3 03 3e e0 8b d3 3b 08 21 eb bd 6e 9d 04 be
       0.12885815 0.0064558834 -0.114809096 -0.1295068
0001c0 1a 63 0d 3e 3c 0f 92 3d 04 fb 8f bd 80 19 41 3c
       0.13807335 0.07131812 -0.07030299 0.011785865
0001d0 96 cd 0f bd 02 d1 0c 3e 52 ce b0 bd 1c 8c b4 bd
       -0.03510817 0.13751605 -0.086331025 -0.08815786
0001e0 40 8e 7a 3d c6 ba 09 3e c8 72 8f 3d 50 97 b5 3d
       0.061170816 0.13450155 0.07004315 0.08866751
0001f0 f0 81 fc 3c db 40 99 bd 9f 8a 90 bd 58 7d b4 bc
       0.030823678 -0.07483073 -0.0705769 -0.022032425
000200 ca 5d df bd 40 80 b9 3c 1c a1 18 3d c0 5a 76 3d
       -0.10906561 0.022644162 0.03726302 0.06014514
000210 c0 6c bc bd 3a 2e ce bd 66 bb 46 bd f6 f7 c4 bd
       -0.0920043 -0.10067411 -0.04851856 -0.09617607
000220 30 5d 04 3e 74 a9 fa bc e4 03 3b 3d 48 77 63 3d
       0.12926173 -0.03059838 0.045658007 0.055533677
000230 18 7a 03 3e 70 83 fa bd c0 f6 56 bb 50 f9 2f bc
       0.12839544 -0.12232101 -0.0032800883 -0.010740593
000240 32 5b e3 bd a8 11 b3 3d 70 27 28 3d b4 af d6 bd
       -0.111013785 0.08743602 0.041053236 -0.104827315
000250 48 c8 fd 3d 89 f8 93 bd 6e d8 15 bd e0 8b bd 3c
       0.12391716 -0.07225139 -0.036583357 0.023137987
000260 00 ec 14 39 04 97 1a 3d f0 37 8b 3d c0 b0 5c 3d
       0.00014202297 0.037741676 0.067977786 0.0538795
000270 98 c0 30 3d 7b 35 84 bd d8 24 e3 bd da f0 d7 3d
       0.04315242 -0.06455513 -0.11091012 0.10543986
000280 2c 54 02 3e ae 14 68 bd 44 d1 5d 3d 12 56 01 3e
       0.12727422 -0.056660347 0.05415465 0.1263049
000290 66 2e d2 bd aa a7 14 bd 50 ba 0c bd 98 45 0d 3e
       -0.10262756 -0.03629271 -0.03435737 0.13796079
0002a0 b8 ef 8d 3d 18 e5 b2 bd 60 32 f2 3d 6d a0 10 be
       0.06930488 -0.087351024 0.118260145 -0.14123698
0002b0 f2 b1 da bd b9 02 ee bd 0d 98 f0 bd 68 5e ff bd
       -0.106784716 -0.11621613 -0.117477514 -0.124691784
0002c0 0c 98 ae bc 11 de 92 bd f2 36 d1 bd 50 25 12 3e
       -0.021312736 -0.07171262 -0.10215558 0.14272046
0002d0 10 fd c1 3d a0 c8 98 bb 7c 68 64 3d c2 b3 90 3d
       0.09472096 -0.0046625882 0.055763707 0.07065536
0002e0 f8 e8 d3 3d 90 83 1f bc 50 a7 ee 3d 84 07 f5 bd
       0.1034717 -0.009735957 0.11653006 -0.11964324
0002f0 ee 21 d7 3d 0b 14 10 be e2 ca 79 bd fc ea 1f bd
       0.105045184 -0.14070146 -0.0609845 -0.039042458

Linear3.bias f4 [4]
000000 20 44 b5 bc a0 ee 1d 3c b8 04 af bc e6 4b 0d 3e
       -0.022127211 0.009639412 -0.021364555 0.13798484
