ModelPara/DDPG/Mario_localQ_DDPG2021-10-08T12-52-08.pth (torch, 11935 bytes, 5 tensors)

Linear1.weight f4 [48, 24]
-0.09730927 -0.8321782 0.4441809 -0.4090779 0.45689648 -0.47591537 0.15013398 -0.074798025
-0.25602 0.479761 -0.21752948 0.31823528 0.5325548 0.018481532 0.2191177 0.07195077
0.16072096 0.33431864 0.09304387 0.04487667 0.19975387 0.32136434 0.008920047 -0.077887475
-0.09997844 2.149785 -2.15554 -1.5133783 -0.11100576 -0.013326077 -0.114345446 -0.08375925
-0.23017663 0.124638006 -0.14787892 -0.2348623 -0.07929145 -0.038153786 -0.100333825 -0.066305175
0.0019070496 -0.10946748 -0.16445853 -0.012748147 0.008035704 0.15481079 -0.105149254 0.026429683
0.5254213 1.5275054 -1.0228139 -0.87726074 0.42635536 0.17225195 0.28725198 0.009131906
-0.0685912 0.5258782 -0.012582888 -0.07275057 -0.10140005 0.03591477 0.021349402 0.12765999
-0.23877908 -0.1495075 -0.18644038 0.09465866 -0.077571794 -0.068574965 -0.37169123 0.040492978
-0.9130458 1.6174002 0.048409935 -1.6961508 0.119648784 0.14978385 -0.23007883 -0.29838705
-0.0070415963 0.17522092 -0.06909721 -0.010838441 -0.6224474 0.12358302 -0.24603617 -0.19463015
-0.2822346 -0.12088763 0.0633731 0.041128818 -0.13009487 -0.21044959 0.04420228 -0.29574552
-0.71401376 -2.9104743 1.0352584 -1.0865055 0.00033322634 0.13481462 0.013416739 -0.04237306
0.06019123 -0.58549464 -0.15009065 -0.08346081 -0.006949599 0.014237198 0.11969849 -0.18476261
-0.04772575 -0.08984264 0.041872483 0.10265012 -0.0029190828 0.06513364 -0.034164086 -0.09626584
0.61489606 2.0189323 0.3457311 -0.34737718 -0.0075240033 0.5078786 -0.54839855 -0.17527072
-0.12988472 0.2467895 0.3510175 0.46547097 0.91319764 0.18533972 -0.09068704 -0.08449709
-0.063396335 0.12909746 -0.030664999 -0.23278959 0.14190172 -0.03282477 -0.17815535 -0.059066236
0.15085876 -0.14494449 -0.00816589 -0.16511025 -0.037080646 0.05946184 0.064293735 -0.1044077
-0.19365047 -0.06491213 0.0071526803 0.103658915 0.028375842 0.071309954 -0.078161515 0.015540203
-0.038831532 -0.0101934755 0.06342872 -0.07380589 -0.16382577 -0.065388225 0.1747975 -0.1445943
0.021225609 0.27969655 0.6220118 -1.4104228 -0.17799032 -0.12432525 -0.08769036 -0.23957236
-0.044878047 0.26403117 -0.075675905 0.17608677 0.25206125 -0.2316746 0.22147463 0.044620678
0.08338954 0.07470715 0.21557814 0.038896624 0.076161906 0.06321747 -0.15506917 0.20981577
-0.7865627 -2.878236 0.45376495 -0.43611982 -0.21394797 -0.18109787 -0.19741349 -0.18708883
-0.17191495 -0.32035527 -0.065937676 -0.2052713 -0.20837824 0.0943777 0.16566832 0.24311669
0.0024229821 0.1881574 0.036205843 0.3106636 0.19061887 -0.018667584 0.10123958 -0.17948799
0.518968 -0.94445723 -0.5433735 -0.6535129 0.06819909 -0.42507115 0.1787753 0.58916324
0.0020358856 0.07980071 0.04232493 0.1952407 0.01736422 -0.6148336 0.084472775 0.10453642
0.0333623 -0.058609627 -0.078078285 0.27649316 -0.08218772 0.2746486 0.07402007 -0.08773666
0.84021205 2.1494033 -1.2049459 -1.0278181 -0.2021765 0.09229056 -0.23015516 0.109738916
0.01890166 0.64697117 0.18697761 0.027161365 -0.064606205 0.011895711 -0.06675038 -0.12069882
00000000: 154a c7bd a109 55bf ae6b e33e a972 d1be
00000010: 56ee e93e 2eab f3be b9bc 193e b52f 99bd
00000020: 0e15 83be 3ca3 f53e 0cc0 5ebe bcef a23e
00000030: 8355 083f 9566 973c 6460 603e ed5a 933d
00000040: 0994 243e d02b ab3e c98d be3d 99d0 373d
00000050: 478c 4c3e de89 a43e 6425 123c 7883 9fbd
00000060: 7fc1 ccbd 1496 0940 5ef4 09c0 61b6 c1bf
00000070: fd56 e3bd 9e55 5abc f22d eabd f889 abbd
00000080: 6cb3 6bbe 3642 ff3d 926d 17be be7f 70be
00000090: 8e63 a2bd 2547 1cbd d27b cdbd 02cb 87bd
000000a0: f7f5 f93a 7c30 e0bd d167 28be 9bdd 50bc
000000b0: 2fa8 033c b886 1e3e 7e58 d7bd 1083 d83c
000000c0: 0382 063f 4c85 c33f 91eb 82bf 2994 60bf
000000d0: 404b da3e d162 303e b112 933e fd9d 153c
000000e0: 8b79 8cbd f49f 063f 7528 4ebc 40fe 94bd
000000f0: d4aa cfbd 5e1b 133d f1e4 ae3c 4db9 023e
00000100: 8182 74be 7e18 19be 3aea 3ebe 66dc c13d
00000110: f6dd 9ebd 0871 8cbd 504e bebe f7db 253d
00000120: 5fbd 69bf f806 cf3f 7f49 463d 781b d9bf
00000130: 6c0a f53d f060 193e c999 6bbe 30c6 98be
00000140: 31bd e6bb 1d6d 333e d782 8dbd b793 31bc
00000150: b658 1fbf 1819 fd3d e8f0 7bbe 204d 47be
00000160: 0e81 90be ef93 f7bd c1c9 813d b176 283d
00000170: 9737 05be 1980 57be 730d 353d f56b 97be
00000180: 9bc9 36bf 3645 3ac0 5983 843f 9d12 8bbf
00000190: e2b4 ae39 d80c 0a3e e2d1 5b3c 608f 2dbd
000001a0: 148b 763d fae2 15bf 5db1 19be 80ed aabd
000001b0: 76b9 e3bb 2343 693c 7b24 f53d 6932 3dbe
000001c0: 137c 43bd 6bff b7bd 7b82 2b3d 3a3a d23d
000001d0: 154e 3fbb c964 853d a4ef 0bbd 0627 c5bd
000001e0: d469 1d3f 3036 0140 ab03 b13e 6cdb b1be
000001f0: ea8b f6bb 5504 023f d963 0cbf 2b7a 33be
00000200: 8000 05be 63b6 7c3e 91b8 b33e 3652 ee3e
00000210: 52c7 693f b2c9 3d3e 20ba b9bd cf0c adbd
00000220: f0d5 81bd 2032 043e 2a35 fbbc 6560 6ebe
00000230: af4e 113e 4473 06bd 5b6e 36be 70ef 71bd
00000240: b87a 1a3e 546c 14be 3aca 05bc a912 29be
00000250: e0e1 17bd 428e 733d 6fac 833d b4d3 d5bd
00000260: 4f4c 46be a7f0 84bd 0861 ea3b 204b d43d
00000270: 7474 e83c f40a 923d 2513 a0bd 569c 7e3c
00000280: d00d 1fbd 8902 27bc ebe6 813d 8b27 97bd
00000290: f1c1 27be 43ea 85bd 1efe 323e 8710 14be
000002a0: 54e1 ad3c 6334 8f3e 2a3c 1f3f bc88 b4bf
000002b0: 1843 36be 3d9e febd 0197 b3bd 7552 75be
000002c0: 0bd2 37bd 182f 873e f8fb 9abd 1750 343e
000002d0: 2c0e 813e 1b3c 6dbe 3fca 623e 2cc4 363d
000002e0: 23c8 aa3d 1000 993d 84c0 5c3e 1152 1f3d
000002f0: c6fa 9b3d 2978 813d 74ca 1ebe f2d9 563e
00000300: 2c5c 49bf 0535 38c0 e153 e83e 194b dfbe
00000310: 2d15 5bbe b871 39be c326 4abe 3794 3fbe
00000320: 790a 30be 9b05 a4be 550a 87bd a432 52be
00000330: 1b61 55be 1849 c13d f5a4 293e 95f3 783e
00000340: e5ca 1e3b 55ac 403e 944c 143d 4d0f 9f3e
00000350: 9831 433e c3ec 98bc b256 cf3d b3cb 37be
00000360: 16db 043f f3c7 71bf 871a 0bbf 9f4c 27bf
00000370: f7ab 8b3d eda2 d9be df10 373e 67d3 163f
00000380: 7e6c 053b 8e6e a33d e85c 2d3d 2eed 473e
00000390: 693f 8e3c bc65 1dbf 1000 ad3d 3117 d63d
000003a0: e8a6 083d a610 70bd 82e7 9fbd 8390 8d3e
000003b0: 0952 a8bd be9e 8c3e d697 973d 47af b3bd
000003c0: 2318 573f d38f 0940 ab3b 9abf 8b8f 83bf
000003d0: 5b07 4fbe d502 bd3d cbad 6bbe ccbe e03d
000003e0: a7d7 9a3c e79f 253f 0f77 3f3e 8381 de3c
000003f0: 4250 84bd 3ae6 423c 6cb4 88bd f130 f7bd

Linear1.bias f4 [48]
0.0175407 0.07959873 -0.16252188 0.09379973 0.05999071 -0.37399712 -0.16755255 0.139263
0.24149339 0.045091428 -0.061650988 0.15969118 -0.004702594 -0.36529452 -0.28476647 0.15619452
0.1701431 -0.16721806 0.034659743 -0.12632398 0.17704017 0.16410431 -0.079459205 0.005580111
0.42950502 -0.31898537 0.04993055 0.039790634 0.35636637 -0.26554975 -0.12882833 0.16124241
0.07091316 -0.0051773763 -0.034672152 0.7423593 -0.2046985 0.40337542 0.16615735 0.03393316
-0.1267684 0.24831046 0.23343462 0.103562675 0.14929205 -0.3680034 0.2172066 0.35671797
00000000: 84b1 8f3c a904 a33d 236c 26be 131a c03d
00000010: d2b8 753d 8d7c bfbe e592 2bbe f69a 0e3e
00000020: 0b4a 773e cab1 383d bf85 7cbd 1686 233e
00000030: 3818 9abb e207 bbbe e9cc 91be 75f1 1f3e
00000040: fe39 2e3e 363b 2bbe 60f7 0d3d 135b 01be
00000050: 054a 353e f60a 283e 82bb a2bd 5dd9 b63b
00000060: 15e8 db3e 0d52 a3be fa83 4c3d 81fb 223d
00000070: a775 b63e 23f6 87be 93eb 03be bb1c 253e
00000080: eb3a 913d fba6 a9bb 6304 0ebd 420b 3e3f
00000090: 7c9c 51be 3987 ce3e 2725 2a3e 7ffd 0a3d
000000a0: 93cf 01be 1945 7e3e 7c09 6f3e ab18 d43d
000000b0: 04e0 183e f16a bcbe 686b 5e3e bda3 b63e

Linear2.weight f4 [24, 48]
-0.0733462 0.01874484 -0.029032612 0.070561916 0.06468936 0.049566712 -0.013948012 -0.10414842
-0.038285777 0.00018912488 -0.021860864 -0.05906919 -0.06914853 -0.030203845 0.117517754 -0.056389958
-0.0070142397 -0.06690888 -0.09201811 -0.12914626 -0.09818496 -0.12964843 0.09554 -0.0075945
-0.09245993 -0.09615319 -0.065956704 0.035180002 -0.007106301 -0.023842718 -0.08759098 0.049152456
-0.00046050598 0.056096405 0.020220615 -0.06514533 0.089368686 -0.07191345 -0.032634877 -0.027580122
-0.056890637 -0.13898252 -0.07244095 -0.06324991 0.088256314 -0.107385695 -0.04926496 -0.08746655
0.34674057 0.6805033 0.35218474 -0.93554497 1.0187039 0.24079949 -0.112344064 0.31702498
1.0820653 0.3359678 0.959842 -0.068938084 -1.1108955 -0.8989966 0.4162838 -0.82006055
0.65319604 -0.044855934 0.4939022 0.0360588 -0.08060612 0.52735144 0.13129508 0.2385856
0.041438 0.24506046 0.65322214 0.2887922 0.64386225 0.66292804 0.6615016 0.07458204
0.17180225 0.43083876 0.5681615 0.17979902 0.67340684 0.947119 -0.35951743 -0.87822
0.34429696 -1.50033 -0.5037038 0.7559431 0.46775323 0.29459313 0.96101546 0.28360224
0.25237152 0.61308235 0.3621759 -0.809894 0.988341 0.35008886 -0.12878565 0.4066084
1.0338175 0.21421447 0.7525926 -0.06525365 -1.2243448 -1.0921289 0.5685973 -0.82017756
0.5992322 -0.1287089 0.41369435 -0.1290807 -0.008432072 0.5693224 0.08645815 0.2807758
0.13134797 0.15895647 0.48949054 0.13871351 0.38896617 0.638991 0.42646798 0.25560105
0.06620468 0.46858323 0.35797802 0.023586076 0.6145666 0.85909474 -0.24069954 -0.79448426
0.37369326 -1.4417433 -0.37213367 0.75463617 0.2637943 0.40609646 1.0129977 0.40957502
0.31914276 0.49772134 0.45578006 -1.0096855 0.87443364 0.31350017 -0.034493055 0.37463757
1.0655816 0.19223478 1.021648 -0.091384485 -1.2619786 -0.95473665 0.3956029 -0.80186164
0.6899145 0.016252924 0.63481575 0.09256573 -0.028988142 0.71264684 0.26953527 0.3049111
0.1584905 0.21523793 0.44625235 0.23601902 0.57992935 0.75742966 0.5707877 0.22575508
0.1525387 0.3922175 0.46966103 0.21388753 0.67342865 0.8715546 -0.3023111 -0.85912406
0.4226876 -1.4843594 -0.35400665 0.85771126 0.45816305 0.40575162 0.8703966 0.57875663
0.36958683 0.31559378 0.33836108 -1.0397005 0.97179526 0.351984 0.0285215 0.4152698
0.7900192 0.17487037 0.902662 -0.072947435 -1.3103701 -0.97492546 0.6059835 -0.88554496
0.46647704 -0.12661077 0.51074886 0.06634636 -0.19432858 0.5450653 0.13527277 0.29551446
0.15456495 0.31847292 0.49942377 0.23498578 0.45388466 0.69914305 0.51615626 0.21956518
-0.08584788 0.40909687 0.60937035 0.20949312 0.49807245 0.9632396 -0.3760494 -0.78795725
0.36178127 -1.452233 -0.56216055 0.69777805 0.3274511 0.4003853 1.0176926 0.27163723
0.7225472 2.0615764 -0.59331316 0.18130851 0.9701834 -0.9585781 0.097273014 -0.22877383
1.0851688 0.022727143 -0.8665683 -0.033719014 -0.5545954 -0.004254615 -3.2342157 -1.5278553
00000000: 8836 96bd c78e 993c cdd5 edbc c482 903d
00000010: db7b 843d 7706 4b3d 3486 64bc c44b d5bd
00000020: 8cd1 1cbd d34f 4639 8e15 b3bc 89f2 71bd
00000030: bf9d 8dbd 0e6e f7bc 26ad f03d 28f9 66bd
00000040: b5d7 e5bb 8607 89bd fe73 bcbd eb3e 04be
00000050: 3215 c9bd 8fc2 04be 7aaa c33d 49db f8bb
00000060: a25b bdbd f7eb c4bd 4f14 87bd e818 103d
00000070: f9db e8bb ce51 c3bc e662 b3bd 1654 493d
00000080: 1170 f1b9 58c5 653d b4a5 a53c ea6a 85bd
00000090: ee06 b73d 5c47 93bd 26ac 05bd b5ef e1bc
000000a0: 2806 69bd 6f51 0ebe ec5b 94bd 2b89 81bd
000000b0: babf b43d 08ed dbbd 0eca 49bd aa21 b3bd
000000c0: fb87 b13e 7735 2e3f 8f51 b43e e07f 6fbf
000000d0: e464 823f 2494 763e a514 e6bd 1951 a23e
000000e0: 1e81 8a3f f903 ac3e 35b8 753f 692f 8dbd
000000f0: d331 8ebf a424 66bf 2623 d53e 7def 51bf
00000100: db37 273f dbba 37bd c0e0 fc3e 64b2 133d
00000110: d214 a5bd 8100 073f 3872 063e c94f 743e
00000120: e4ba 293d 21f1 7a3e 9139 273f 92dc 933e
00000130: 28d4 243f a7b5 293f 2b58 293f 78be 983d
00000140: eeec 2f3e e696 dc3e 0873 113f 3c1d 383e
00000150: 6464 2c3f 6476 723f ab12 b8be 07d3 60bf
00000160: b147 b03e d00a c0bf bbf2 00bf 7d85 413f
00000170: 5a7d ef3e e9d4 963e 1c05 763f 5034 913e
00000180: d736 813e f7f2 1c3f 1f6f b93e 3755 4fbf
00000190: ea03 7d3f d93e b33e 63e0 03be fa2e d03e
000001a0: 2254 843f 0a5b 5b3e e9a9 403f b5a3 85bd
000001b0: 55b7 9cbf e1ca 8bbf 988f 113f 28f7 51bf
000001c0: 4867 193f 44cc 03be bfcf d33e bb2d 04be
000001d0: ac26 0abc 1dbf 113f f810 b13d d8c1 8f3e
000001e0: 1580 063e 7cc5 223e 819e fa3e ea0a 0e3e
000001f0: 9326 c73e ea94 233f 035a da3e 24de 823e
00000200: 5296 873d 24ea ef3e e548 b73e 9637 c13c
00000210: 3d54 1d3f a2ed 5b3f f179 76be 5263 4bbf
00000220: b954 bf3e 0b8b b8bf 4e88 bebe d62f 413f
00000230: 0c10 873e e0eb cf3e e9a9 813f d1b3 d13e
00000240: ae66 a33e 55d5 fe3e 015c e93e 603d 81bf
00000250: e2da 5f3f 1883 a03e 9748 0dbd 7fd0 bf3e
00000260: fa64 883f 32d9 443e 5dc5 823f ca27 bbbd
00000270: 8488 a1bf 9f69 74bf 778c ca3e ce46 4dbf
00000280: 3d9e 303f da24 853c 4983 223f 1a93 bd3d
00000290: 8a78 edbc 0670 363f 8700 8a3e 4f1d 9c3e
000002a0: 554b 223e 5567 5c3e 307b e43e f8ae 713e
000002b0: 4076 143f e9e6 413f 251f 123f 572c 673e
000002c0: 1b33 1c3e bbd0 c83e 6977 f03e 5505 5b3e
000002d0: d265 2c3f 341e 5f3f 85c8 9abe 8eef 5bbf
000002e0: 826a d83e 7dff bdbf 5c40 b5be f792 5b3f
000002f0: 5994 ea3e adbe cf3e 50d2 5e3f 6529 143f
00000300: 7c3a bd3e 8295 a13e aa3d ad3e e814 85bf
00000310: 93c7 783f 3f37 b43e eca5 e93c 3e9e d43e
00000320: b33e 4a3f 3811 333e db14 673f 7765 95bd
00000330: 35ba a7bf b794 79bf bc21 1b3f 13b3 62bf
00000340: 14d6 ee3e 41a6 01be 70c0 023f 9ae0 873d
00000350: 12fe 46be 6689 0b3f f284 0a3e ac4d 973e
00000360: 4646 1e3e e20e a33e 79b4 ff3e 1da0 703e
00000370: 9263 e83e 0afb 323f d122 043f b2d5 603e
00000380: 03d1 afbd 2575 d13e b2ff 1b3f 5d85 563e
00000390: 5a03 ff3e df96 763f 8c89 c0be 91b7 49bf
000003a0: 653b b93e c5e2 b9bf c1e9 0fbf 95a1 323f
000003b0: aca7 a73e 4dff cc3e c043 823f 0914 8b3e
000003c0: daf8 383f def0 0340 5fe3 17bf f0a8 393e
000003d0: f05d 783f 6065 75bf 1337 c73d b043 6abe
000003e0: d0e6 8a3f 462e ba3c 6cd7 5dbf f31c 0abd
000003f0: f7f9 0dbf 4c6a 8bbb 64fd 4ec0 c390 c3bf

Linear2.bias f4 [24]
0.09810897 0.14244913 0.124983564 -0.025291367 -0.14806545 0.25706038 0.0922658 0.08309448
-0.05906612 0.03183648 -0.07922064 -0.071022466 0.17754157 0.027199011 0.26046854 -0.037830602
-0.10076361 0.18158507 0.13258134 0.25843203 0.293043 0.0926516 -0.022279909 0.024110412
00000000: 5bed c83d 2fde 113e 62f7 ff3d d72f cfbc
00000010: 789e 17be 6b9d 833e daf5 bc3d 702d aa3d
00000020: 51ef 71bd f866 023d 6e3e a2bd 3a74 91bd
00000030: 75cd 353e 76d0 de3c 225c 853e 43f4 1abd
00000040: 275d cebd 70f1 393e 67c3 073e 3451 843e
00000050: bb09 963e 1fc0 bd3d 5b84 b6bc 3383 c53c

Linear3.weight f4 [1, 28]
0.08724676 -0.9511459 -0.793534 -0.7846564 -0.85498345 -1.7882298 -0.7712812 -1.27167
-1.041222 2.9648006 -1.1254518 -1.005815 1.970316 -0.96311796 2.2015657 -0.8885486
-0.074258894 1.8646076 2.6917267 2.3858511 1.3504795 -1.0021534 -1.0274601 -0.9571138
-0.30584756 -0.55838305 -0.06530708 -0.048355754
00000000: 6eae b23d 4c7e 73bf 0b25 4bbf 3edf 48bf
00000010: 32e0 5abf b7e4 e4bf af72 45bf 15c6 a2bf
00000020: c346 85bf 4bbf 3d40 ce0e 90bf 8cbe 80bf
00000030: 5133 fc3f e68e 76bf 74e6 0c40 ec77 63bf
00000040: 0c15 98bd 76ab ee3f 4045 2c40 c9b1 1840
00000050: 83dc ac3f 9046 80bf d083 83bf 6905 75bf
00000060: 0d98 9cbe 31f2 0ebf b8bf 85bd af10 46bd
