ModelPara/DDPG/Mario_localPi_DDPG2021-10-08T10-41-22.pth (torch, 17567 bytes, 6 tensors)

Linear1.weight f4 [48, 24]
-0.09059175 -0.13998082 -0.19509776 -0.024961352 0.11983612 0.15806925 0.15837088 0.17515093
0.036237955 -0.051729903 0.08361322 -0.18245634 -0.07893759 -0.013885394 -0.045696482 0.016411334
0.03423345 -0.14331825 0.08679724 -0.14006737 -0.14806737 -0.0048230737 -0.13021764 -0.19044901
0.0005661696 -0.046320632 -0.14149374 0.1656847 -0.026604861 0.09668678 0.18951246 0.14442468
0.1901373 0.09685403 -0.020825401 0.10675424 0.110489964 0.101923585 0.15456656 -0.026571542
-0.17609043 -0.10669505 -0.2037912 -0.19800739 0.1299007 -0.04911478 -0.16374812 -0.10690374
-0.09309961 0.11511302 -0.006993398 0.015626222 -0.20327254 -0.011418685 0.09098652 0.16317964
0.08124182 0.1289745 -0.17845759 -0.13158303 -0.113905825 0.09657374 0.003787607 0.0638926
0.07906628 0.1587846 -0.04576479 -0.14901236 -0.094322175 -0.021382079 0.1798468 0.1007531
-0.1976428 0.058671862 -0.08301674 -0.16642195 -0.12653697 -0.06734887 -0.011121213 0.105155945
-0.19737132 0.20338866 0.043696195 0.05342695 0.14428207 0.09464568 0.022478506 0.006815955
-0.0020982027 -0.15322298 0.09849724 0.025700718 0.101709366 -0.07401921 -0.09661573 0.014914975
-0.021020934 0.19905263 0.12612957 -0.06572048 0.12544855 0.027879804 0.06641814 0.14047197
0.09959617 -0.15987462 -0.005334273 -0.10918695 -0.0026003718 -0.075282305 -0.20054697 0.09235358
-0.018667713 0.12546748 0.1973741 0.08755314 -0.09592967 -0.1530923 -0.15024062 0.11359015
-0.15285496 0.17692822 0.10402483 -0.11999569 0.16027644 -0.18326254 0.055898786 0.18329594
-0.09071142 0.14689791 0.043214053 0.052181154 -0.20398192 -0.12277913 -0.045286626 0.1648711
-0.04457937 -0.025930896 0.18442154 -0.002532661 -0.17618282 -0.16627264 -0.053030685 -0.11957234
0.009766132 0.045300424 -0.13775101 -0.12753797 0.071252346 0.14868411 -0.047430485 -0.119312406
0.17912665 0.18520653 -0.18564925 0.14602435 -0.08520161 -0.029719085 0.20328921 0.12177932
0.15772003 0.040335536 0.05006647 -0.16785547 -0.14137352 0.023314193 -0.015155971 0.15014747
0.1224983 -0.020001546 0.10277584 -0.13569883 -0.094954796 0.02292721 0.07816023 -0.06833099
0.09388691 0.17394984 0.027847037 0.044363886 -0.028872639 -0.10576125 -0.17827043 0.05951333
0.19148007 -0.17726526 -0.0005916655 0.08333799 0.11225462 0.08478615 -0.19768448 0.007897064
-0.106462695 0.07156125 0.17070809 -0.10965342 -0.036042944 0.18255302 -0.12178722 -0.119431324
0.19273528 0.20070004 -0.16288796 -0.037492976 0.08292398 0.14754975 -0.19947363 -0.011227235
-0.0378702 -0.0056935996 -0.009546801 0.17059326 0.09809172 -0.11731331 0.14669254 -0.012917459
-0.102706596 -0.10093578 -0.0094100535 -0.12740628 0.20333362 -0.0031011105 -0.038145646 0.04209189
0.057365984 0.12939408 -0.10769874 -0.10257082 0.1965169 -0.20240006 0.03977239 0.10954499
-0.044901505 0.107904196 0.17895123 0.1371834 -0.1848527 -0.08711644 0.0052461624 0.16417825
-0.10860399 0.18301281 -0.16555242 0.11064854 0.027970642 0.09314433 -0.10530233 0.071655214
-0.00914976 -0.14955707 0.070032656 0.19616708 -0.062407777 -0.006068647 -0.14059517 0.14247477
00000000: 2b88 b9bd 2257 0fbe b5c7 47be c07b ccbc
00000010: a46c f53d e8dc 213e fa2b 223e c45a 333e
00000020: 406e 143d bce2 53bd 683d ab3d d6d5 3abe
00000030: 08aa a1bd 907f 63bc 3c2c 3bbd 1071 863c
00000040: 6038 0c3d 05c2 12be c0c2 b13d d26d 0fbe
00000050: f99e 17be e00a 9ebb c657 05be 1105 43be
00000060: 006b 143a b4ba 3dbd bce3 10be 40a9 293e
00000070: 70f2 d9bc b803 c63d 8e0f 423e 10e4 133e
00000080: 5ab3 423e 685b c63d 089a aabc f8a1 da3d
00000090: 9048 e23d 50bd d03d b246 1e3e 90ac d9bc
000000a0: 0d51 34be ef82 dabd a4ae 50be 73c2 4abe
000000b0: b004 053e 942c 49bd 96ad 27be 59f0 dabd
000000c0: 02ab bebd 60c0 eb3d e028 e5bb 9002 803c
000000d0: ad26 50be 7015 3bbc 2457 ba3d 9018 273e
000000e0: 1c62 a63d e411 043e 96bd 36be b4bd 06be
000000f0: 7547 e9bd 74c8 c53d 8039 783b 20da 823d
00000100: 80ed a13d 6e98 223e dc73 3bbd b296 18be
00000110: fc2b c1bd 7829 afbc c229 383e a457 ce3d
00000120: e062 4abe e851 703d ae04 aabd 846a 2abe
00000130: e892 01be 34ee 89bd c035 36bc 005c d73d
00000140: b51b 4abe 1e45 503e c8fa 323d 38d6 5a3d
00000150: aebe 133e 98d5 c13d d824 b83c 6058 df3b
00000160: 0082 09bb 7ce6 1cbe ecb8 c93d 508a d23c
00000170: 004d d03d 6297 97bd 78de c5bd f05d 743c
00000180: 1834 acbc 74d4 4b3e 1c28 013e 7698 86bd
00000190: 9675 003e 3064 e43c 3c06 883d e2d7 0f3e
000001a0: 14f9 cb3d 2cb6 23be 20cb aebb 689d dfbd
000001b0: 006b 2abb 9c2d 9abd 2f5c 4dbe e023 bd3d
000001c0: 08ed 98bc 8c7a 003e 701c 4a3e 104f b33d
000001d0: c676 c4bd 3ac4 1cbe add8 19be f4a1 e83d
000001e0: 0386 1cbe ac2c 353e f80a d53d 4dc0 f5bd
000001f0: 821f 243e 2da9 3bbe 20f6 643d eeb1 3b3e
00000200: e9c6 b9bd 686c 163e 3801 313d e8bb 553d
00000210: a3e0 50be a073 fbbd 787e 39bd f8d3 283e
00000220: dc98 36bd 086d d4bc 00d9 3c3e 00fb 25bb
00000230: 4569 34be 6043 2abe b436 59bd 58e2 f4bd
00000240: 2002 203c f08c 393d 9a0e 0dbe 5099 02be
00000250: c0ec 913d a640 183e 7846 42bd 105a f4bd
00000260: fa6c 373e c8a6 3d3e d61a 3ebe 6887 153e
00000270: 2f7e aebd 7075 f3bc 0c2b 503e 7067 f93d
00000280: 5c81 213e e036 253d 8012 4d3d 4ee2 2bbe
00000290: 38c4 10be 68fd be3c c050 78bc 42c0 193e
000002a0: 64e0 fa3d 48da a3bc 247c d23d a2f4 0abe
000002b0: a977 c2bd d8d1 bb3c 7812 a03d 1ef1 8bbd
000002c0: c847 c03d e81f 323e 781f e43c e8b6 353d
000002d0: 5086 ecbc 5b99 d8bd 868c 36be 40c4 733d
000002e0: 5a13 443e 0685 35be 001a 1bba 1cad aa3d
000002f0: c0e5 e53d 5ca4 ad3d cd6d 4abe b062 013c
00000300: 1d09 dabd b48e 923d 1ace 2e3e f991 e0bd
00000310: c4a1 13bd 2eef 3a3e 946b f9bd 6998 f4bd
00000320: 665c 453e 5084 4d3e 1acc 26be 3c92 19bd
00000330: 0cd4 a93d 4817 173e d142 4cbe 70f2 37bc
00000340: c81d 1bbd 6091 babb 306a 1cbc 00b0 2e3e
00000350: 50e4 c83d f641 f0bd 9236 163e c0a3 53bc
00000360: d657 d2bd 6bb7 cebd a02c 1abc cb76 02be
00000370: b036 503e 003c 4bbb 9c3e 1cbd 8c68 2c3d
00000380: 98f8 6a3d e27f 043e 2891 dcbd a610 d2bd
00000390: ba3b 493e f641 4fbe 60e8 223d 2059 e03d
000003a0: a4ea 37bd e0fc dc3d fe3e 373e ce79 0c3e
000003b0: 074a 3dbe 1b6a b2bd 00e8 ab3b 581e 283e
000003c0: c56b debd b667 3b3e 9386 29be b49b e23d
000003d0: b022 e53c 74c2 be3d bfa8 d7bd f8bf 923d
000003e0: e0e8 15bc 7d25 19be 486d 8f3d 06e0 483e
000003f0: 4c9f 7fbd 80db c6bb 2ef8 0fbe e8e4 113e

Linear1.bias f4 [48]
0.05501616 0.06058809 0.05307108 0.069428 -0.0028283596 0.18542412 0.059731245 0.1741398
-0.068731934 -0.17428932 0.16525656 0.037504897 0.13890222 0.181294 -0.09363719 0.12387279
-0.027870193 -0.1594013 -0.07826863 0.16313213 0.16514313 -0.12167874 -0.091925524 0.09755787
-0.16047174 0.07414013 -0.07857819 0.022972599 -0.09677818 0.13934827 0.031094536 -0.11570516
-0.10990975 -0.019183919 0.037515387 0.1439741 0.15162656 -0.050832063 -0.06499413 0.024292082
0.08140257 -0.021265462 -0.099043675 -0.16494358 0.20014739 0.19997457 0.01034461 0.06372622
00000000: a058 613d 382b 783d 1061 593d 4430 8e3d
00000010: 005c 39bb d2df 3d3e c0a8 743d b451 323e
00000020: 54c3 8cbd e678 32be 0439 293e bc9e 193d
00000030: 623c 0e3e 22a5 393e dbc4 bfbd 04b1 fd3d
00000040: 0850 e4bc 183a 23be 4e4b a0bd 1c0c 273e
00000050: 481b 293e b432 f9bd 7343 bcbd 6ccc c73d
00000060: b452 24be c8d6 973d 9aed a0bd 0831 bc3c
00000070: a333 c6bd 50b1 0e3e f8b9 fe3c d4f6 ecbd
00000080: 5d18 e1bd 9827 9dbc bca9 193d f26d 133e
00000090: fe43 1b3e 4835 50bd a41b 85bd 3000 c73c
000000a0: 64b6 a63d e834 aebc 69d7 cabd f8e6 28be
000000b0: 70f3 4c3e 22c6 4c3e 707c 293c e482 823d

Linear2.weight f4 [48, 48]
0.12422037 0.052954286 -0.12755843 0.06620154 0.069525585 -0.053360768 0.10891703 0.101155296
-0.12591356 -0.09241553 0.010786027 -0.0030164272 -0.058501758 -0.13711506 -0.13998684 -0.08028878
-0.1367906 -0.049659364 0.11183143 -0.12565872 -0.057706 0.10826984 -0.028327048 0.055493236
0.0412948 -0.053871743 -0.029951192 -0.09716377 0.0793764 -0.011870295 0.08391522 0.08982441
0.06471591 -0.11238491 0.112259895 0.092869535 -0.14057724 -0.104824334 -0.007760495 0.0474405
-0.0079357475 -0.09727652 0.10516864 -0.028912924 -0.0351528 0.13911736 0.104114026 0.062730804
0.007962823 -0.0357595 -0.13072325 0.06028965 0.038644463 0.03372729 0.068759575 0.038778275
0.07072505 -0.13998939 -0.020265482 -0.03782156 0.05628079 0.11625013 0.10832238 -0.088338375
-0.034450904 -0.051709518 -0.08858341 0.006438598 -0.032132156 -0.09229718 0.0069772154 0.135627
0.08385967 -0.11593835 0.017624184 -0.046530403 0.12766206 0.13041142 -0.02767142 -0.09439519
-0.084830165 0.12685955 -0.10513374 -0.111220896 -0.07354596 0.1106036 0.08586815 -0.05064541
0.06978463 0.1412659 0.14010215 -0.053004473 0.06593579 0.082838595 -0.13175103 -0.0928731
-0.14230298 -0.035966977 -0.13296859 -0.008514255 0.1186941 0.022304133 0.040044367 -0.012247145
0.058315188 0.09784679 0.10243073 -0.10175909 0.09281249 0.086917475 -0.101596765 0.060990155
0.009417579 0.13523993 -0.08474299 -0.09524818 0.034161523 -0.055289775 0.05452694 -0.11180964
0.03253968 0.12829468 -0.011876926 0.011298567 0.05863978 -0.048519164 0.030128166 0.13393074
0.09992021 0.11313662 -0.064101815 -0.006235093 0.12631336 0.042167693 -0.027277239 -0.14432186
0.11581108 0.085626304 -0.09794098 0.008219779 0.07090601 -0.071033984 -0.10968619 -0.09715327
-0.07471811 0.14227441 -0.081858434 -0.017673 -0.12548101 0.08497654 0.0840518 -0.03359922
-0.038331628 0.062056065 0.022235349 -0.005795434 0.120173335 0.026393637 0.072612464 -0.037977286
0.0956098 -0.0364402 -0.07950023 -0.09831019 -0.081394725 0.008483157 0.08077888 0.060241252
0.10139215 0.057658345 0.05244851 -0.11508791 0.011900872 -0.0925097 0.0215732 -0.12780194
-0.074082665 -0.004401982 -0.05028072 0.08659026 0.10665178 -0.066029 -0.010393888 -0.10721254
0.004518464 0.039383307 0.016874418 -0.070417635 0.11725545 0.019438893 0.11868587 -0.041348204
-0.12783995 0.12432799 -0.11681608 -0.023470186 0.112592995 0.13855577 0.06878002 -0.08206257
0.0107792765 0.0077987015 0.044557154 -0.027415164 0.073310375 0.07463613 -0.04487057 0.053483367
0.010978356 -0.14421009 -0.09073046 -0.015501395 0.07387029 -0.11250549 0.020872235 -0.089938015
-0.016134545 0.12363115 0.08400267 -0.09078398 -0.12626994 -0.137078 -0.10526042 0.12763557
-0.051439106 0.06681502 0.016339302 -0.09826568 0.100853994 -0.018830717 -0.06150119 0.008511871
0.116451174 0.10455792 -0.12936658 0.008127332 0.020323455 -0.05052641 -0.06935747 0.073626295
0.120651335 0.06581049 -0.024012066 0.023178086 0.07082534 0.0055145174 0.033868447 0.10529213
-0.09523825 0.1431553 0.11265996 0.02274561 -0.13660297 0.11768368 0.005032867 -0.082600266
00000000: 4067 fe3d 98e6 583d ad9e 02be ac94 873d
00000010: 6e63 8e3d d290 5abd e40f df3d 822a cf3d
00000020: 7cef 00be 5a44 bdbd e0b7 303c 40af 45bb
00000030: 8a9f 6fbd e467 0cbe b658 0fbe 726e a4bd
00000040: d612 0cbe 9e67 4bbd e007 e53d aeac 00be
00000050: 205d 6cbd 94bc dd3d 200e e8bc e04c 633d
00000060: bc24 293d 9ea8 5cbd 345c f5bc ccfd c6bd
00000070: 1890 a23d a07b 42bc bedb ab3d dcf5 b73d
00000080: c689 843d 0f2a e6bd 84e8 e53d 6232 be3d
00000090: 7bf3 0fbe 24ae d6bd c04b febb f850 423d
000000a0: f004 02bc ea38 c7bd a862 d73d ccda ecbc
000000b0: 62fc 0fbd c874 0e3e bc39 d53d 0279 803d
000000c0: 8076 023c 8e78 12bd 51dc 05be 48f2 763d
000000d0: a849 1e3d a025 0a3d d2d1 8c3d f8d5 1e3d
000000e0: 4cd8 903d 6159 0fbe cc03 a6bc c8ea 1abd
000000f0: b086 663d 8c14 ee3d 20d8 dd3d c0ea b4bd
00000100: 641c 0dbd 5ccd 53bd 386b b5bd e0fa d23b
00000110: 029d 03bd 4e06 bdbd 20a1 e43b cee1 0a3e
00000120: 9ebe ab3d 1671 edbd 9860 903c aa96 3ebd
00000130: d8b9 023e 928a 053e 2caf e2bc 4452 c1bd
00000140: 70bb adbd 78e7 013e 5c50 d7bd c8c7 e3bd
00000150: 449f 96bd 2484 e23d a4db af3d 9071 4fbd
00000160: 3eeb 8e3d 02a8 103e f076 0f3e 381b 59bd
00000170: 5809 873d 48a7 a93d bee9 06be 4034 bebd
00000180: dfb7 11be 1c52 13bd eb28 08be 607f 0bbc
00000190: e415 f33d 28b7 b63c 9005 243d 40a8 48bc
000001a0: e8db 6e3d e663 c83d 34c7 d13d 1267 d0bd
000001b0: 7a14 be3d ca01 b23d f711 d0bd d0d0 793d
000001c0: 304c 1a3c 567c 0a3e bc8d adbd 7a11 c3bd
000001d0: f4ec 0b3d 8877 62bd a457 5f3d 74fc e4bd
000001e0: 5448 053d ae5f 033e 7097 42bc a01d 393c
000001f0: 4430 703d 08bc 46bd 58cf f63c 2425 093e
00000200: f8a2 cc3d 2cb4 e73d d047 83bd c04f ccbb
00000210: 4a58 013e 08b8 2c3d 8474 dfbc 1cc9 13be
00000220: 5c2e ed3d d85c af3d 4895 c8bd 40ac 063c
00000230: 2c37 913d 447a 91bd 27a3 e0bd 4bf8 c6bd
00000240: cf05 99bd 62b0 113e 65a5 a7bd f8c6 90bc
00000250: 187e 00be 2e08 ae3d 5a23 ac3d 569f 09bd
00000260: a001 1dbd 802e 7e3d e826 b63c a0e7 bdbb
00000270: 701d f63d 7837 d83c d8b5 943d 128e 1bbd
00000280: 12cf c33d 5242 15bd 04d1 a2bd da56 c9bd
00000290: 47b2 a6bd f0fc 0a3c 666f a53d 88bf 763d
000002a0: b0a6 cf3d 282b 6c3d 40d4 563d 36b3 ebbd
000002b0: e0fb 423c ba75 bdbd 48ba b03c 83de 02be
000002c0: a7b8 97bd 803e 90bb 28f3 4dbd 3c56 b13d
000002d0: 406c da3d 363a 87bd 204b 2abc 4092 dbbd
000002e0: a00f 943b 6450 213d 383c 8a3c 1f37 90bd
000002f0: a023 f03d 503e 9f3c 9411 f33d bc5c 29bd
00000300: 7ae8 02be ac9f fe3d 453d efbd 8c44 c0bc
00000310: 2897 e63d 90e1 0d3e 8adc 8c3d 6c10 a8bd
00000320: 909b 303c 408c ff3b 9081 363d c495 e0bc
00000330: c023 963d d4da 983d 34ca 37bd 6011 5b3d
00000340: 90de 333c cfab 13be e4d0 b9bd 90f9 7dbc
00000350: 4e49 973d 4769 e6bd 40fc aa3c 6c31 b8bd
00000360: 982c 84bc 5432 fd3d 9809 ac3d f4ec b9bd
00000370: e84c 01be 2d5e 0cbe c692 d7bd e6b2 023e
00000380: d0b1 52bd 50d6 883d 00da 853c 843f c9bd
00000390: 8a8c ce3d e042 9abc ace8 7bbd 6075 0b3c
000003a0: f47d ee3d 7622 d63d ac78 04be 8028 053c
000003b0: 607d a63c c8f4 4ebd 4a0b 8ebd 62c9 963d
000003c0: 0c18 f73d a6c7 863d f4b4 c4bc f8df bd3c
000003d0: e00c 913d 20b3 b43b a4b9 0a3d 66a3 d73d
000003e0: 460c c3bd 4e97 123e 44ba e63d 0055 ba3c
000003f0: a6e1 0bbe 2404 f13d c0ea a43b 542a a9bd

Linear2.bias f4 [48]
0.023039147 0.0038522482 0.050570935 0.08192477 0.06646483 0.107632965 -0.09840293 0.06074436
-0.014747709 0.017782494 0.09704712 -0.018011212 0.07727966 0.03673692 0.07410739 0.053025976
-0.13654989 -0.034446724 -0.04276 0.13314492 -0.11578234 0.04351929 0.016993642 -0.01930429
-0.0628574 -0.0032099485 0.019311413 -0.047843143 0.12551835 0.02043429 -0.08053014 0.056302667
0.053334072 0.12752193 -0.027090535 0.0060301274 0.08524141 -0.022658996 0.12194151 -0.1049168
0.09660779 0.02989395 0.07220055 0.05753547 -0.13847992 0.03607644 0.072652504 0.08178078
00000000: 98bc bc3c 0076 7c3b 7823 4f3d 2cc8 a73d
00000010: b61e 883d ac6e dc3d 7a87 c9bd 14cf 783d
00000020: 60a0 71bc 98ac 913c a4c0 c63d 408c 93bc
00000030: cc44 9e3d 7479 163d 9ec5 973d c431 593d
00000040: bcd3 0bbe 0218 0dbd 1c25 2fbd 2457 083e
00000050: 4b1f edbd 4841 323d 4036 8b3c 0824 9ebc
00000060: 61bb 80bd 005e 52bb f832 9e3c 2cf7 43bd
00000070: e287 003e d065 a73c fcec a4bd a09d 663d
00000080: d474 5a3d 1c95 023e f8ec ddbc 6098 c53b
00000090: 0c93 ae3d 5c9f b9bc 78bc f93d 9fde d6bd
000000a0: 4eda c53d 28e4 f43c e2dd 933d 50aa 6b3d
000000b0: aecd 0dbe e4c4 133d d6ca 943d ae7c a73d

Linear3.weight f4 [4, 48]
0.1333991 -0.032846928 0.13736376 -0.11514324 -0.02048397 0.042618528 -0.02849397 -0.13864575
-0.0259116 0.11410707 -0.04632009 -0.07539871 0.040149003 0.14139369 -0.09380135 -0.09907928
0.11552033 -0.041306354 0.034032553 -0.010788575 -0.077659406 -0.0030293018 0.1300889 0.077097565
-0.03715864 -0.009109154 0.03323154 -0.10954377 -0.00531061 0.07381943 0.01809892 0.14167675
0.0042459667 0.08526851 0.05925873 -0.08267565 -0.06845219 -0.11905141 -0.08524406 0.041764975
-0.11140177 0.01704362 -0.027699158 0.065144 0.0029219836 -0.0051168203 -0.015607074 0.08114062
-0.114697926 -0.07859765 -0.07082293 0.07733703 -0.07378586 0.08490178 -0.0203894 0.11265311
-0.04371153 0.04814042 -0.11162712 -0.10318573 -0.14354363 0.08033553 0.02115184 0.12440789
0.06428495 0.009963945 0.12364927 0.13925526 -0.119578615 -0.006202832 0.13400704 -0.006390378
-0.14001259 -0.056209914 0.04412453 0.14032927 -0.0081873685 0.0029994994 -0.0170383 -0.050008617
-0.010977432 0.063259736 -0.124160506 0.012686178 -0.033128493 0.091253236 -0.11542158 0.020359293
0.009966329 -0.03405939 0.12022683 -0.022065617 -0.039841525 0.08591081 0.13816962 0.1374051
0.0087381005 0.12730777 -0.0043613017 0.014713824 -0.1161311 -0.084783 -0.048133157 -0.12990203
-0.018838465 -0.0802622 0.05529304 0.094633505 -0.045980282 -0.075763 -0.033791296 -0.1152235
-0.03554853 -0.030388959 0.08821592 0.059724048 0.13135868 0.053562865 -0.0086814165 -0.021590203
-0.012918264 0.08929592 0.081973 0.06724489 -0.02221194 0.0050927848 -0.066967174 -0.072247244
-0.14278711 0.08415769 0.12475753 -0.054185055 -0.0731991 -0.092895515 0.13217875 0.07878257
0.07034494 0.074625134 0.023188934 -0.1384229 -0.0022555292 0.0382113 0.114946336 0.120983094
0.0037852526 -0.046813548 0.07532029 -0.009837091 -0.031380698 0.110913634 0.021278098 0.0830313
0.05346465 0.05462925 0.080388114 -0.108040035 0.08455069 0.033877775 0.058922738 0.020752996
-0.09675303 0.08537541 0.051297233 -0.13196154 -0.096024185 0.12500751 0.12590519 0.123039246
-0.03634803 0.049769685 0.066521704 0.13320565 -0.11250704 -0.11479828 0.10984656 -0.06618164
-0.05328387 -0.08950696 0.010858893 -0.021502279 -0.03587 0.14159217 -0.13942002 0.12424594
-0.072751716 0.05330777 0.024920285 0.063632354 0.12636709 -0.12001726 -0.111345075 0.13269165
00000000: c699 083e 808a 06bd 16a9 0c3e 38d0 ebbd
00000010: 00ce a7bc c490 2e3d 306c e9bc 27f9 0dbe
00000020: 9044 d4bc f8b0 e93d 22ba 3dbd a46a 9abd
00000030: 4873 243d 82c9 103e ec1a c0bd 14ea cabd
00000040: ec95 ec3d da30 29bd b865 0b3d 90c2 30bc
00000050: e50b 9fbd 4087 46bb 0636 053e 54e5 9d3d
00000060: a833 18bd 903e 15bc cc1d 083d 7c58 e0bd
00000070: a004 aebb a42e 973d 3044 943c b613 113e
00000080: c021 8b3b 42a1 ae3d 48b9 723d da51 a9bd
00000090: a930 8cbd 3ad1 f3bd 7094 aebd c011 2b3d
000000a0: 9c26 e4bd 109f 8b3c 58e9 e2bc 386a 853d
000000b0: c07e 3f3b 00ab a7bb d0b4 7fbc 0e2d a63d
000000c0: bfe6 eabd cef7 a0bd 9d0b 91bd e062 9e3d
000000d0: 0a1d 97bd fce0 ad3d ac07 a7bc acb6 e63d
000000e0: dc0a 33bd e42e 453d c29c e4bd 0a53 d3bd
000000f0: 1afd 12be f486 a43d a046 ad3c 90c9 fe3d
00000100: d4a7 833d d03f 233c d43b fd3d ee98 0e3e
00000110: a2e5 f4bd 2041 cbbb 2439 093e 6066 d1bb
00000120: 765f 0fbe 5e3c 66bd ecbb 343d 7ab2 0f3e
00000130: 5024 06bc 4093 443b e893 8bbc d6d5 4cbd
00000140: b0da 33bc 528e 813d dd47 febd b0d9 4f3c
00000150: beb1 07bd fae2 ba3d 2662 ecbd 88c8 a63c
00000160: d049 233c dc81 0bbd 7c39 f63d f4c2 b4bc
00000170: de30 23bd 02f2 af3d 567c 0d3e ecb3 0c3e
00000180: 402a 0f3c f85c 023e 40e9 8ebb 4012 713c
00000190: 24d6 edbd b6a2 adbd 4627 45bd 0a05 05be
000001a0: 2053 9abc 8260 a4bd f47a 623d 36cf c13d
000001b0: d255 3cbd a229 9bbd be68 0abd 4cfa ebbd
000001c0: 569b 11bd 44f2 f8bc 8caa b43d 34a1 743d
000001d0: e482 063e bc64 5b3d 803c 0ebc f0dd b0bc
000001e0: 20a7 53bc c8e0 b63d 76e1 a73d b0b7 893d
000001f0: d0f5 b5bc 60e1 a63b 1626 89bd 5df6 93bd
00000200: c936 12be de5a ac3d e080 ff3d 26f1 5dbd
00000210: 69e9 95bd 0140 bebd de59 073e c258 a13d
00000220: 0211 903d 10d5 983d b8f6 bd3c bcbe 0dbe
00000230: 80d1 13bb 7483 1c3d fc68 eb3d fcc5 f73d
00000240: 0012 783b 90bf 3fbd 8641 9a3d c02b 21bc
00000250: 0c89 00bd b026 e33d 684f ae3c 500c aa3d
00000260: c0fd 5a3d ecc2 5f3d 86a2 a43d 1844 ddbd
00000270: ea28 ad3d 6cc3 0a3d f858 713d 3002 aa3c
00000280: 7426 c6bd 4ed9 ae3d 0c1d 523d ed20 07be
00000290: 54a8 c4bd f801 003e 4aed 003e 00fc fb3d
000002a0: ace1 14bd 4cdb 4b3d 883c 883d 1067 083e
000002b0: 176a e6bd 5c1b ebbd 3cf7 e03d 3d8a 87bd
000002c0: 3040 5abd 6d4f b7bd 80e9 313c 8c25 b0bc
000002d0: 6cec 12bd 8afd 103e 1fc4 0ebe a874 fe3d
000002e0: dafe 94bd 4059 5a3d a025 cc3c ae51 823d
000002f0: 6066 013e 9ccb f5bd e308 e4bd 52e0 073e

Linear3.bias f4 [4]
-0.03094364 -0.03351734 0.11641109 -0.0406517
00000000: 847d fdbc 7a49 09bd f068 ee3d 6682 26bd
