ModelPara/DDPG/Mario_localQ_DDPG2021-10-08T15-04-43.pth (torch, 11935 bytes, 5 tensors)

Linear1.weight f4 [48, 24]
00000000: 5bcb 20bf 3627 69bf 98f9 33be 436e 81bf
00000010: e90f f93e aff6 fdbe cf25 133d 70ef 50be
00000020: f6c9 a2be 4967 eb3e 36ca afbe 8695 a23e
00000030: 9bf9 013f 76f6 97bc b42c 893e c64e f73d
00000040: 378f 563e 3828 c43e dc41 113e 6edc bf3d
00000050: 8587 7e3e fe87 bd3e 2a3e d83b c21a d1bd
00000060: af31 05be 6147 1a40 e2fb d2bf 3dc7 e1bf
00000070: 21fb 1dbe e5cb 01bd cf79 19be 894a 1abe
00000080: 919b 03be 4459 e43d 2666 16be 3e69 60be
00000090: 3913 33be 1cbf ebbc f523 d9bd 1373 93bd
000000a0: 1e18 78bb a1d8 ebbd 2c3c 2ebe 5b10 97bc
000000b0: e58c 193b 65b2 183e ad34 dabd bbd6 2e3d
000000c0: 3eed 173f 9ea8 b03f 11c1 95bf 6b18 50bf
000000d0: 0189 ff3e 332b 473e 5a69 9f3e 5ebe 10bc
000000e0: 76fe a3bd fd40 133f f2ce 18bd c2f8 a1bd
000000f0: 2a12 cfbd b33b e13c 11d7 253d 2752 163e
00000100: b5e9 60be a87f 05be 6351 2bbe f80e e93d
00000110: 2d57 6fbd 2b7e 4abd 2f99 cdbe 41de b13a
00000120: 20f2 8fbf e115 333f 93d6 03bf 0c79 1dc0
00000130: 6792 3f3e 309d f33d 0d84 97be 3d52 c9be
00000140: 4362 37bd c693 623e d30e 3ebe 7499 88bd
00000150: 4e9a 23bf fd34 3c3d f3ce 9cbe 7b7d 82be
00000160: 5857 afbe 2677 39be 15ef 4d3b ea7a 9cbc
00000170: 05e5 42be d398 8abe 3e0a 40bd 91eb a7be
00000180: 007d 2fbf 3a58 33c0 58ad 7e3f a8e7 04bf
00000190: cd9d 593d f81a b03d 8cbf 133d 7175 46bd
000001a0: 128d 093d 0b7e 15bf 926f aebd cc9f dabd
000001b0: 2f91 abbd 707d 223d 8375 f13d c109 3fbe
000001c0: 4fd9 4abd 57ae bbbd 3d25 243d 378b ce3d
000001d0: 2294 9abb 30bf 813d 0621 60bd 8965 04be
000001e0: 58d7 9f3e 9d44 ec3f 2954 a63e 1ab8 2a3d
000001f0: df83 f43c 9c1d e93d 6fc8 35bf cbc0 99be
00000200: 0d23 c93d 2b66 c13d 6b97 7f3e 1db4 753e
00000210: 4881 dc3f e8c9 1b3d bb9b 3abd ac40 21bd
00000220: eda5 95bc b668 323e b3f5 6c3c e629 40be
00000230: 3585 3f3e 7893 493c d815 fcbd 4afa 6dbd
00000240: b87a 1a3e 546c 14be 3aca 05bc a912 29be
00000250: e0e1 17bd 428e 733d 6fac 833d b4d3 d5bd
00000260: 4f4c 46be a7f0 84bd 0861 ea3b 204b d43d
00000270: 7474 e83c f40a 923d 2513 a0bd 569c 7e3c
00000280: d00d 1fbd 8902 27bc ebe6 813d 8b27 97bd
00000290: f1c1 27be 43ea 85bd 1efe 323e 8710 14be
000002a0: 70d9 48be 7cf8 443f 857b 0b3f d4e9 b2bf
000002b0: e4ca 49be 04f0 4bbe 600d c6bd 4333 893b
000002c0: 3a7e aabd 846d a53e ae5b 51bd 76d4 043e
000002d0: ac5c 793e 2373 bdbd 4691 3e3e d38a 173c
000002e0: dfac 443d ab1c 213d 9087 383e 6400 673b
000002f0: b911 273d 2729 e43c a036 33be f4fb 403e
00000300: e510 4cbf 9867 35c0 433d eb3e c1fb e6be
00000310: 0ad7 3cbe 7bdd 05be aa1b 68be 86c5 66be
00000320: 45ae 1abe cbfa 8bbe 9b25 9cbd 2d78 81be
00000330: 1a3c 26be f4c3 fd3d c8fc 0c3e 684b 5c3e
00000340: ee6d d1bc 1d04 243e 00a3 063c 27ba 903e
00000350: 6189 263e 8912 3fbd 329a c63d 3583 41be
00000360: 7a7c 163f edca b2bf e13b b53d a85c 4bbf
00000370: 747b 353e b41d dfbe b62b 633e 269e 5c3f
00000380: 70fd 77bd 3803 203e 2d0a 283c 9419 e63d
00000390: aa84 c13d 8c8a fabe 886a 923d a381 bb3d
000003a0: 83f9 a63c cd9d 92bd 117d babd f1ea 863e
000003b0: 80e7 c2bd 25fa 853e 3f14 853d cd73 1fbe
000003c0: df5d 473f 31a0 0440 f6a1 97bf 730a aabf
000003d0: 338a 66be 48fd 693e c88e 51be ea88 223e
000003e0: 788f cb3c 6929 1c3f f786 d93d 220e 063d
000003f0: d547 c5bd a49f 36bd 33ca 91bd 5923 00be
-0.62810296 -0.91075456 -0.17575681 -1.0111774 0.4864495 -0.49602267 0.03592473 -0.20403838
-0.3179471 0.45977238 -0.34333962 0.31754702 0.5077149 -0.018550139 0.26791918 0.12075572
0.2095307 0.38311934 0.1418528 0.093682155 0.24856384 0.37017816 0.0065992074 -0.10210182
-0.13007234 2.4106066 -1.6483119 -1.7638928 -0.1542783 -0.03168859 -0.14987873 -0.15067495
-0.12852313 0.111498386 -0.14687404 -0.21915147 -0.17487802 -0.028777651 -0.106025614 -0.07199683
-0.0037856172 -0.11515928 -0.17015141 -0.018440416 0.0023429927 0.14911802 -0.10654578 0.04268525
0.5934638 1.3801458 -1.1699544 -0.8128726 0.49909213 0.19450073 0.31135064 -0.00883445
-0.08007519 0.5752104 -0.037306733 -0.07908775 -0.101108864 0.027494287 0.040488306 0.14679776
-0.21964152 -0.13036978 -0.16730265 0.11379808 -0.058432747 -0.04943673 -0.40155932 0.0013570265
-1.1245766 0.6995526 -0.5149929 -2.460513 0.18708192 0.118952155 -0.29592934 -0.39320555
-0.044771444 0.22126684 -0.18560342 -0.06669894 -0.63907325 0.04594897 -0.3062664 -0.2548636
-0.34246325 -0.18111858 0.0031423022 -0.019101579 -0.19032677 -0.2706972 -0.046884768 -0.3279691
-0.6855011 -2.80226 0.9948325 -0.5191598 0.053129006 0.08598894 0.036071345 -0.048451845
0.0335818 -0.5839545 -0.08517374 -0.1067501 -0.08377301 0.039670408 0.11789992 -0.18656065
-0.049523648 -0.09164112 0.040074576 0.10085147 -0.004717366 0.06335294 -0.054718994 -0.12929358
0.31218982 1.8458439 0.32486084 0.04167948 0.029848037 0.11382601 -0.7100896 -0.30029902
0.098211385 0.09443315 0.24960105 0.23994489 1.7226954 0.03803435 -0.045558672 -0.039368317
-0.018267596 0.17422757 0.014462876 -0.18765983 0.18703158 0.012303226 -0.12308854 -0.058100022
0.15085876 -0.14494449 -0.00816589 -0.16511025 -0.037080646 0.05946184 0.064293735 -0.1044077
-0.19365047 -0.06491213 0.0071526803 0.103658915 0.028375842 0.071309954 -0.078161515 0.015540203
-0.038831532 -0.0101934755 0.06342872 -0.07380589 -0.16382577 -0.065388225 0.1747975 -0.1445943
-0.19614196 0.7694166 0.5448535 -1.3977609 -0.19706303 -0.19915777 -0.0967052 0.004187019
-0.08324857 0.32310116 -0.051112823 0.12971672 0.24351758 -0.09250476 0.18610105 0.009249407
0.048016425 0.03933398 0.18020463 0.0035248036 0.040788386 0.027851654 -0.17501307 0.18846112
-0.7971328 -2.8344479 0.45945176 -0.45113948 -0.18441406 -0.1307277 -0.22666803 -0.22536287
-0.15105541 -0.27339777 -0.0762436 -0.25287 -0.16233864 0.12390891 0.13768303 0.2151314
-0.025565114 0.16017194 0.008217573 0.28267023 0.16263343 -0.046648536 0.09697379 -0.18897708
0.58783686 -1.3968178 0.088493116 -0.7943826 0.17722875 -0.4357735 0.22184643 0.86178815
-0.06054443 0.15626228 0.010256332 0.112353474 0.09449132 -0.48933828 0.071492255 0.091555856
0.020382648 -0.07159004 -0.09105886 0.2635112 -0.09516811 0.26167408 0.06498002 -0.15571518
0.7787761 2.0722773 -1.1846302 -1.3284439 -0.22513656 0.22850525 -0.20464623 0.15872541
0.024848685 0.61000687 0.106214456 0.03272832 -0.096328415 -0.04458584 -0.071186446 -0.12513484

Linear1.bias f4 [48]
00000000: 7681 0e3e 4d7b 213d 1407 82be a27d 303e
00000010: 5370 ca3d 6c78 efbe e592 2bbe dffa 263e
00000020: 36c8 8e3e d844 bf3d 2202 39bd 1c73 3d3e
00000030: f666 1fbd 4773 edbe 0eb6 b4be 1848 f33d
00000040: 9b68 373e 23d8 08be 0e56 7cbc 135b 01be
00000050: 12fd 353e b63a 523e 7258 15be 6355 e23d
00000060: 2c9e cd3e 3c2d c5be fc01 833c ba1e 933d
00000070: 574d f63e 7235 86be b49d 44be 325f fc3d
00000080: 2d0c 803d 12c2 bdbc 2e51 8abd 6d33 383f
00000090: bb8a 7fbe 2ad9 eb3e 925f 443e f357 6ebd
000000a0: 9e3b e6bd 9d88 983e 5e4a 933e 9141 343e
000000b0: 5b7d 403e 3514 bbbe 2911 973e 0afb c53e
0.13916573 0.03942423 -0.25396025 0.17235425 0.098847054 -0.46771562 -0.16755255 0.16306637
0.27887124 0.09339303 -0.04516805 0.18500942 -0.03891655 -0.46377012 -0.35295147 0.11878985
0.17910998 -0.133637 -0.015401376 -0.12632398 0.1777232 0.20530209 -0.1458452 0.110514425
0.40159738 -0.38511074 0.015992157 0.07183595 0.4810588 -0.2621265 -0.19200784 0.123228446
0.06252322 -0.023163829 -0.06753765 0.7195347 -0.24955265 0.4606412 0.19177082 -0.058189344
-0.1124184 0.29791728 0.28767675 0.17603137 0.1879782 -0.36538854 0.2950528 0.3866809

Linear2.weight f4 [24, 48]
00000000: 8836 96bd c78e 993c cdd5 edbc c482 903d
00000010: db7b 843d 7706 4b3d 3486 64bc c44b d5bd
00000020: 8cd1 1cbd d34f 4639 8e15 b3bc 89f2 71bd
00000030: bf9d 8dbd 0e6e f7bc 26ad f03d 28f9 66bd
00000040: b5d7 e5bb 8607 89bd fe73 bcbd eb3e 04be
00000050: 3215 c9bd 8fc2 04be 7aaa c33d 49db f8bb
00000060: a25b bdbd f7eb c4bd 4f14 87bd e818 103d
00000070: f9db e8bb ce51 c3bc e662 b3bd 1654 493d
00000080: 1170 f1b9 58c5 653d b4a5 a53c ea6a 85bd
00000090: ee06 b73d 5c47 93bd 26ac 05bd b5ef e1bc
000000a0: 2806 69bd 6f51 0ebe ec5b 94bd 2b89 81bd
000000b0: babf b43d 08ed dbbd 0eca 49bd aa21 b3bd
000000c0: 40c0 d23e cbc9 2e3f 056a d63e 9844 cfbf
000000d0: d307 423f 40b3 563e a514 e6bd d566 8e3e
000000e0: f8b5 873f e85a 6f3e d8aa 633f cd2f b8bd
000000f0: b8c5 88bf f92d 7ebf c3f1 a63e ba3a 63bf
00000100: 4170 763f 12c0 0abe 9851 f23e 64b2 133d
00000110: 811d b7bc 5cdb a73e d230 b7bc b058 0a3f
00000120: 53c4 ae3d 99f8 993e 5d6f 5a3f 162c 943e
00000130: fb06 623f 6855 a93e 4d6e 3a3f 8daf 203e
00000140: ea39 dfbc f332 df3e cb00 d53e babb 1e3e
00000150: da5f 473f 82ce 5a3f 253c 17bf 38f0 4abf
00000160: 3399 c43d 84b4 c2bf a7db bbbe 0f81 3c3f
00000170: 7e00 c73e 24b6 c83e 2eba 723f 6f65 893e
00000180: a676 a23e a38b 1d3f 4f80 db3e 6f31 bfbf
00000190: 066f 393f 9447 a33e 63e0 03be 2533 bc3e
000001a0: 177c 813f 8146 f73d aa96 2e3f a5cf b1bd
000001b0: a95a 97bf 66d0 97bf ddc0 f53e 8d5a 64bf
000001c0: 748f 683f d03a 5ebe 8f36 c93e bb2d 04be
000001d0: 6406 4e3d 468f bd3e cb0d 85bd ce0f 163f
000001e0: 7bbe 323e f7b3 5c3e 506e 303f 65a7 0e3e
000001f0: c7c0 203f 7180 9d3e 6a7e fc3e ca8e ad3e
00000200: 9bcd 01be c254 f33e 60b2 523e 8714 c3ba
00000210: 184a 383f 844d 443f 057f f1be f185 35bf
00000220: 9a80 013e 2539 bbbf 7f09 73be 0d26 3c3f
00000230: b544 3c3e 1035 013f 3cad 7f3f b6a1 ca3e
00000240: 79c9 c43e 4ffe ff3e 43ae 053f e4c3 d8bf
00000250: ef45 1c3f 7a80 903e 9748 0dbd 7dcd ab3e
00000260: 4191 853f 9604 cd3d 186d 733f b7ef e6bd
00000270: 9e17 9cbf 3c3c 86bf 041d 9d3e 6370 5fbf
00000280: 4fcc 7f3f 2aeb 92bd d52c 1d3f 1a93 bd3d
00000290: 3a62 f43c 6c7e 033f 029b f13d 0d34 1c3f
000002a0: fceb 4e3e 4e18 8b3e b070 253f 8c46 723e
000002b0: 929e 513f 0711 da3e 1927 233f 4479 9e3e
000002c0: 47ed 1fbd 2042 cc3e 9074 a23e 7393 413e
000002d0: af52 473f f68c 473f d02a 08bf 7311 46bf
000002e0: 7789 333e 7baf c0bf e4f5 60be 488b 563f
000002f0: f985 c13e 681b 013f 9623 5b3f fcba 103f
00000300: e340 033f 4e3f bf3e 50bd d63e de7a dcbf
00000310: 8c45 4b3f 5e0d ec3e eca5 e93c c48e e43e
00000320: 08bb 3c3f f501 983e df5e 553f 979d 1bbe
00000330: 69ea abbf 1cd1 88bf 26d0 093f a27e 7abf
00000340: 7a37 393f 15d2 6fbe 1496 fd3e 9ae0 873d
00000350: 687b 65be 673d 043f 4db8 293d 87a6 d13e
00000360: 46ed 1f3e 8ce3 3d3e ca4a 173f 11f1 813e
00000370: fcad 343f 6153 023f 1d7d 163f 91b4 6e3e
00000380: 7e93 1bbe 2d64 d03e b4d6 f13e eaeb 1e3e
00000390: 08bf 123f cef4 613f c36a 53bf 1cae 33bf
000003a0: 5076 e43d 8849 bcbf b889 4cbf fa32 243f
000003b0: 71b7 a73e 0f78 e03e 0bba 803f 7cd3 853e
000003c0: 20b5 743f 83fe 0840 0481 55bf e8b9 30bf
000003d0: a155 723f ab29 bbbe 1337 c73d f3fc 98be
000003e0: 36bb 833f 961c 3fbe 4f88 0dc0 b884 10be
000003f0: d5b2 17bf 1277 afbe 18c1 44c0 9889 d7bf
-0.0733462 0.01874484 -0.029032612 0.070561916 0.06468936 0.049566712 -0.013948012 -0.10414842
-0.038285777 0.00018912488 -0.021860864 -0.05906919 -0.06914853 -0.030203845 0.117517754 -0.056389958
-0.0070142397 -0.06690888 -0.09201811 -0.12914626 -0.09818496 -0.12964843 0.09554 -0.0075945
-0.09245993 -0.09615319 -0.065956704 0.035180002 -0.007106301 -0.023842718 -0.08759098 0.049152456
-0.00046050598 0.056096405 0.020220615 -0.06514533 0.089368686 -0.07191345 -0.032634877 -0.027580122
-0.056890637 -0.13898252 -0.07244095 -0.06324991 0.088256314 -0.107385695 -0.04926496 -0.08746655
0.411623 0.6827666 0.4187776 -1.6192808 0.7579319 0.20966816 -0.112344064 0.2781283
1.0602407 0.23374522 0.8893256 -0.08993492 -1.0685339 -0.992889 0.32606325 -0.88761485
0.96265036 -0.13549832 0.47327876 0.0360588 -0.022352936 0.32784545 -0.022362147 0.54041576
0.085335396 0.30072477 0.85326177 0.28939885 0.882919 0.33072972 0.72824556 0.15691967
-0.027249295 0.4359356 0.41602167 0.155013 0.7788063 0.85471356 -0.5907615 -0.79272795
0.09599533 -1.5211339 -0.3669102 0.7363443 0.38867563 0.39201462 0.9481534 0.268352
0.31731147 0.61541194 0.4287133 -1.4936961 0.72435033 0.31890547 -0.12878565 0.3675777
1.0115994 0.120739944 0.68198645 -0.08682183 -1.1824542 -1.1860473 0.47998706 -0.8920067
0.9084389 -0.21702123 0.39299437 -0.1290807 0.050299063 0.3702337 -0.064967714 0.58617866
0.17455475 0.21553026 0.68918324 0.13931043 0.62794155 0.30762056 0.49315196 0.33898002
-0.12676089 0.47525603 0.20575857 -0.0014883437 0.7198806 0.7668078 -0.4716722 -0.70907503
0.12646714 -1.4626814 -0.23734091 0.7349556 0.18385585 0.5047159 0.9987371 0.395765
0.3843496 0.4999871 0.5221903 -1.6934781 0.6104421 0.2822302 -0.034493055 0.33555213
1.0434953 0.1001064 0.9508834 -0.11276191 -1.2194707 -1.0487132 0.306862 -0.87280864
0.99921125 -0.0717376 0.61396533 0.09256573 0.029831994 0.5136478 0.117971435 0.61016923
0.20207208 0.2716698 0.6462507 0.23659724 0.81882584 0.42591116 0.63731533 0.30951893
-0.039044645 0.398942 0.31729555 0.18903904 0.7786054 0.77949464 -0.53190327 -0.77370375
0.17532907 -1.5053552 -0.219688 0.83806276 0.37797526 0.50432444 0.85601175 0.56535316
0.51270884 0.37352985 0.4194131 -1.7224996 0.79402995 0.46103948 0.0285215 0.44640172
0.7372289 0.29688993 0.83347887 -0.15196835 -1.3430911 -1.0688815 0.53833234 -0.97849476
0.72350276 -0.23419984 0.49528563 0.06634636 -0.22410357 0.5165619 0.04143553 0.40947363
0.15617856 0.18543833 0.59098494 0.25379232 0.7057798 0.50908476 0.5878466 0.23311068
-0.15192983 0.40701428 0.47234118 0.15519682 0.5732274 0.8826417 -0.8258478 -0.70187545
0.11155379 -1.470994 -0.7989764 0.64140284 0.32757142 0.43841597 1.0056776 0.26137912
0.95588875 2.1405342 -0.8339999 -0.6903367 0.9466191 -0.36555228 0.097273014 -0.29880485
1.0291507 -0.18663248 -2.2114446 -0.14113128 -0.5925725 -0.3427053 -3.0742855 -1.6838865

Linear2.bias f4 [24]
00000000: 5bed c83d cc70 443e f14a 323e a680 c63c
00000010: 9310 4ebe 2960 7d3e 7883 143e d4e3 993c
00000020: 27ed 11be b4f1 4f3d 21f8 12be cb3f 06be
00000030: 498d 123e 8791 17bd 36f5 923e fe0a cabd
00000040: 275d cebd 3fa1 4b3e f3d9 4a3e 58b0 9f3e
00000050: f6c9 693e 1428 3b3d ca90 9cbd 3b3d 9ebc
0.09810897 0.19183654 0.174114 0.024231266 -0.2012351 0.24743713 0.14503276 0.018785395
-0.14250623 0.050767615 -0.14352466 -0.13110273 0.14311709 -0.03700402 0.28702706 -0.09865378
-0.10076361 0.19885729 0.19809704 0.31189227 0.22830948 0.04569252 -0.07644804 -0.019316306

Linear3.weight f4 [1, 28]
00000000: 6eae b23d 032e 86bf a6f5 63bf 59f0 5fbf
00000010: eefb 88bf e73b 03c0 db78 61bf b999 d1bf
00000020: b595 afbf 3f75 7440 7978 b8bf b507 9dbf
00000030: 5451 0e40 86a4 9dbf d01f 1b40 6bcc 8abf
00000040: 0c15 98bd 212c 1640 726e 5140 d8ed 2a40
00000050: 3fd0 c43f 97d7 9cbf cf09 a4bf 8e10 96bf
00000060: 7637 16be 2d20 05bf 8576 44bd 0871 923c
0.08724676 -1.0482792 -0.89046705 -0.87476116 -1.0701883 -2.0505311 -0.88075036 -1.6375037
-1.3717562 3.8196561 -1.4411765 -1.2267977 2.2237139 -1.2315834 2.4238167 -1.0843633
-0.074258894 2.3464434 3.272366 2.6707668 1.5376052 -1.2253293 -1.2815493 -1.1723802
-0.14669594 -0.5200222 -0.04796459 0.017876163
