ModelPara/DDPG/Mario_targetPi_DDQN2021-10-08T15-04-43.pth (torch, 17375 bytes, 6 tensors)

Linear1.weight f4 [48, 24]
000000 8e 2d c8 3d 6d e8 20 3e 58 62 a9 3d cc ad 63 be
       0.09774314 0.15713663 0.08270711 -0.22234267
000010 aa 57 c3 bd a6 87 09 be 7b 8e 80 be e8 e8 97 3d
       -0.09538205 -0.13430652 -0.25108704 0.0741747
000020 bd 9b 2c bd ea 5b 7b 3d 79 19 7e bd 51 16 28 3e
       -0.04214071 0.061366953 -0.06203601 0.16414763
000030 86 e3 0e 3e 57 88 12 3e ff 81 5b 3d d3 d4 0d be
       0.13953981 0.14309822 0.05359077 -0.13850717
000040 79 ed 23 be c6 8d fc bc 70 b6 eb 3d 3c 9c 55 bd
       -0.16008557 -0.030829322 0.115094066 -0.05215095
000050 0a a8 4c 3e 0e d2 37 be 17 f1 8c bd e6 04 cb 3d
       0.19985977 -0.17951223 -0.06881922 0.09913044
000060 46 66 8d ba d0 d1 e8 bd a6 74 88 3c a9 7d 6c bc
       -0.0010787926 -0.113681436 0.016657185 -0.014434257
000070 54 cc 9d 3e 22 e4 39 bd 5b 05 9e 3d 4c af 90 bd
       0.30819952 -0.04538358 0.07715865 -0.07064685
000080 73 15 4a 3d ea 9d 09 3d f3 34 4b 3e da 0f bd 3e
       0.04933686 0.033597864 0.19844417 0.36926156
000090 be 86 3c 3e f9 88 3a bd d8 aa 5f 3e a8 90 54 3e
       0.18410775 -0.045540784 0.21842515 0.20758307
0000a0 4d 24 23 3d ad 81 2e 3e ac a1 58 3e 12 79 3c 3e
       0.03982954 0.17041655 0.21155423 0.1840556
0000b0 91 32 35 be 67 47 1b be 4b f4 d1 bc 7c 35 a3 bd
       -0.17695071 -0.15163957 -0.025629183 -0.07969186
0000c0 bf 5f 8f be 60 e6 50 be 09 b2 69 3d 68 ed 50 be
       -0.28002736 -0.20400381 0.057054553 -0.20403063
0000d0 5b 31 5f 3e da 89 b1 3d 6a fe bb 3d d3 0f 19 3e
       0.21796171 0.08668871 0.09179385 0.14947443
0000e0 0d 32 a8 3c 90 43 6e 3e 07 36 54 3e 6b c1 1a 3e
       0.020531679 0.2326796 0.20723735 0.15112846
0000f0 c6 8c b8 3c 70 7d 28 bd 48 ea 69 bd 59 87 67 3d
       0.022528064 -0.04113525 -0.057108194 0.056525562
000100 5c bc e5 bd 89 a9 20 3e a6 c2 22 3e 9d e5 b4 bd
       -0.11217567 0.15689673 0.15894565 -0.08832858
000110 3a b3 34 3e d5 05 3c be e2 0d 32 3d 12 7d 4c bd
       0.17646495 -0.183616 0.04347027 -0.049923964
000120 35 41 23 3e aa 8c b6 3d c4 2d 9a be 86 3c bc be
       0.15942843 0.08913548 -0.3011304 -0.36764926
000130 1b 62 01 3e 12 a3 8e bc d3 6e 9e 3d 11 8e ec 3d
       0.1263508 -0.017411742 0.07735982 0.115505345
000140 bb 72 c5 3d 16 32 7e 3e ab bc 07 3e 0f dc 46 3e
       0.09641024 0.24823794 0.13255565 0.19419883
000150 7b b3 4e 3e 8e 1f 82 bc 8b a6 c6 3c 9e 3b c8 bd
       0.20185654 -0.015884187 0.024249336 -0.09776996
000160 0b e5 06 3e 8e cb cf b8 5b f0 94 bc 07 b1 cc 3c
       0.1317331 -9.908444e-05 -0.018181017 0.024986757
000170 a1 f0 39 bd a7 b1 1b bc 7b 25 15 be 7c 9f 62 bd
       -0.045395497 -0.009502805 -0.14565079 -0.055327877
000180 d3 be 99 bd 90 28 66 bc 1f c1 11 3e 72 a0 37 be
       -0.075071 -0.014047757 0.14233826 -0.17932299
000190 80 6e d8 3d 94 a0 5d 3e ec 36 6f 3d 60 5b e3 3d
       0.10567951 0.21643287 0.058401987 0.11101413
0001a0 a5 ec 74 bd b3 31 d7 3e 67 db 53 3d d5 44 be 3e
       -0.059795994 0.42030105 0.05172291 0.3716189
0001b0 3b d9 0f bd 26 1a 3c 3e 60 b2 21 bb 65 46 25 3d
       -0.035119276 0.1836935 -0.002467297 0.040350337
0001c0 56 35 32 3e db 56 06 3e 5b f1 98 bd 25 78 64 3c
       0.17403159 0.1311907 -0.0746791 0.01394466
0001d0 8d 75 63 3d 2f fe 1e bc 92 ee 37 3e 20 7d 14 3e
       0.055532027 -0.009704157 0.17962101 0.14500856
0001e0 b1 88 3c bc 78 40 12 3e 14 3d 5f be b9 f9 fb 3d
       -0.011507199 0.14282405 -0.21800643 0.1230349
0001f0 eb 18 c2 3c dd 0f 6f 3e 22 8a 88 3d b0 65 54 3c
       0.023693522 0.23345895 0.06666972 0.012963697
000200 03 7d 52 be 4c 9f db 3d ab 37 c0 3d bb b6 82 3e
       -0.205555 0.10723743 0.09385618 0.25530037
000210 7c ac 64 3e f0 d1 1c 3e 44 9a a3 bd b5 a6 29 3e
       0.22331423 0.1531446 -0.07988408 0.165675
000220 da 30 c4 bd 6f bd 15 be 96 d2 36 3e b8 b1 55 3d
       -0.0957963 -0.14623044 0.1785377 0.05217144
000230 fa 67 8c bd 63 98 0f 3c 36 88 c5 bb 27 7a 05 3e
       -0.068557695 0.008764359 -0.0060282005 0.13034879
000240 1c 1e 9d bb 5d f5 28 be 8c 5c 23 3e 4a e0 8c 3d
       -0.004794849 -0.16499849 0.15953273 0.06878717
000250 23 24 99 bc 1d 06 ba bc 6b 31 19 3d 42 e0 0f 3e
       -0.01869399 -0.022707993 0.037400644 0.14050391
000260 37 e8 4e be e5 dc 27 3d b8 e0 a2 bd 58 48 e5 bc
       -0.2020577 0.040982146 -0.07953018 -0.027988598
000270 37 6e 01 3d 43 54 c5 bd 54 53 d4 bd e5 50 b6 3d
       0.03159925 -0.09635212 -0.10367456 0.08902148
000280 57 72 9e 3d 6e bb 74 bd 5a b2 bd bd 60 db 16 be
       0.07736652 -0.05974906 -0.092625335 -0.14732122
000290 cc f4 ac 3d db 5c 05 be 3e fc 77 bd de 92 07 3e
       0.08445129 -0.13023703 -0.06054329 0.13239619
0002a0 ea 31 c2 3e f7 5d 0b bd 07 8b 8a 3e d6 bf 36 be
       0.37928706 -0.03402516 0.27059194 -0.17846617
0002b0 c1 c8 fc 3b 57 f5 04 3e 51 11 6d be 5b e1 8a bc
       0.0077143614 0.12984215 -0.23151137 -0.016953161
0002c0 38 96 24 bd cb 7b 8a be 40 bb 1f be 8b 92 41 be
       -0.040182322 -0.27047572 -0.15598774 -0.18903558
0002d0 56 f0 09 3e b5 43 2d 3e 14 85 13 3d eb 26 88 3d
       0.13470587 0.1692036 0.036015585 0.06648048
0002e0 88 6e 55 3d 82 2a 34 3c 97 fb 84 3e 08 12 5a 3e
       0.052107364 0.010996463 0.25973198 0.21295941
0002f0 a7 94 8b 3e b1 01 ed 3c bf e7 09 3e 29 2a e3 3c
       0.2726185 0.02893147 0.1346731 0.027730064
000300 1c 9d 25 3d 46 b7 b3 bd 50 a4 a1 be 0d cb 34 be
       0.040433034 -0.08775191 -0.31570673 -0.17655583
000310 56 21 06 3e 02 ad b1 3e 9f fe cd be 1c 7f aa 3d
       0.13098654 0.34702307 -0.40233323 0.083250254
000320 e3 48 96 3e f2 4c 87 3e 7e b7 37 3e f1 48 b7 3e
       0.29352483 0.26425892 0.1794109 0.35797837
000330 af 89 4e 3e 26 50 8c 3e 52 c1 8a bb dc 2d aa 3e
       0.2016971 0.27404898 -0.0042344714 0.33238113
000340 7a 10 b3 3d 7a e0 7a 3d 14 4d 14 3b b2 11 3b 3e
       0.08743377 0.061249234 0.002262895 0.18268469
000350 8a 40 3e 3e a8 1a 57 3e 62 4c f2 3d 38 24 9e 3e
       0.18579307 0.21006262 0.11830975 0.30887008
000360 82 ca ea bd df 2a 90 3d 0a 71 f8 3d e8 e9 db bd
       -0.114644065 0.07039427 0.121309355 -0.107379735
000370 a2 00 88 3d d2 05 31 bb 91 c5 a9 3d aa e4 78 3e
       0.06640746 -0.0027011526 0.08289636 0.24305978
000380 8b 44 4e 3d c8 49 98 3e 68 39 ee 3d 3b 6c 9d 3d
       0.050358336 0.2974379 0.11632043 0.07686659
000390 f2 ea 4e 3e 35 46 b7 bc 6a d6 ca bd 65 7d f9 bd
       0.20206812 -0.022372345 -0.099041775 -0.1218212
0003a0 57 00 d8 bc 98 d7 63 be 93 6d c0 3b b2 f6 b2 3d
       -0.02636735 -0.22250211 0.0058724373 0.0873846
0003b0 69 2c ec 3d 8b 37 0c 3e a3 82 03 3e 27 b2 1d bd
       0.11531908 0.13693063 0.12842803 -0.038499977
0003c0 6a 83 43 bd b6 ab 3d 3e 13 81 1c 3e d9 fa b3 bd
       -0.047732748 0.18522534 0.15283613 -0.0878808
0003d0 ab df d6 3c 73 0d 03 be a4 58 02 be 28 cf 94 3d
       0.0262297 -0.12798099 -0.12729126 0.072660744
0003e0 b3 7d c2 3d bf de 17 bd 49 06 f6 bd 96 18 7c 3d
       0.094966315 -0.03707766 -0.120129175 0.061546884
0003f0 e5 70 39 3c 6b b5 9c 3d 1e d8 c9 3c b3 51 41 be
       0.01131842 0.0765179 0.024639186 -0.18878822

Linear1.bias f4 [48]
000000 e6 2c fc bd d4 84 2b be 45 0d 2e 3e 24 e0 5b 3d
       -0.12313251 -0.16749889 0.1699725 0.053680554
000010 89 8d ed 3c 8f c6 54 be 1d 73 2c be f7 05 09 3e
       0.028998153 -0.20778869 -0.16840787 0.13381182
000020 fe af b2 3c a8 ee d5 3d 91 91 7a be 31 b5 e6 3d
       0.021812435 0.10445911 -0.24469592 0.11265028
000030 c1 58 25 3d eb 32 46 3e 25 cd f3 3c f8 4c 2b be
       0.040367845 0.19355361 0.029760906 -0.1672858
000040 9a 4e fe 3d 4d 90 2a 3d 08 ed 5b 3c b7 3e 8b 3e
       0.12417336 0.041641522 0.013423212 0.27196285
000050 5e f8 cd 3e c0 3b 15 3e cf ce 03 be 0d 9e 6f bd
       0.40228552 0.14573574 -0.1287186 -0.05850034
000060 bd b2 64 3e 3f b1 80 bd 2d 15 be bc 4c cf d3 bd
       0.22333808 -0.06283807 -0.023203457 -0.10342273
000070 79 c1 e2 3d 1d db 23 3c fe 07 75 3e cd 68 22 3e
       0.11072058 0.010000971 0.2392883 0.15860291
000080 77 0b 86 3e 22 4c 31 3c 83 b8 86 3d 5b 31 df bd
       0.26180622 0.010821374 0.065781616 -0.10898086
000090 31 4c 2b bc c6 b2 7a 3c 74 3c 90 be a5 e1 7a bc
       -0.010455177 0.015301412 -0.28171122 -0.015312587
0000a0 b9 3e 64 3c db 91 11 bd 8e c9 87 bd f3 51 db bd
       0.01393097 -0.03553949 -0.066302404 -0.1070899
0000b0 2b 57 41 3d a9 21 73 be af 11 49 3e 02 d5 3b 3d
       0.04720227 -0.23743309 0.19635652 0.045857437

Linear2.weight f4 [48, 48]
000000 79 72 6b bc 15 34 ad bd 22 09 38 bd ff 8d 19 3c
       -0.014370554 -0.084571995 -0.044930585 0.009372233
000010 0f bc 1c 3d 18 db 18 bd a4 c1 de 3d 00 28 2a 3d
       0.038265284 -0.03731832 0.10876778 0.041542053
000020 c9 9b 34 3d 92 a5 bf bd ba c5 b3 bc 62 5c c0 3d
       0.04409388 -0.09357752 -0.02194487 0.093926206
000030 ad fb a2 b9 96 02 08 3e 7d bd b6 3e 83 14 40 bc
       -0.0003108656 0.13282236 0.35691443 -0.01172364
000040 f5 73 bf 3b f4 5c 95 bc 9c 59 6a 3d e7 9d d7 3d
       0.0058426806 -0.0182328 0.057214364 0.10528164
000050 01 25 f7 3d e8 11 e6 3c 46 b2 78 bb fc d1 e4 3d
       0.12067605 0.02808471 -0.0037948056 0.11172864
000060 ed 94 80 3c 1b 11 1b 3e 4b 69 0b bc 12 8c 7d bc
       0.015696013 0.15143244 -0.0085089905 -0.01547529
000070 60 bf 23 3c f4 fb e0 3c 72 ee 03 3d 4c cd a4 3d
       0.009994358 0.02746389 0.03220982 0.0804697
000080 ba eb 8e 3d 1c a1 dc bd aa a4 8b 3e 1c a2 a0 3d
       0.06978555 -0.10772917 0.27274066 0.0784342
000090 73 11 93 bc ad b6 ba 3d db 36 43 bb d3 90 10 3e
       -0.017952656 0.09116874 -0.0029787335 0.14117746
0000a0 44 64 13 bc 28 14 96 bd c1 d7 ed bc c6 4d f6 bc
       -0.008996073 -0.07328063 -0.029033544 -0.030066382
0000b0 96 de b4 bd 3e f7 fc bd 07 3c 13 3e c1 2c 7d 3d
       -0.088315174 -0.12351845 0.14378367 0.06181026
0000c0 e4 86 54 3d 4a 76 b4 3e bd 05 2c 3e db 2a 45 3e
       0.051886454 0.35246497 0.16799064 0.1925463
0000d0 91 c0 ee 3d 25 fe 6f 3e ce 8a 06 bd db a8 09 3e
       0.11657823 0.23436792 -0.03284722 0.1344332
0000e0 65 f0 aa 3e 6c bb 1b 3d ba 2b fc 3d 49 b0 62 3e
       0.3338653 0.038020536 0.12313028 0.2213756
0000f0 91 cc 2c 3e 19 15 20 3d 3f c7 c4 3e 93 68 1e bd
       0.16874911 0.03908262 0.38433263 -0.03867395
000100 83 37 8f 3e ab a9 46 3e 1b fe 40 3e bc 4d 07 3e
       0.2797204 0.1940066 0.18846934 0.13213247
000110 66 04 b0 3e d4 f7 1c 3d 9a 31 47 bd cd b4 66 3d
       0.34378356 0.038322285 -0.048631288 0.05632477
000120 2e 2c 76 3e 6f a6 04 3e 20 ed d2 3d 50 07 1e 3c
       0.2404029 0.12954114 0.10299134 0.009645298
000130 ad b7 25 3e 78 40 92 3e 2b 2d c8 3d ff eb da bb
       0.16183348 0.2856481 0.0977424 -0.006680965
000140 63 ba 01 3e 01 3b 6b 3e 4a 6a b6 3e 82 bc 3d 3e
       0.12668757 0.22971727 0.35627967 0.18528941
000150 b3 ce 01 3d cb de 86 3d 7a 12 bb 3c 8d 9b e5 3d
       0.031691264 0.06585463 0.022835959 0.112113096
000160 9d 3e e2 3d 6f 19 4f 3e 03 ca 1a bb d6 30 39 3e
       0.11047099 0.20224546 -0.0023618944 0.18085036
000170 52 63 70 3e 04 af ab bc 72 da 7e 3e c0 6d 55 3e
       0.23475388 -0.020957477 0.24888018 0.20842648
000180 1c 66 91 3c e6 fd 87 bd 81 77 3c bd 12 83 b2 3d
       0.017748885 -0.06640224 -0.046012405 0.08716406
000190 5d ae b8 bc a3 2b c5 3d 2e 2e 7e bd 8b be 02 3e
       -0.02254408 0.09627464 -0.06205576 0.12767999
0001a0 70 de 9c 3a e8 d3 67 bd b1 50 a4 3a 3f 82 9c bd
       0.0011968147 -0.056598574 0.0012536255 -0.0764203
0001b0 04 05 26 bd 94 5b dc 3d 1c b8 d4 3d fd dc 37 bc
       -0.040532127 0.10759655 0.103866786 -0.011222121
0001c0 80 0b dc 3d 8d bd f0 bc 55 18 22 3d e9 e9 b4 bc
       0.10744381 -0.02938726 0.039573986 -0.022084193
0001d0 19 bf fe bc a0 05 91 3d 63 9d 0a 3e 32 27 86 bb
       -0.031096982 0.07081151 0.13536601 -0.004094028
0001e0 f2 60 33 3d 46 78 0a bd 5d 55 32 bd d2 b5 8e bd
       0.043793626 -0.033806108 -0.04353844 -0.06968273
0001f0 5c c2 a4 bd af 08 97 bc d0 5d 9a 3d db 0b c6 3d
       -0.080448836 -0.018436758 0.075374246 0.0967023
000200 2c 40 22 bc 50 7b 2c bd 7a 74 0c be dd da a2 3c
       -0.009902995 -0.042109787 -0.13716307 0.019879753
000210 c3 72 1b be 05 5c a4 3d dc 40 12 3e 81 83 ba bd
       -0.15180497 0.08025364 0.14282554 -0.09107114
000220 98 35 25 bd 68 71 94 3b 81 25 e0 3d 27 92 01 3e
       -0.040334314 0.0045301206 0.10944653 0.12653409
000230 69 18 27 3d 00 8c 91 bd 55 7e 2a 3e d2 44 33 3e
       0.040794764 -0.07106781 0.16649754 0.17506722
000240 74 e4 26 3e 98 a6 a7 3d 05 ad fc 3d 22 8a 48 3d
       0.16298085 0.08186072 0.12337688 0.04895986
000250 1f 1f 13 3d e3 a8 06 be 92 00 4e bd 50 55 2a 3e
       0.03591835 -0.13150363 -0.050293513 0.16634107
000260 3d 35 a2 bc 0b a2 cd bd c2 ce 62 bb ee bf 86 3c
       -0.019800777 -0.10040673 -0.00346081 0.016448941
000270 1a 6f c3 3d a0 28 e0 3d 09 a3 78 3e 90 6e ab 3d
       0.09542675 0.109452486 0.24280943 0.083706975
000280 24 2f 2c 3e 9a c9 0f 3e f7 6a cd bc 4b 20 93 3d
       0.16814858 0.14041749 -0.025075419 0.07183894
000290 d3 8c 19 3e 23 d8 14 3e 86 79 0f 3d d9 b4 ee bd
       0.14995126 0.14535575 0.035028003 -0.11655588
0002a0 18 88 51 bd 10 6e d0 bc ee 95 b4 bc 06 42 79 bd
       -0.05115518 -0.025443107 -0.022044148 -0.06085398
0002b0 6b 6a 1c 3d 72 8a c3 3d 29 29 78 3d bc 5a 22 3e
       0.038187426 0.09547891 0.06058613 0.15854925
0002c0 28 c7 26 3e 6b a8 1a 3d 07 ce dc 3e e1 4d 38 3e
       0.1628691 0.037758272 0.43125936 0.17998458
0002d0 7a 4e 0a 3d e9 c0 bf 3d e7 d6 1a 3e 07 71 06 bd
       0.033766247 0.093629666 0.15121041 -0.032822635
0002e0 50 f1 29 3d 6f 04 46 bd e9 62 be 3d 24 5e 20 3e
       0.0414899 -0.048344072 0.09296209 0.15660912
0002f0 ea 79 0f 3d 03 88 0c be 10 fe aa 3d b7 fd 59 3e
       0.035028376 -0.1372376 0.0834924 0.21288191
000300 c6 22 f9 bc 69 58 6d bd 42 0f 44 3d 60 1c 21 3e
       -0.03041209 -0.057945643 0.047866113 0.1573348
000310 ea 0e cc 3a 7b b6 1a 3e 9a c6 83 bc 50 16 68 3e
       0.001556841 0.15108673 -0.016085912 0.22664762
000320 4c d6 56 bc eb 35 12 3e bb 9d 1b 3e 79 1d 35 3e
       -0.013112616 0.1427838 0.15196888 0.17687024
000330 06 8b ca 3c 4c ff 64 3e d1 d5 78 3e 45 76 a9 bd
       0.024724495 0.22363013 0.24300314 -0.08274511
000340 f8 2c 28 3e e2 f3 06 3e da 12 09 3e bf 5c 83 bd
       0.16423404 0.13178971 0.13386098 -0.06414174
000350 b7 da ca bc 05 d2 3a 3e 29 df 3b 3e 9f ff 91 3d
       -0.024762494 0.18244179 0.18346848 0.07128834
000360 36 4a c7 3d 58 a1 52 bd 22 a2 c4 3d e3 80 55 3b
       0.097309515 -0.0514234 0.09601237 0.0032578043
000370 ca c5 c6 3d 37 3b 96 3e 70 17 20 3e 5b fd 96 3d
       0.09705694 0.29342052 0.1563394 0.073725425
000380 fa aa 85 3d 19 d5 72 3e f9 30 b8 3e 19 d7 e1 bc
       0.06526752 0.23714103 0.35974863 -0.027568387
000390 d1 e2 7a 3e ef 55 47 bd 47 83 dd 3d bb fd 0b bd
       0.24500586 -0.048665937 0.10816055 -0.034177523
0003a0 ba 67 32 bc 15 3b f0 3d 64 28 ea 3d bc d1 23 3e
       -0.010888988 0.11730019 0.11433485 0.15997976
0003b0 41 49 f2 3c f0 40 17 bd c2 4b 3c be 2f 4f 1e 3e
       0.029575946 -0.036927164 -0.18388274 0.15459894
0003c0 67 b5 91 3e 9b d9 1d 3e 98 e6 6d 3c b0 1a ed 3d
       0.28458712 0.15415041 0.01452031 0.11577356
0003d0 4e fc 31 bc 56 23 0e 3e 9e a4 03 3c 39 29 32 3d
       -0.010863377 0.13880667 0.008034853 0.043496344
0003e0 a4 b1 a9 3e f1 70 e8 bd 88 58 21 3e a6 5a 04 3e
       0.33143342 -0.11349667 0.15756428 0.12925205
0003f0 55 12 bc 3d 09 c1 f3 3d 90 ec af 3e b7 4a 09 be
       0.09183184 0.11902053 0.3436017 -0.13407408

Linear2.bias f4 [48]
000000 5c c3 a8 39 3d e4 22 3a 01 29 2e 3e 04 e2 ef 3b
       0.0003218901 0.000621382 0.17007829 0.0073206443
000010 25 e2 a3 bc ea 7c 82 3d c8 8c 11 3c 02 0a 08 3e
       -0.020005295 0.06371482 0.0088836625 0.13285068
000020 04 ed 80 3d e4 8b 28 bb c6 66 b6 3d a1 8d a4 3e
       0.06295207 -0.0025718147 0.08906321 0.32139304
000030 fd 6c e0 bd e9 2f 21 3e e9 28 37 3d 0b 0a 05 3e
       -0.10958288 0.15740933 0.04471675 0.12992112
000040 61 48 3b 3d a7 9b 0e 3e 40 41 eb 3d d2 82 f1 bd
       0.045723323 0.13926564 0.11487055 -0.1179253
000050 a4 e6 dc 3d aa 28 f6 3e 73 be 0b 3e 1a bc 0b 3d
       0.10786179 0.480779 0.1364687 0.034114935
000060 52 45 75 3e df cb 0a 3e 2b e3 8b 3d d9 35 bf bc
       0.23952225 0.13554333 0.06830438 -0.023341106
000070 b1 3e a7 3c d3 0f 19 3e fc 2b af bc c0 b2 16 3e
       0.020415636 0.14947443 -0.021383278 0.14716625
000080 94 f0 58 3e bc f6 a1 3e c1 d4 3a 3d a8 0d 6e bc
       0.21185523 0.31633556 0.045613054 -0.014529623
000090 2e 74 43 3e f7 e4 81 3e 6b a6 12 3d 0d 98 f0 3c
       0.19087288 0.2537 0.03580324 0.029369378
0000a0 21 10 62 3e 60 52 18 3f f4 c0 ee 3d 82 e6 cf 3d
       0.22076465 0.59500694 0.11657897 0.10151388
0000b0 83 09 9f 3e ba f8 37 3d ad d5 20 3e 0b 4f 9f 3d
       0.31061944 0.04491494 0.15706511 0.07778748

Linear3.weight f4 [4, 48]
000000 75 4d 62 be b4 1a 9f bd 1a 32 b0 bd 35 eb 28 be
       -0.2209986 -0.07768765 -0.08603306 -0.16495974
000010 f0 66 19 be 5d a3 3e 3a 1d 0d 24 be ff 1f 4a be
       -0.14980674 0.0007272268 -0.16020627 -0.19738768
000020 da 28 3d bd bc 5b e6 3c eb 15 4f be 25 18 34 3f
       -0.046181537 0.028119914 -0.20223205 0.7034934
000030 4b 32 d0 3a 82 56 8e 3d f3 5e 5d 3c 01 d2 ef bd
       0.0015884129 0.06950094 0.013511407 -0.11709977
000040 af 90 11 3e f1 10 78 3d 1f 69 0f bf 14 0a 1b 3d
       0.14215349 0.06056303 -0.5601978 0.037851408
000050 5e 5a 86 3d dd 9c 24 be 01 27 e6 bd 49 db 38 3b
       0.06560205 -0.16075464 -0.11237908 0.0028206876
000060 7c 20 9a bd b5 de 28 be de e4 8a 3d 31 ea b2 3d
       -0.07525727 -0.16491206 0.06781934 0.08736075
000070 f3 a2 01 bd 17 e4 0a be b6 00 34 be 67 71 54 3d
       -0.03164954 -0.13563572 -0.17578396 0.05186596
000080 1d 3f bd 3e 0c 2c a9 3d 68 53 59 bc 38 0f 95 be
       0.36962214 0.082603544 -0.0132645145 -0.29113173
000090 97 1a 44 be 5a ce 49 3e e1 93 bd bd 50 8e ed 3c
       -0.19150768 0.19707623 -0.09256721 0.028998524
0000a0 b1 36 20 bf 0b ba 89 bf 07 24 97 3d b7 56 c7 bd
       -0.6258345 -1.0759901 0.073799185 -0.097333364
0000b0 97 5b 0e be bb f3 15 3e a2 00 c8 3c df e9 85 bc
       -0.13902126 0.14643757 0.024414364 -0.01634687
0000c0 78 b7 2c 3e bc ae 94 bd 2d a0 ab bd 41 32 ba 3d
       0.16866863 -0.072598904 -0.083801605 0.090916164
0000d0 bb ff 93 3d 00 54 ab 3a 80 21 00 be 06 db 45 3d
       0.07226511 0.0013071299 -0.12512779 0.04830458
0000e0 fa 5d bd bd b9 24 60 be 42 db bb bd a5 71 23 bf
       -0.0924644 -0.21889009 -0.091726795 -0.6384528
0000f0 92 1e 09 be 1c d1 94 bd 3a 60 c6 3d fa ba 7a be
       -0.13390568 -0.07266447 0.096863225 -0.24485388
000100 99 5b a7 3d 72 b1 80 bc 16 27 84 3e 70 e2 2c bd
       0.08171768 -0.015709613 0.2581107 -0.042208135
000110 5f f8 4d be 49 ca 66 bf 84 65 98 bd ec dc e4 3d
       -0.20114277 -0.9015241 -0.074412376 0.1117495
000120 5a 0e 77 be e4 7b 1a be 31 33 2b bd b3 ca ca be
       -0.24126568 -0.15086323 -0.041796867 -0.39607772
000130 a2 a5 39 be 0e 3a c8 3e 96 c0 39 be e4 24 5c bd
       -0.1812959 0.39106792 -0.18139872 -0.05374612
000140 cc 64 d2 bd 42 80 06 3e d8 ac 27 bd ff 51 8a be
       -0.10273132 0.13134864 -0.04093632 -0.27015683
000150 ee bf 86 3d 54 7b de bd 2f 5a d8 3c e4 41 2c 3d
       0.065795764 -0.10863367 0.02641019 0.042055026
000160 f7 75 87 be ff af cb be cf 25 5b 3d 19 f5 35 3d
       -0.26457188 -0.39782712 0.053502854 0.044423196
000170 50 62 2c 3e fe 79 7b bc 03 82 0d be 93 bd 14 3c
       0.16834378 -0.015348909 -0.13819127 0.009078401
000180 db 29 5a be 39 00 3d be 93 20 91 bc 86 25 84 be
       -0.21305029 -0.18457116 -0.017715728 -0.25809878
000190 21 86 b8 be 45 26 ee 3d ea 60 8f bd 4a 68 87 be
       -0.36039832 0.11628393 -0.07000907 -0.26446754
0001a0 0a 25 0d be 2a bd b0 bd 50 5f a0 be 35 ca ba be
       -0.1378366 -0.0862983 -0.31322718 -0.36482397
0001b0 86 f5 0b 3e 98 e5 e9 bd 02 c8 79 3d 59 ca f9 bc
       0.13667879 -0.11420745 0.060981758 -0.030491995
0001c0 8d 94 7b 3d 7e 25 47 be df 99 4a 3e 29 f8 62 bb
       0.061420966 -0.19447896 0.1978526 -0.0034632778
0001d0 c5 67 fa bd 93 3f 80 bc 34 cb a5 bd 50 ad 93 bd
       -0.12226824 -0.015655315 -0.080953985 -0.07210791
0001e0 5a 82 45 be 29 69 a5 3d 37 26 4d 3b 2f aa 93 be
       -0.19288006 0.08076698 0.0031303295 -0.28840777
0001f0 75 b0 b7 bc d2 50 8a be c7 fc 4f 3d 8e a2 81 be
       -0.022423008 -0.27014786 0.050778177 -0.25319332
000200 9d 19 bd be 8f 0d 1e bf 51 75 2d bb 2f 2a 87 3d
       -0.36933604 -0.6173944 -0.002646763 0.06599843
000210 94 ee a9 be 97 1a 9d be b1 37 a4 bd ee a8 b5 3d
       -0.33189833 -0.3068435 -0.08018435 0.088701114
000220 37 3b d6 b9 6b 66 8c 3d a7 09 05 3d 65 71 a2 3c
       -0.0004086138 0.06855472 0.03247991 0.019829461
000230 09 3d 30 bf bf 4a 46 bd 7c 60 a0 be e6 8e 74 3d
       -0.6884313 -0.048411127 -0.31323612 0.05970659
000240 f9 5d 7d be 11 02 3b be 24 68 d6 3d 9d 13 be bd
       -0.24742879 -0.18262507 0.10469082 -0.09281085
000250 7c 86 a2 be ae bb 35 3d c8 bc a2 bd 22 f4 87 be
       -0.31743228 0.04436844 -0.079461634 -0.26553446
000260 4b 3e 8e 3d 43 60 83 bd 21 b9 7c be d5 57 bf be
       0.06945475 -0.06414845 -0.24679996 -0.37371698
000270 d3 61 dc 3b 0d 47 f1 bd db 24 c6 3d dd 5a 6f 3d
       0.0067255287 -0.1178113 0.096749984 0.058436263
000280 6d c7 32 3d bd 9d f4 bd c0 66 92 3e 98 1e 2d 3e
       0.04364722 -0.11944149 0.28594017 0.16906202
000290 4e 41 33 be 55 f8 b7 bd 5b 93 57 be f3 57 da 3c
       -0.1750538 -0.089829125 -0.21052305 0.026653266
0002a0 31 92 80 be 40 7c dd 3b c5 f2 e7 bd c2 6e 4b be
       -0.25111535 0.0067591965 -0.113256015 -0.1986647
0002b0 2e 2c b6 bd b0 45 2a be d8 a8 d7 3d 9e 67 89 bd
       -0.08895145 -0.16628146 0.10530251 -0.067092165
0002c0 d2 70 4d be 31 d3 3a bf 43 fd 06 3d 31 cc 37 bd
       -0.20062569 -0.729785 0.032956373 -0.044872466
0002d0 80 99 6e be ea 63 c2 be 93 5f 93 3d 52 2c 8e bd
       -0.23300743 -0.37966853 0.07195964 -0.06942047
0002e0 94 c2 68 bd bc c2 d9 3c 4c 59 56 3c 3e 69 83 be
       -0.05682619 0.026582114 0.0130828135 -0.2566623
0002f0 f3 e8 1f bf 8c 8a ac 3c 64 5f a5 be d5 00 e8 3d
       -0.6246483 0.021062158 -0.3229934 0.11328284

Linear3.bias f4 [4]
000000 ab 04 d5 3d 38 db 4c be 92 6f c8 bd c0 bc 65 be
       0.10401281 -0.200055 -0.09786905 -0.22435284
