ModelPara/DDPG/Mario_localQ_DDPG2021-10-08T10-47-31.pth (torch, 11935 bytes, 5 tensors)

Linear1.weight f4 [48, 24]
000000 22 dc 42 3e f0 0e 0f be aa 90 a7 bd ab f0 35 be
       0.19029287 -0.13970542 -0.08181889 -0.17767589
000010 de 47 1d be a0 3c 9c bd 80 c5 bb ba 94 f2 6a bd
       -0.15359446 -0.07628751 -0.0014325827 -0.057360247
000020 a0 f1 94 3b 60 57 40 be c0 95 b5 3d 0c c1 18 3e
       0.0045454055 -0.18783331 0.08866453 0.14917392
000030 9e a3 f7 bd 44 b8 41 bd b8 7e 7d bd 00 ba dd ba
       -0.120917544 -0.04729487 -0.061888427 -0.0016916394
000040 8a e2 04 3e 08 29 da bd 74 42 40 be 90 d6 f1 3d
       0.12977043 -0.10652357 -0.1877535 0.11808503
000050 50 50 91 3c 34 64 33 3e 30 b4 cd 3d c8 d0 5f bd
       0.017738491 0.17518693 0.10044134 -0.05464247
000060 e8 77 92 bd 9a d9 14 be 43 47 ae bd f2 62 4f 3e
       -0.071517766 -0.14536133 -0.08509686 0.20252588
000070 80 5e 7c bc a0 64 ac bb cc f9 86 3d b0 43 8c bc
       -0.01540339 -0.005261019 0.06590614 -0.01712212
000080 20 de 2d be d8 6b b3 3d 20 78 a1 3d df a2 35 be
       -0.16979265 0.08760804 0.0788424 -0.17737912
000090 1e 4d 30 3e 21 76 ab bd 00 9f 2d 3e 58 84 e2 bd
       0.17216918 -0.08372141 0.16955185 -0.11060399
0000a0 f5 b0 0d be 9a af 0b 3e 84 6d 4b 3e f8 81 d2 3d
       -0.13837035 0.13641205 0.19865996 0.10278696
0000b0 68 70 6f 3d 84 df e6 3d d9 8b 2e be b4 a3 e6 bd
       0.05845681 0.11273101 -0.17045535 -0.11261693
0000c0 78 36 0f 3e 3e 8e 33 3e bd 21 ef bd 08 dd 01 be
       0.13985622 0.1753473 -0.11676357 -0.12681973
0000d0 30 4d a7 bc 24 17 c0 3d 39 99 38 be 23 92 08 be
       -0.020422548 0.09379414 -0.180272 -0.13336997
0000e0 b9 30 f6 bd 20 74 26 3e 0a 85 35 3e 92 38 42 3e
       -0.12021012 0.16255236 0.17726532 0.18966892
0000f0 cf b0 32 be 97 77 30 be 14 33 fd 3d e0 68 00 be
       -0.1745026 -0.1723312 0.12363258 -0.12540007
000100 4c 1b 23 3e e6 4e 35 be e8 81 10 3d 48 d7 89 3d
       0.15928382 -0.17705879 0.03528014 0.06730515
000110 a4 fd e7 3d 48 8f 4e 3e 7b 75 24 be c0 f5 4a 3d
       0.11327675 0.20171845 -0.1606044 0.04955077
000120 ab f8 2d be 40 67 15 3e 19 92 4a be 7f ed 35 be
       -0.1698939 0.14590168 -0.19782294 -0.17766379
000130 78 36 d5 3d 3c 5e 34 3d 67 67 df bd ad e5 dc bd
       0.1041078 0.04403518 -0.10908394 -0.10785995
000140 90 1b 7a 3d 9c 2c c6 3d dc a1 42 bd 50 f2 ac bd
       0.061061442 0.09676477 -0.047517642 -0.08444655
000150 f0 45 d2 bc 5c 87 db 3d 0a e5 8f bd 7e ce 0a 3e
       -0.025668114 0.10719177 -0.070261076 0.13555333
000160 c8 49 15 3d a0 4f 51 3d f4 13 36 3d eb e2 3f be
       0.036447316 0.051101327 0.044452623 -0.18738906
000170 83 e5 36 be e4 43 16 be 25 f2 4c be 42 df b8 bd
       -0.1786099 -0.14674336 -0.20014246 -0.09026958
000180 1c b6 c0 3d b0 ca d6 3d f2 87 0a 3e a3 a6 b8 bd
       0.094097346 0.10487878 0.13528422 -0.090161584
000190 f6 65 37 3e 26 cb af bd e0 78 95 bd 68 80 fb 3d
       0.17909989 -0.08583669 -0.07298446 0.12280351
0001a0 b8 2c 73 3d da 36 2d be 91 84 d6 bd 10 29 9f 3d
       0.05936882 -0.16915455 -0.10474504 0.07771504
0001b0 b4 00 b4 3d dc 93 0a bd 5e 6c c3 bd 57 4e 18 be
       0.087891966 -0.033832416 -0.09542154 -0.14873634
0001c0 59 86 3a be bb f5 cc bd 48 3b 5c 3d fc ac f8 3d
       -0.18215312 -0.10007807 0.053767473 0.12142369
0001d0 d0 a3 b0 3d de 7d 80 bd 40 ab b5 bb 60 1c fe bc
       0.08624995 -0.06274007 -0.005544096 -0.03101939
0001e0 b4 96 3d 3e dc c5 7c bd b8 0f 21 3e 50 78 f2 3d
       0.1851452 -0.06171213 0.15728652 0.11839354
0001f0 ac 57 cc 3d d0 b0 18 3e e0 22 14 3e a2 eb e9 bd
       0.099776596 0.14911199 0.14466429 -0.114218965
000200 cc 46 9f 3d 85 14 ec bd 88 1b 24 3d 14 6a da 3d
       0.07777175 -0.11527351 0.04006532 0.10664764
000210 85 15 05 be c0 a8 56 3b cc 18 2e 3d 20 e4 45 3c
       -0.1299649 0.0032754391 0.042504117 0.012078315
000220 1b e4 b8 bd 4e 95 43 3e 7b c1 c6 bd ad 30 b0 bd
       -0.09027883 0.19099924 -0.09704872 -0.08603034
000230 42 4d 30 be 2a 6a 34 3e 24 82 df 3d e0 8c 10 bc
       -0.17216972 0.17618623 0.10913494 -0.00882265
000240 93 47 c8 bd be 4d d3 bd 20 d7 2e bd 34 aa 81 3d
       -0.09779277 -0.103175625 -0.042685628 0.06331292
000250 dc 86 a7 3d c8 2f 95 3c ba 20 b6 bd cb 72 a4 bd
       0.08180019 0.01821126 -0.08892961 -0.080297075
000260 68 0e 5f bd e0 6b cf 3b 16 21 11 3e 20 4e 03 3c
       -0.0544571 0.0063299984 0.14172778 0.008014232
000270 40 86 d2 3d 24 6e 1f bd b8 5a fb bc c3 ed 1f be
       0.102795124 -0.038923398 -0.030682907 -0.15618043
000280 28 9f 18 3e cc 5a 02 3e af 6a 45 be 90 88 0c be
       0.14904463 0.12729949 -0.19278978 -0.1372397
000290 76 d3 91 bd 20 94 25 3e f9 89 4a be 8c f9 33 be
       -0.07120411 0.16169786 -0.19779195 -0.17575663
0002a0 e3 aa 2a be 24 fe b4 3d bd 93 18 be 04 21 30 be
       -0.1666675 0.08837536 -0.14900108 -0.17200094
0002b0 28 22 4b 3d 50 d6 fb 3d be 36 07 be 72 87 48 3e
       0.04959312 0.12296736 -0.13204476 0.19582918
0002c0 b2 76 bc bd a0 9b bb 3d c4 f9 3e 3e e4 7c 84 3d
       -0.09202327 0.091605425 0.18649966 0.064691335
0002d0 0c 15 c8 3d 78 f9 93 3c d5 10 cc bd ab 44 00 be
       0.097696394 0.018063292 -0.09964148 -0.12526195
0002e0 c4 23 4f 3e 18 b4 12 3e 58 42 54 3d 78 20 8c 3c
       0.20228487 0.14326513 0.051821083 0.017105326
0002f0 85 9c 38 be 79 e2 bc bd b0 bb 5f bc 40 19 2a bd
       -0.18028457 -0.09222884 -0.013655588 -0.041527987
000300 9e ae 9a bd ec f7 90 3d fc bc 3c be 4c cc df 3d
       -0.07552837 0.07078537 -0.18431467 0.109276384
000310 7b e3 a6 bd 31 7f ae bd 70 85 77 bd 9a e3 3e be
       -0.08148857 -0.085203536 -0.06042999 -0.1864151
000320 84 07 a6 3d bc 40 2e 3e 18 58 45 bd 90 b7 b1 3c
       0.08106902 0.17016882 -0.048179716 0.021693975
000330 30 11 21 3d 84 76 00 3e d8 96 a5 3d 15 5e 40 be
       0.039323032 0.1254521 0.08085412 -0.1878589
000340 ce 1f 45 3e 80 f3 ea 3d ba b2 43 be b6 20 df bd
       0.19250414 0.11472225 -0.19111148 -0.10894911
000350 de 55 83 bd 68 cb d8 3c da 96 c7 bd 4d 5c e4 bd
       -0.06412862 0.02646418 -0.097455695 -0.111504175
000360 5c 7d 10 bd ea dd 2c 3e f4 93 09 3e d0 5a f0 bc
       -0.035275802 0.16881528 0.13435346 -0.029340178
000370 30 89 a5 3c 90 dc 8b 3d 44 3f 27 be 9a db 00 3e
       0.020207018 0.06829178 -0.16332728 0.12583771
000380 5c af 1d 3e c8 f5 1d be 5e 8f 4d 3e 60 24 96 bb
       0.15398926 -0.1542579 0.20074221 -0.004581973
000390 aa 8d 14 3e d6 cd 3f be 10 ef c0 bc 56 ea 08 be
       0.14507166 -0.18730864 -0.023551494 -0.13370642
0003a0 76 4b e9 bd 10 d8 9c bd 7c ef ac 3d 5e 3f 04 3e
       -0.11391346 -0.07658398 0.084441155 0.12914798
0003b0 10 d2 be 3c 94 99 d3 3d fe f4 26 3e 48 85 c3 3c
       0.023293525 0.10332027 0.16304395 0.023867264
0003c0 60 be f2 bb 18 17 38 be 54 1a 3a 3d c0 44 be 3b
       -0.0074079484 -0.1797756 0.045435265 0.0058065355
0003d0 58 3f a6 3d af 52 36 be 9c 98 fb bd e9 53 a8 bd
       0.081175506 -0.17804979 -0.12284967 -0.082191296
0003e0 a2 fb 89 bd 08 c5 c8 bd 28 5f ac 3c 6e 9c ef bd
       -0.06737448 -0.09803206 0.021041468 -0.116997585
0003f0 1e b6 1d be 98 82 ae 3d a0 bf f8 3d f4 0a 4f bd
       -0.15401503 0.085210025 0.121459246 -0.050547555

Linear1.bias f4 [48]
000000 10 78 58 3c 6a 2b 16 be fc d4 f2 3d 2a e5 49 3e
       0.013212219 -0.14664999 0.1185703 0.19716325
000010 10 e3 5c bd 4a f8 15 be 00 f0 4a 3d 86 23 12 3e
       -0.05392748 -0.14645496 0.049545288 0.14271364
000020 58 eb 84 3d 10 5e 80 3d 5c e6 eb bd 92 58 8a bd
       0.06490201 0.06267941 -0.11518547 -0.06755175
000030 e8 26 28 3d e8 ad 79 3d 2c f6 ee 3d db 42 3e be
       0.04105273 0.060956866 0.11668047 -0.18580191
000040 1a dc 15 3e 12 f4 cd bd ec af 82 3d 92 14 48 3e
       0.14634743 -0.10056318 0.06381211 0.19539097
000050 66 f3 4b 3e e0 ef b1 bc 78 ce 45 3d a4 e6 7c bd
       0.19917068 -0.021720827 0.048292607 -0.061743394
000060 60 8d 15 3e 90 ff e5 bd 5c 56 83 bd 80 8b ba 3b
       0.14604712 -0.11230385 -0.06412956 0.005692899
000070 54 7e 37 3e c7 ea c5 bd 20 bf c7 3d 10 be 8f 3d
       0.17919284 -0.09663921 0.09753251 0.070186734
000080 00 c0 a8 3a bb 53 b1 bd 1c b5 19 bd 1c ec 68 bd
       0.0012874603 -0.086585484 -0.037526235 -0.056865796
000090 40 a2 8b bb ae 6a 07 be 06 81 b0 bd 40 1b 5d bd
       -0.004261285 -0.13224289 -0.08618359 -0.053981066
0000a0 f0 37 1b bc 70 59 e0 3c 30 bc ab 3d 6c ce ef 3d
       -0.009473786 0.027386397 0.08385503 0.11709294
0000b0 48 6f 48 bd 84 6d 9c 3d 10 e2 22 3c 42 ac 01 3e
       -0.04893425 0.07638076 0.009941593 0.12663367

Linear2.weight f4 [24, 48]
000000 28 7a bf bc 08 7d 1f 3d c0 00 09 3e da 74 cb bd
       -0.023373678 0.0389376 0.13379192 -0.09934397
000010 00 5c 0a b9 a2 0a 3e bd 4e 26 69 bd 50 4c 19 3d
       -0.00013194978 -0.04639686 -0.056921296 0.037426293
000020 f8 7b 99 3d 70 d3 34 bc e6 d2 04 3e da 5c d7 bd
       0.07494348 -0.011036739 0.12971076 -0.10515757
000030 2c 9f 56 3d f4 4b 05 3e 5e a9 b3 3d c9 91 90 bd
       0.052397892 0.13017255 0.087725386 -0.07059056
000040 fc 70 fc 3d 22 5d d3 bd d4 5d 25 bd ee b5 25 bd
       0.123262376 -0.10320498 -0.040372685 -0.040456705
000050 31 64 cf bd a8 12 f2 3c d8 26 ed 3d c8 69 7d bd
       -0.10126532 0.029549912 0.115796745 -0.06186846
000060 0b 1d 82 bd 30 8e 57 3d ee e8 07 bd 90 50 c2 bd
       -0.06353196 0.052625835 -0.033181123 -0.09488022
000070 e0 bb 20 3c 1f c4 91 bd 18 42 05 3d 96 98 c1 3d
       0.009810418 -0.07117485 0.032533735 0.094529316
000080 26 95 a9 bd e0 81 02 3e 98 1a ec 3c a9 94 f2 bd
       -0.08280401 0.12744856 0.028821275 -0.11844761
000090 4c 9b fa bd e8 9f 9d bc 82 49 a8 bd a8 35 b7 bc
       -0.12236652 -0.019241288 -0.082171455 -0.022364452
0000a0 26 b5 b4 bd 5f 98 0b be 58 b1 da 3d ae 11 ad 3d
       -0.08823614 -0.13632344 0.10678357 0.08450638
0000b0 10 11 1d 3c 60 d7 cd 3c 8a 7a 4a bd fa 33 85 bd
       0.009586588 0.025127113 -0.04943327 -0.06504054
0000c0 00 fb a1 3d 90 20 12 3e 18 29 b0 3c dc 7e e6 3d
       0.079092026 0.14270234 0.02150397 0.11254665
0000d0 d4 72 6d 3d 13 0c b6 bd 8e 3d 75 bd ee 77 b4 bd
       0.057970837 -0.08889022 -0.059873156 -0.08811937
0000e0 ce 7f 0f 3e 3a 75 3e bd 38 30 81 3d cc d3 4f 3d
       0.14013597 -0.046498515 0.06308025 0.050739095
0000f0 14 36 ae bd ce 9d 9f 3d c2 e6 29 bd 2c e2 dd bc
       -0.08506408 0.07793771 -0.041479833 -0.027085386
000100 ac 2f 36 bd a4 8e 7b 3d fa fa 8f 3d d8 12 f1 bc
       -0.044479057 0.06141533 0.07030292 -0.02942793
000110 10 60 3e 3c 0e 28 7f bd e2 6d 51 bd 0c ea ee 3d
       0.011619583 -0.06229406 -0.051130183 0.11665735
000120 80 e9 bf 3c 6c 39 d6 3d c9 c2 8e bd a0 86 07 bc
       0.023426771 0.10460171 -0.06970746 -0.008271843
000130 30 61 b5 bd 28 a7 e0 bc 90 20 8a 3d c0 ad 6c bb
       -0.08856428 -0.027423456 0.06744492 -0.0036114305
000140 34 0b 1e 3d e2 32 b5 bd a0 27 b5 3c f4 5d 0a be
       0.038584903 -0.08847596 0.022113621 -0.13512403
000150 ca 29 84 3d d4 73 d2 bd a7 62 ef bd fa 2a 47 bd
       0.06453283 -0.10275999 -0.11688738 -0.04862497
000160 c4 97 80 3d 10 60 88 3d 8c a3 c0 3d f2 24 86 bd
       0.06278947 0.066589475 0.09406194 -0.065500155
000170 27 b2 a9 bd 8e 10 cf 3d a4 0e 2a 3d 72 e5 a9 bd
       -0.08285933 0.101105794 0.04151787 -0.08295716
000180 f8 ef c8 3c a2 92 9e 3d 17 11 85 bd c0 a6 13 3e
       0.024528489 0.07742812 -0.064974 0.14419079
000190 d6 db c8 3d 8d 60 fa bd b4 a6 80 3d 38 ff 07 be
       0.098075554 -0.12225447 0.06281796 -0.13280952
0001a0 14 fa cf bd 2f 15 8e bd 72 6b 91 bd b8 48 f2 3d
       -0.101551205 -0.06937634 -0.07100572 0.11830276
0001b0 6e 47 b5 bd 3a e6 ec bd e0 ca 29 3c 42 49 04 be
       -0.08851515 -0.1156735 0.010363311 -0.1291857
0001c0 12 59 9d bd 8c be c6 bd 10 f6 ef 3c 8a a2 d5 3d
       -0.076830044 -0.09704313 0.029292136 0.104313925
0001d0 98 e2 1d 3d 00 2f f7 3b 4c 53 b4 3d 40 b5 7e bd
       0.038546175 0.0075434446 0.0880495 -0.062184572
0001e0 98 e3 a9 3c e0 b1 10 be 36 5b ca 3d b8 18 f5 3d
       0.020738408 -0.14130354 0.09880678 0.11967605
0001f0 da 27 db bd ca 4b 8c 3d f0 83 58 3d 2e f9 ef bd
       -0.107009605 0.06850393 0.0528602 -0.11717449
000200 40 71 5d 3c 34 04 2a 3d a3 29 0b be 8e 07 ea bd
       0.01351577 0.041507915 -0.13590102 -0.11427222
000210 ac 48 00 3e 9c d8 88 3d c0 cb 72 bb 30 e2 6e bd
       0.12527722 0.0668194 -0.0037047714 -0.058321178
000220 0c 11 83 3d f0 db 00 3e 90 69 04 3d 71 c5 ad bd
       0.06399736 0.125839 0.032327235 -0.084849246
000230 80 e9 30 3c 44 44 cb bd b0 d3 15 3d c7 04 df bd
       0.010797858 -0.0992513 0.036578834 -0.10889583
000240 1c 76 af bc 73 ad e5 bd 60 c5 0d bc 98 3a f3 3d
       -0.021418624 -0.112147234 -0.008653015 0.1187641
000250 74 09 e5 3d 04 48 ad bc c0 82 1d bb 2c 89 95 3d
       0.11183444 -0.021152504 -0.0024034232 0.07301554
000260 08 60 a4 3c 78 69 08 3e 98 8d 9d bc 00 cb b2 3d
       0.020065323 0.13321483 -0.019232556 0.087301254
000270 b0 08 96 3d cb b1 92 bd ee 32 05 3e ca 59 6f bd
       0.07325876 -0.071628176 0.1300771 -0.05843524
000280 60 0f 70 3c 80 7e 2b 3c d4 6c 07 be fc 77 d2 bd
       0.014652103 0.010467172 -0.13225108 -0.102767915
000290 2d a4 04 be d2 69 8a 3d 55 03 a7 bd 62 17 13 3e
       -0.12953253 0.06758465 -0.081549324 0.14364389
0002a0 77 72 90 bd 78 8d da 3d f8 fd 54 3d ea bf f2 bd
       -0.070530824 0.10671514 0.052000016 -0.11853011
0002b0 f6 9b ae bd 27 0d 8b bd ce c2 ca 3d 98 b8 92 bc
       -0.08525841 -0.06789618 0.09900437 -0.017910287
0002c0 d0 cf 0c 3c 1a b2 c4 bd 8c b0 c3 bd 8c 65 fa bd
       0.008594468 -0.09604283 -0.09555158 -0.122264
0002d0 fc 58 1d bd 2e 3a e7 bd 55 54 09 be 70 2e e9 3d
       -0.03841494 -0.11290394 -0.13411076 0.113858104
0002e0 74 e9 f4 bc 90 ff 9d bd eb aa 00 be c4 f5 06 be
       -0.029896475 -0.0771476 -0.125652 -0.1317969
0002f0 3f 34 0d be 28 0d dd 3d a2 74 0f be 30 1d fd 3d
       -0.13789462 0.10793525 -0.14009336 0.12359083
000300 de d7 05 3e a0 07 08 3c be d5 49 bd a0 72 51 bd
       0.13070628 0.008302599 -0.049276106 -0.051134706
000310 4a c3 7e bd 46 9e 56 bd 44 28 b6 3d 84 6a b5 bd
       -0.06219796 -0.052397035 0.08894399 -0.08858207
000320 68 e6 0a 3e 8f a8 e4 bd cc 5d 93 3d b9 85 c1 bd
       0.13564456 -0.111649625 0.07195625 -0.09449334
000330 d4 ea f8 3d dc 7e c2 bd 78 1c 39 3d f8 ef b2 bd
       0.12154165 -0.09496853 0.045193166 -0.08737177
000340 f8 e7 ff bc 2c 73 78 3d 40 5c 3b bc ce e7 a5 3d
       -0.031238541 0.06065671 -0.011435568 0.08100854
000350 3a 61 f9 bd 2c a0 ef 3d 70 07 c7 3c 40 18 03 3b
       -0.121767476 0.11700472 0.024295539 0.0020003468
000360 c7 07 e5 bd d2 21 12 3e ec 5c e1 bd 04 9e 24 3d
       -0.11183124 0.14270714 -0.110040516 0.040189758
000370 44 0b dd 3d 90 14 75 bd b4 ed 0f 3d ee 8f f8 bd
       0.10793164 -0.059834063 0.0351388 -0.121368274
000380 6e 99 02 bd 60 21 6f 3c c0 d0 fb 3b 20 d0 22 bd
       -0.031884603 0.01459536 0.007684797 -0.039749265
000390 80 7c 92 bb 0c f5 d0 bd 5c 8f a9 bc 08 91 80 bc
       -0.004470408 -0.10202989 -0.020698242 -0.015694156
0003a0 c0 d4 ba bb fc d5 0f be 88 56 51 3d 27 ec 88 bd
       -0.0057016313 -0.14046472 0.051107913 -0.066856675
0003b0 a8 48 67 3d 3c ac e6 bd de e1 03 3e 60 e9 03 bc
       0.056465775 -0.1126332 0.1287913 -0.008051246
0003c0 00 a8 1a 3b 90 bb 56 3c a8 2b ed 3c 84 6a 13 3e
       0.002359867 0.013106242 0.028951481 0.14396101
0003d0 08 85 91 bc ba 89 3f bd 93 bf 07 be a0 6a fc bb
       -0.01776363 -0.046762206 -0.13256674 -0.0077031404
0003e0 40 44 69 bc da 7b d5 bd c0 86 6e bc 10 d6 2e 3d
       -0.0142374635 -0.104240134 -0.014558494 0.042684615
0003f0 30 9a d8 bd 40 04 0a 3d 0d 60 11 be e4 c8 6f bd
       -0.10576284 0.03369546 -0.14196797 -0.058541194

Linear2.bias f4 [24]
000000 d8 6a b3 3d 28 4c c7 3c 70 03 98 bc b8 f5 50 bd
       0.08760613 0.024328306 -0.018556327 -0.051015586
000010 40 8d 35 3c f4 17 af bc d0 15 10 3c 5c d0 a4 bc
       0.01108104 -0.021373726 0.008794263 -0.020118885
000020 28 43 de 3d 55 78 cb bd fa 83 d7 3d 68 b8 97 3c
       0.10852653 -0.09935061 0.105232194 0.018520549
000030 cd 8d 89 bd d6 dd c8 bd 28 4e 85 3d cc fa 0c 3e
       -0.067164995 -0.09807937 0.06509048 0.13767546
000040 1a 9e 09 3e 00 52 24 bb 98 77 02 3d 80 15 9f 3c
       0.13439217 -0.002507329 0.031852335 0.019419432
000050 be 3a b9 3d 2b b7 dd bd 00 33 a7 ba d0 95 d8 3d
       0.09044407 -0.10825952 -0.0012756288 0.105754495

Linear3.weight f4 [1, 28]
000000 e0 e6 28 3d a0 e9 9d bc 21 17 3b 3e d1 d0 04 be
       0.041235805 -0.01927644 0.18270542 -0.12970282
000010 24 85 27 be de bd f1 3d 00 b3 4b 3d 9b e0 13 3e
       -0.16359383 0.118037924 0.049731255 0.14441149
000020 67 c9 3d 3e b1 d3 83 bd 45 7b 31 3e 60 d5 58 bd
       0.1853386 -0.06436861 0.1733218 -0.052937865
000030 5b 33 25 3e 79 f5 1d 3e d9 86 16 3e 8c bb 18 bd
       0.16132872 0.15425672 0.14699878 -0.037288234
000040 a5 07 06 3e e4 21 11 3d 18 ab 38 bd 32 3c 34 be
       0.13088854 0.03543271 -0.045085043 -0.17601088
000050 c8 cb d4 3c 38 94 ae bd a1 92 13 be 61 ae 20 3e
       0.025976077 -0.08524364 -0.14411403 0.1569152
000060 5b 6a 0a 3e f4 c8 0a be e5 a6 29 be 00 b9 d3 3c
       0.13517134 -0.1355322 -0.16567571 0.02584505
